best_jump_model.pth (torch, 21144 bytes, 6 tensors)

fc1.weight f4 [64, 4]
00000000: 286a e03e 709e 30bd 28aa cebe 50db ff3d
00000010: ead8 de3e 741c 7fbe c08d 97bd 2c6b 923e
00000020: 5a36 b9be 8edf e93e 8090 32bc 9c27 1d3e
00000030: 0c19 80be 28f1 fcbe 70b1 45bd b6ac e4be
00000040: 8e59 e13e d01e 68bd f41e b83e c038 373d
00000050: 1a13 eebe d89e 61be 30db 8ebd 3c40 883e
00000060: 0c10 c0be 008c 0e3b a2a6 f7be 2a45 d5be
00000070: 00b5 e2bd 708c f43d c029 87be 003d 3d3b
00000080: 209e 8fbd 128a 9ebe bc93 233e 10a8 36be
00000090: 442f 0cbe d0e2 f1be 0ce7 503e dc31 453e
000000a0: b878 6cbe b04c eb3e 2061 7a3d acfb 4ebe
000000b0: e052 eb3e 58f8 bfbd 500f 84be 0e18 f93e
000000c0: f4da b6be 50c0 493e 40d2 9a3c 409e 0d3e
000000d0: 7ac0 a93e e837 d1be ac13 49be 9435 fe3e
000000e0: 409d 393d ee48 a93e 4076 8d3d b088 0d3e
000000f0: f07e efbe ae0b bdbe 9094 f1bd a078 a43e
00000100: 24ea ce3e c0c0 023d 5032 213e 20b8 89be
00000110: 000a 41be 863a e03e 80e1 4dbe 6ccf 7fbe
00000120: 50f8 403d 0cab 33be e443 6b3e 808d bebe
00000130: 00fb 0abd 3afa ba3e f015 f3be 7403 dc3e
00000140: 5047 bc3d 14e7 f9be 285a 7ebe 72e3 933e
00000150: 4062 3e3c ec20 b53e b84f a63e 408f bb3d
00000160: 68ff 95be 8499 54be d067 75be 801b 88bc
00000170: d08d 2ebd 80c0 2abe ac55 473e 90a5 e0bd
00000180: 68e8 ae3e 4c5c 24be f244 933e 0c9d 603e
00000190: c000 a73e 906b 863d e071 90be 201e f8be
000001a0: e8fa f5bd 962c b93e 3ef2 c5be a0d6 a5be
000001b0: 56f9 e73e 1669 c93e 0082 5dbb 10d4 f4be
000001c0: 5c47 053e 5c62 9fbe 38b3 0a3e c87d 0dbe
000001d0: b0d3 b83d 609f 3f3d b44f fabe 74ca 043e
000001e0: 1693 953e 0090 45bd 006f a0be d846 c73d
000001f0: 700c a8be 2010 7fbd 687c 7a3e 9476 c3be
00000200: c852 b6be 9870 e33d 3039 2f3d eae6 c4be
00000210: fc37 7e3e 8cee 08be 70de bdbd 76b1 e63e
00000220: e211 ea3e 225c d2be bc1f 71be 068c b53e
00000230: 666c 8dbe de70 8b3e e077 21be c809 cb3d
00000240: 106e f93e ca8c e63e 125e c1be 7288 acbe
00000250: e896 bc3e c01a 943d 1c80 cd3e e882 03be
00000260: 28b5 1dbe a0a6 033e e0c9 f0be d09b 17bd
00000270: a413 8d3e 0038 bfbd c068 a2be f032 633d
00000280: a82f 64be b60e a1be b032 87bd 90a1 78be
00000290: 5a52 c33e 900e a93e b8fa 68be 04d3 a0be
000002a0: 30f4 ad3d d05e 73be cc31 b53e 90c2 87bd
000002b0: 80dd 42bc 20b3 7b3d c016 d43e dc9b 9fbe
000002c0: 84b3 173e 8291 d3be bc58 65be 3040 483d
000002d0: 202a f8be fa83 8b3e 785f 18be 1042 82bd
000002e0: f007 fd3e 0224 a13e c84f efbd a068 9cbd
000002f0: a84c a2bd 44e5 a53e fc67 b1be 005d 983b
00000300: 38b7 d23e 7083 193d 64a9 983e 9cc2 173e
00000310: 44a5 553e 009d f9bc b85a f5bd c84e c63e
00000320: f4ba d3be 0eb0 ffbe 6a30 f53e 38ca 5d3e
00000330: b081 c7be 00e3 813c e2a2 dfbe fc17 5ebe
00000340: 60e9 77bd 3cbb d5be 2cc7 eabe d2cf 87be
00000350: 4012 e23e 5875 223e 686a c2bd 8ceb 49be
00000360: 625d a13e f4b7 db3e d06f e33e 40f7 83bc
00000370: 4c00 dcbe 5c36 ebbe 743a 75be e865 f1be
00000380: 287a a83d 0067 8a3c 8ea4 f43e e446 9dbe
00000390: 2045 a53d 381b f4be a8b9 cabe e670 f93e
000003a0: 6c70 413e d002 fb3e 0093 b43d 088d 493e
000003b0: 480f c0bd 462f c03e a0a5 f13d bcd2 13be
000003c0: 56cf a6be 146c 493e 8287 dd3e fc75 613e
000003d0: 4643 c03e a8a9 963e 407a 7c3c 647e 6abe
000003e0: 4005 83bc 280d a7be 402a 443c e429 fb3e
000003f0: be77 afbe a858 d1bd 46f0 a83e 0659 e8be
0.4383099 -0.043119848 -0.40364194 0.124930024 0.43524867 -0.24913198 -0.074000835 0.2859739
-0.3617428 0.4567837 -0.010898709 0.15347141 -0.2501911 -0.49402738 -0.04826492 -0.44663018
0.44013637 -0.05667001 0.35961115 0.044731855 -0.46498948 -0.2203325 -0.069754004 0.26611507
-0.37512243 0.0021750927 -0.48369318 -0.4165433 -0.11069679 0.11940849 -0.2639904 0.002887547
-0.07012582 -0.30964714 0.15974325 -0.17837548 -0.13689905 -0.47243357 0.20400637 0.19257301
-0.23092926 0.45956945 0.061127782 -0.20213193 0.45961666 -0.0937354 -0.25792933 0.48651165
-0.35713923 0.19702268 0.018899083 0.13829899 0.3315466 -0.40862966 -0.1963641 0.49650252
0.04531598 0.33063453 0.0690732 0.13821673 -0.46776533 -0.36922973 -0.11795914 0.3212328
0.4041301 0.031922102 0.15741849 -0.2689829 -0.18851471 0.4379465 -0.20105553 -0.24981469
0.04711181 -0.17545718 0.22975117 -0.3721733 -0.03393078 0.36519033 -0.47477674 0.42971385
0.09193289 -0.4880911 -0.2483908 0.28884465 0.011620104 0.3537668 0.32482696 0.09158182
-0.29296422 -0.20761687 -0.23965383 -0.016614676 -0.04261571 -0.16674995 0.19466275 -0.109690785
0.34161687 -0.16050833 0.2876354 0.21934909 0.3261776 0.06563485 -0.2821188 -0.48460484
-0.12010747 0.3616683 -0.3866138 -0.32390308 0.45307416 0.39337987 -0.003379941 -0.4781804
0.13015503 -0.3112973 0.13544929 -0.13817513 0.09024751 0.04678285 -0.48888934 0.12967855
0.2921378 -0.048233032 -0.31334686 0.09730309 -0.3282199 -0.062271237 0.2446152 -0.38176405
-0.35610032 0.1110546 0.042779148 -0.38457423 0.24826044 -0.13372248 -0.09270942 0.45057267
0.45716769 -0.41085917 -0.23547262 0.35458392 -0.27621764 0.27234548 -0.15768385 0.09913975
0.48716784 0.4502929 -0.37767082 -0.3369785 0.36833882 0.07231665 0.40136802 -0.12842906
-0.15401137 0.12856531 -0.47029018 -0.03701383 0.27554047 -0.09336853 -0.31720543 0.0554685
-0.22283804 -0.31456536 -0.06601465 -0.24280381 0.38148767 0.33018923 -0.22751892 -0.31410992
0.08493841 -0.23766637 0.35389555 -0.06628907 -0.01189363 0.061450124 0.41423607 -0.311736
0.14814574 -0.4132195 -0.2239713 0.04888934 -0.4846964 0.27249128 -0.14880168 -0.06360257
0.49420118 0.31472784 -0.11685139 -0.07637143 -0.07924777 0.32401478 -0.34649646 0.0046497583
0.4115541 0.037478864 0.29816735 0.14820331 0.20863825 -0.030470371 -0.11980194 0.3873198
-0.4135357 -0.49939007 0.478885 0.21659172 -0.3896613 0.015855312 -0.43678957 -0.21688837
-0.060525298 -0.4174441 -0.4585508 -0.26525742 0.4415455 0.15865076 -0.09492952 -0.1971876
0.31516558 0.42913783 0.44421244 -0.016109109 -0.42968976 -0.4593991 -0.2394808 -0.4714806
0.082264245 0.016894817 0.47781795 -0.30718148 0.08069825 -0.47677016 -0.3959477 0.48718947
0.18890542 0.49025583 0.088171005 0.19682705 -0.09377915 0.37536067 0.117991686 -0.14435858
-0.3258006 0.19670135 0.43267447 0.22017664 0.37551326 0.29426312 0.015410006 -0.22899777
-0.015993714 -0.32627225 0.011972964 0.49055398 -0.34271044 -0.10221988 0.32995814 -0.4538042

fc1.bias f4 [64]
00000000: e0b1 b1bd a0d2 4e3d 20a4 203d 380d 12be
00000010: 3cf5 0dbe 8446 9bbe 80f5 01be 30d6 503d
00000020: 88df 99be 7cc6 35be 26d5 f1be 527c a3be
00000030: a294 e4be f8e9 a53d 10de ef3d eca3 51be
00000040: 0053 6e3e 34c7 c7be 4611 973e d013 333d
00000050: 1051 e0be b42b a03e 085b bcbd 44da 70be
00000060: b894 a0be 90d1 02be 508c 483e e6d6 c03e
00000070: 52f6 973e a4ee ec3e 8611 90be c2ec e53e
00000080: a092 b63c 10ed fbbd 28fc 39be 0e4a d23e
00000090: 6080 c83c 68a8 b0be 2ce5 febe 100c 3b3d
000000a0: 1cdc f6be 4043 28be bc3e d43e 9684 9f3e
000000b0: 0eac ac3e e0c7 a8bc a0f9 953d 2c4b 48be
000000c0: 2645 ccbe a00f 003d 2874 a13d ac9b 6e3e
000000d0: f423 603e f095 b0be c84e febd 28c5 e2bd
000000e0: 3a94 95be cab0 a53e e45f ce3e b0e5 b33e
000000f0: 28ec ddbe d459 b0be d4c2 c13e 4ca8 013e
-0.08676505 0.050493836 0.03921902 -0.14262855 -0.1386308 -0.30327237 -0.12691307 0.050985515
-0.30053353 -0.17751497 -0.47232932 -0.31930786 -0.44644648 0.081012666 0.11712277 -0.20472687
0.2327385 -0.39019167 0.29505366 0.043720067 -0.43811846 0.31283343 -0.0919705 -0.23520762
-0.31363463 -0.12775254 0.19584775 0.37663954 0.29680115 0.46275818 -0.2813837 0.44907194
0.022286713 -0.123010755 -0.18162596 0.41072124 0.024475276 -0.34503484 -0.4978422 0.0456658
-0.48214805 -0.16431904 0.41454113 0.31155843 0.33725017 -0.02060312 0.07323003 -0.19559926
-0.39896506 0.0312649 0.07883483 0.23301572 0.21888715 -0.34489393 -0.1241737 -0.11072761
-0.2921465 0.32361442 0.40307534 0.35136175 -0.43344235 -0.34443533 0.37843955 0.12661856

fc2.weight f4 [64, 64]
00000000: 606e ab3c 8041 303d cc3c 4e3d 72c1 9dbd
00000010: 7084 173d 386e e73d 5eed d9bd 005f c33c
00000020: 086c b0bc 50ae eebc ea3c afbd f805 b83d
00000030: 380d 013d c0d1 51bd b2f6 9b3d 0ac0 ccbd
00000040: 70af 033c 30fb 943d ae8c dcbd a04f f3bd
00000050: 405f 82bb 842d 78bd 6840 cdbc 7c99 30bd
00000060: 7422 adbd e856 e1bd c60e aebd 968c bc3d
00000070: 806a 9e3d 482b bbbd c073 cdbb c2b7 91bd
00000080: 5c52 8cbd d0b5 0fbc 0ae6 f9bd 8a53 bc3d
00000090: fe48 fcbd 6c92 113d e219 ffbd fee0 dd3d
000000a0: 480b 2fbd 58ca b0bc 407a 803b a4ed 2abd
000000b0: f0da 5bbc 1ef5 e83d 38a5 2e3d 7602 f13d
000000c0: ac81 573d 502c c9bc f2b0 b5bd 1c4d 223d
000000d0: d84c e0bd 7808 9c3c c8e5 a3bd f874 9f3d
000000e0: a89d b73c a060 a03d c041 d7bd 0a5b dd3d
000000f0: 7845 0abd cedf ee3d f03e aebc 266a f9bd
00000100: 44ae 523d 16e4 d63d 24e1 6c3d e0e4 21bc
00000110: 007b 50bc 68c8 a73c d0cb 95bc c032 b43c
00000120: 7815 69bd f656 fb3d 00a6 bf3a 08e9 14bd
00000130: b86d d8bc a860 cbbc 380a 8d3d e091 e0bb
00000140: 7464 7cbd 981c c6bd 720e 9e3d 20a4 05bc
00000150: 52e1 9abd ba32 a1bd 60b4 593c b037 f9bc
00000160: c86b f6bd 5ade 843d 74df a7bd 5436 c3bd
00000170: 901f 173d 10ad 8bbd d0f0 d13c 30a5 273d
00000180: f0b0 4bbc fa50 923d d4e5 ffbd 3867 dabc
00000190: 44cf 95bd e2b5 f83d fca3 6ebd f697 88bd
000001a0: 9ed7 fdbd fc88 0e3d c41c b5bd 48f5 943c
000001b0: fac0 c43d 8076 d23a 3839 a3bd 9aad bbbd
000001c0: d425 27bd 08ab a6bc a4e0 a43d 00dd e13d
000001d0: 1473 3f3d e831 313d 5a7d ca3d 4636 fb3d
000001e0: 7646 c33d 38a0 d63d c4bb 573d 7e9a b1bd
000001f0: 780c e5bd 8c81 dfbd 7898 9a3c 8ab1 9e3d
00000200: 82a5 a23d d0d0 ed3d 8ce9 edbd 24d1 543d
00000210: 405d aa3c 4497 533d dc46 a7bd b078 46bc
00000220: c002 26bd d6e6 a23d 3c44 7e3d ae58 9c3d
00000230: 18e7 e9bd 8874 933c 70b2 5bbc aa3e 993d
00000240: 6c64 453d acdd d7bd c4d5 ee3d 203b 7abc
00000250: f695 bb3d 18c3 653d 84b8 d6bd 683d 9c3c
00000260: 1ed6 f5bd 98f9 733d 0038 c53b 9e46 ca3d
00000270: 886a d33c 66a9 b93d 74f3 bbbd 30a2 8cbd
00000280: c029 a6bc 300e 19bc e82b d1bc 5c36 abbd
00000290: 0850 c6bd 74a8 d6bd c039 f13b c48c 753d
000002a0: 8003 c8bc 62e6 cebd 9c3c ed3d aee7 ca3d
000002b0: 4059 fa3d 24a5 5dbd 20a6 133d 90c1 013d
000002c0: 1015 503d 604a d43c 88d1 063d ec9f 9fbd
000002d0: c094 3b3c 1854 963c e81e 04bd 60b5 ee3b
000002e0: 54fa 533d 0030 d7bb 609e 39bc a8d7 d3bd
000002f0: 609e a53b 4803 c63d 603b 203c 38e1 b63d
00000300: 9ac8 803d 70ef 2ebc c040 573b d08d 953c
00000310: e847 903c 105e d1bd fc75 2ebd 6c30 fa3d
00000320: a039 cbbc a452 143d 2483 573d 680c cb3c
00000330: e090 47bd c017 b03b 961b c7bd 8ab3 eebd
00000340: 0cfb b73d aaf8 863d a656 c83d a00c 8ebb
00000350: e0c0 fbbc 26f2 d2bd 00d6 92ba 0891 acbd
00000360: 8632 d0bd 8891 5c3d 78a3 343d f898 ecbd
00000370: 68dc bdbd 7081 c83c 1610 bebd 686b 41bd
00000380: 1019 5d3c ee37 ce3d 0cd4 6ebd 804c 4ebb
00000390: 744d 4f3d 4824 4dbd 0e8d c73d 804d b63a
000003a0: 00e5 93bd 3c00 1fbd 3e0d bbbd 40f4 b2bb
000003b0: 28c7 db3c 1ae3 8b3d 4e2d a7bd 985f 503d
000003c0: 0070 abbb 6046 3b3c 8028 093d 1633 ffbd
000003d0: 382a dcbc ae0d d43d 2a03 8ebd 2c9e 37bd
000003e0: 02b4 e7bd bcb4 00bd 301e f83d 7268 febd
000003f0: 3089 833d e8e3 f0bc 6cfc c1bd da19 acbd
0.020926654 0.043031216 0.05035095 -0.077029124 0.036991537 0.113003194 -0.10640977 0.02384901
-0.021535888 -0.029135853 -0.0855654 0.089855134 0.031506747 -0.051225424 0.07615413 -0.09997566
0.008037433 0.07274473 -0.1076902 -0.11880422 -0.00397864 -0.060590282 -0.025055125 -0.043115124
-0.08453837 -0.11002904 -0.084989116 0.09206502 0.07735157 -0.091391146 -0.006269902 -0.07115127
-0.06851646 -0.008771375 -0.122020796 0.09195621 -0.1231861 0.03554003 -0.12456109 0.108339295
-0.042735368 -0.02158086 0.0039208233 -0.041730538 -0.013418898 0.113748774 0.042638034 0.117680475
0.0526139 -0.024557263 -0.0887164 0.03962432 -0.10952157 0.019047007 -0.08002812 0.07785982
0.022414044 0.0783093 -0.10510588 0.1080838 -0.033757657 0.11663781 -0.021270245 -0.12178449
0.051435724 0.10492723 0.0578319 -0.009881228 -0.012724638 0.020481303 -0.018285662 0.021996856
-0.05690524 0.12272446 0.0014621615 -0.03635505 -0.026419505 -0.024826363 0.06886715 -0.006853327
-0.061619237 -0.096734226 0.07717599 -0.008156806 -0.07562508 -0.078710034 0.013287634 -0.030422062
-0.120322764 0.06487723 -0.08196917 -0.09531847 0.036895335 -0.068201184 0.025627524 0.04092902
-0.012432322 0.07144351 -0.12495008 -0.026660547 -0.073149234 0.121440664 -0.058261856 -0.06669609
-0.12394641 0.034798607 -0.08843377 0.018183365 0.0960712 0.0016057044 -0.07969898 -0.09163971
-0.04080756 -0.020345226 0.08050659 0.110284805 0.046740606 0.043260485 0.0988719 0.12266211
0.09534924 0.10479778 0.0526693 -0.08672045 -0.11184019 -0.10913381 0.01887153 0.07748707
0.07941724 0.116120934 -0.11616811 0.051957265 0.020796418 0.05165793 -0.08167812 -0.012113735
-0.040529966 0.07954185 0.062076792 0.07634102 -0.11421031 0.017999902 -0.013409242 0.07482655
0.048191473 -0.105403274 0.11661866 -0.015272886 0.09159462 0.05609426 -0.10484412 0.01907225
-0.1200373 0.059564203 0.0060186386 0.098767504 0.025807634 0.09065513 -0.091772944 -0.06866872
-0.02028358 -0.0093417615 -0.025533631 -0.083599776 -0.096832335 -0.10481349 0.0073616207 0.059948698
-0.024415731 -0.10102536 0.11583826 0.09907471 0.12224054 -0.05411257 0.0360471 0.031678736
0.050801337 0.025914371 0.03291467 -0.077941746 0.011449039 0.018350646 -0.032256037 0.007284805
0.051752403 -0.0065670013 -0.011329263 -0.103438675 0.00505428 0.096685946 0.009779781 0.08929676
0.06288262 -0.010677204 0.003284499 0.018256098 0.017612413 -0.10223019 -0.042592987 0.12216267
-0.024807751 0.036211625 0.0526153 0.02478619 -0.048722148 0.005373925 -0.097220585 -0.11655338
0.0898343 0.06590398 0.09782152 -0.004335001 -0.030731618 -0.103000924 -0.0011202693 -0.084261
-0.101658866 0.053849727 0.04410121 -0.11552614 -0.09270555 0.024475783 -0.09280412 -0.04722157
0.013494745 0.100692615 -0.058307692 -0.0031478703 0.050610974 -0.05008343 0.09743701 0.0013908595
-0.07221413 -0.038818583 -0.09133385 -0.005461246 0.026828364 0.068304256 -0.08162938 0.050872415
-0.0052318573 0.011430353 0.03348589 -0.12460916 -0.0268756 0.10354172 -0.06934197 -0.04482858
-0.11313631 -0.03142236 0.12115133 -0.12422265 0.06422651 -0.02940555 -0.09471974 -0.08403368

fc2.bias f4 [64]
00000000: da53 e43d 60e8 c73c 8c9c f7bd 3a8b c63d
00000010: 6000 ecbd b6e7 e73d fe2f ce3d 44ce 8bbd
00000020: d0b9 36bc e422 3fbd 58c8 e63d dc0d e0bd
00000030: f243 d7bd 1493 f13d d8f7 d7bc c444 8abd
00000040: 8813 fe3d 2838 d4bc 840a 913d 9007 7a3d
00000050: c4b5 11bd b417 96bd a843 463d 3020 7a3c
00000060: 9c2e 3cbd 3611 f9bd d855 d83c d016 6e3d
00000070: f88a fabd ae09 a53d 28d9 f53c 9a4c af3d
00000080: 74ee 8d3d 2038 db3b b295 c5bd d045 4ebd
00000090: c413 f6bd 4c3e d73d a890 e23c 803b e0bc
000000a0: 1004 8cbd a4a0 b43d aa0b e23d 364c bb3d
000000b0: 902f debd 14d7 ab3d 98d1 6e3d d662 913d
000000c0: f8d1 913d e849 8bbd f473 a33d fca2 d7bd
000000d0: 18c4 c83c 0605 da3d b0ba f03d a844 4bbd
000000e0: ca9f 913d 1cd4 763d 80aa 23bd 5c4b adbd
000000f0: f8ff 50bd def8 d93d 6c29 42bd 484e f73d
0.11148806 0.024402797 -0.12090406 0.09694524 -0.11523509 0.11323492 0.100677475 -0.068264514
-0.0111527 -0.046664134 0.11268681 -0.109401435 -0.105110064 0.11795631 -0.026363298 -0.06751397
0.12406069 -0.025905684 0.07082084 0.06104237 -0.035573736 -0.0732874 0.048404366 0.015266463
-0.045942888 -0.12161486 0.026408121 0.058127224 -0.122335374 0.08058487 0.030010775 0.085595325
0.06930247 0.00669004 -0.09647693 -0.050359547 -0.12015489 0.10509929 0.027656868 -0.027372122
-0.06836712 0.08819702 0.11037381 0.091453955 -0.108489156 0.08390632 0.058305353 0.070989296
0.071201265 -0.06801206 0.07981101 -0.10529134 0.024507567 0.106454894 0.11754358 -0.049626023
0.071105555 0.060260877 -0.039957523 -0.08461639 -0.05102536 0.10643171 -0.047402784 0.12075478

fc3.weight f4 [2, 64]
00000000: d06f cd3c e479 b33d 14b7 693d 10c1 b93d
00000010: e487 163d 4807 65bd c01d 6a3c 5eba bd3d
00000020: 90a3 adbc 8011 95bc 4012 593c c21b a9bd
00000030: 248a 0fbd 00a8 88ba 1645 ef3d 8ed9 e8bd
00000040: ce57 d23d cce8 763d e0c0 bcbc 10d5 7b3c
00000050: 00ad 26bc d437 75bd c078 b4bd 30a7 1dbc
00000060: 1c39 04bd 0033 753c 0ee9 a13d c010 293d
00000070: d053 65bc 2025 a93c a478 573d a0fe d33c
00000080: 7ca3 cc3d 12c7 843d ac10 fd3d b6b3 d33d
00000090: 4089 e13c 904b 2a3c 2e44 a5bd 50d5 a83c
000000a0: e881 f83c 6a88 893d 2616 b3bd c268 d1bd
000000b0: 3444 c0bd 0cab 013d c02a 673d e0e5 c83b
000000c0: 54a3 da3d 2a1d ae3d 06ca cf3d 683b bcbc
000000d0: 9464 fe3d 48b4 ffbc 765a b83d a0ef 27bd
000000e0: 7c29 4ebd 14e3 f3bd 5838 edbd fee0 f7bd
000000f0: d844 7c3d 9886 f2bc 5042 fabd 8e0d da3d
00000100: 26ce 81bd c010 433b e865 8a3c 6cfa b4bd
00000110: 3035 33bd 2e41 81bd ac48 87bd f802 4c3d
00000120: 383d 42bd a059 c23b 4acb d23d 8c37 32bd
00000130: 2644 abbd ce4b bb3d 94b5 8fbd 02ce e03d
00000140: 1076 683d 0c65 4d3d 18f3 aebd 4aa8 d2bd
00000150: f640 db3d 3481 533d d8ec 9c3c 885a cf3c
00000160: 3c14 5c3d e829 54bd 70a5 693d 62a4 edbd
00000170: 2450 de3d 68d6 893c c891 8d3c 24ab 943d
00000180: 3cc7 8c3d c4ff d4bd 6c21 243d 6864 c43c
00000190: 248e d53d 48c7 b5bd 202d 4fbd 787b d7bc
000001a0: 0007 f43d 4827 c93d 6410 613d 58f2 7a3d
000001b0: a899 a03d 2426 12bd 906a 28bc 7492 7cbd
000001c0: 788b e93d e8aa 44bd 325a e8bd f020 7bbc
000001d0: 6836 bcbd 0445 1c3d 98e1 823d 78e3 193d
000001e0: 4e64 ccbd e2e7 99bd 1610 f03d 98d0 4bbd
000001f0: a8a1 fabc 305f 673d 70ad 663c 283d babc
0.02507773 0.08763483 0.057059363 0.09070027 0.03675069 -0.055915147 0.0142893195 0.09264062
-0.021196157 -0.018196821 0.01324898 -0.082572475 -0.03504385 -0.0010426044 0.11683099 -0.1136962
0.10270654 0.060280606 -0.023041189 0.015370622 -0.010173082 -0.059867695 -0.08812094 -0.00962238
-0.032281026 0.014965773 0.0790578 0.04127574 -0.013997033 0.020647585 0.052605286 0.02587825
0.0999212 0.06483282 0.123566955 0.103370115 0.027531266 0.010393992 -0.08069645 0.020609528
0.030335382 0.06715472 -0.08744459 -0.10225059 -0.09388009 0.031657264 0.056437254 0.006130919
0.106756836 0.08501656 0.10145955 -0.022977546 0.124215275 -0.031213894 0.09001629 -0.04100001
-0.05033253 -0.11908546 -0.11583012 -0.12103461 0.061589092 -0.029605195 -0.12219679 0.106471166
-0.06338148 0.0029764622 0.016894296 -0.08836827 -0.043751895 -0.0631126 -0.06605658 0.04980752
-0.047421664 0.0059310943 0.102926806 -0.043510005 -0.08362608 0.09145318 -0.07017055 0.10976793
0.05675322 0.050145194 -0.0854246 -0.10286005 0.1070575 0.05163689 0.019155905 0.025311723
0.053730235 -0.051797777 0.05704254 -0.11603619 0.10855129 0.01682587 0.017281428 0.07259205
0.068739384 -0.10400346 0.040070936 0.023973659 0.10427502 -0.088759005 -0.050580144 -0.026303992
0.11915398 0.098219454 0.054947272 0.061266273 0.078418076 -0.035680905 -0.010279313 -0.061663106
0.11403555 -0.04801455 -0.113453284 -0.015327677 -0.09190065 0.038151756 0.06390685 0.037570447
-0.09980069 -0.07514931 0.11721818 -0.049759477 -0.030594662 0.056487262 0.014079437 -0.02273424

fc3.bias f4 [2]
00000000: 0e11 d4bd 3078 ae3c
-0.103548154 0.021297544
