checkpoint_model_episode_300.pth (torch, 21402 bytes, 6 tensors)

fc1.weight f4 [64, 4]
0.4874475 0.10769996 -0.84518987 0.0029576654 0.3464775 -0.53956264 -0.42017606 0.1367598
-0.47704735 0.378196 -0.12687498 0.13181388 -0.07057032 -0.39231282 -0.002736508 -0.595399
0.23145111 -0.24840665 0.16904096 0.0015520313 -0.3445624 -0.5213993 -0.1202604 0.27112296
-0.46488586 -0.22066355 -0.47649595 -0.38831538 -0.11069679 0.11940849 -0.2639904 0.002887547
0.21067975 -0.12358845 0.3916081 -0.18343402 -0.20512776 -1.0400006 0.33653444 -0.014717818
-0.10460424 0.66314125 0.26640773 -0.044630427 0.41178852 -0.31687424 -0.6230919 0.45551318
-0.5381552 0.04876182 -0.03458785 0.10840104 0.32471985 -1.352626 -0.38648412 0.18605042
-0.20904511 -0.008139928 -0.47038332 0.24156451 -0.5998161 -0.48958343 -0.20691967 0.23385991
0.37771618 0.16117643 -0.1571363 0.03879515 -0.24286976 0.3422419 -0.27301583 -0.1973982
-0.053433564 0.0050391187 0.47189325 -0.3582298 0.12091629 0.35886008 -0.7216158 0.45236057
0.41168645 -0.9412451 -1.2085683 -0.03863006 -0.041821282 0.3747833 0.24516256 0.33072722
-0.29296422 -0.20761687 -0.23965383 -0.016614676 -0.10693592 -0.29027665 0.066868015 -0.055612158
0.3330767 -0.34387815 0.03765582 0.10472461 0.36000374 0.21510215 -0.029478684 -0.26991057
0.031242916 0.45515054 -0.2415641 -0.19961317 0.31690493 0.36937302 -0.046359602 -0.17521577
0.13835202 -0.54442716 0.35744628 -0.20282437 0.11683787 0.03745189 -1.794637 0.3919363
0.41544878 0.13981357 -2.0153575 0.3080904 -0.33464396 0.1448704 0.9471138 -0.27216998
-0.31629658 0.20676519 0.36572134 -0.44658092 0.2904479 -0.17172857 -0.31218877 0.3460903
0.3846218 -0.40473214 -1.4148724 0.33018953 -0.30708554 0.24304815 -0.19112323 0.06279381
0.5350097 0.5214965 -0.30803245 -0.17339757 0.22554065 0.15899856 0.23687582 -0.011259904
-0.15401137 0.12856531 -0.47029018 -0.03701383 0.18730125 -0.006675933 -1.2414626 0.28770518
-0.33186868 -0.11530185 0.26339832 -0.33831632 0.3386273 0.4940904 -0.3339308 -0.07993731
0.02661706 -0.3687129 0.3721853 -0.19067197 0.04344334 0.15471922 0.2807788 -0.18656617
0.16063462 -0.68536156 -0.39188716 -0.07866157 -0.4846964 0.27249128 -0.14880168 -0.06360257
0.26994234 0.14368428 -0.28186423 -0.055539336 0.06175936 0.5175699 -0.88563997 0.2543455
0.3472835 -0.17353086 0.05777516 0.097859085 0.19262236 -0.049363934 -0.2712092 0.3997577
-0.19053146 -0.95721185 0.32010493 0.23109323 -0.3896613 0.015855312 -0.43678957 -0.21688837
-0.0989805 -0.43832052 0.035466373 -0.5403755 0.45490038 -0.055060364 -0.65521413 -0.023541547
0.21351646 0.38938853 0.36190718 -0.015382655 -0.5462835 -0.52660465 -0.28495735 -0.38719767
0.13200983 0.052447002 0.52765757 -0.16015919 0.16030686 -0.93188214 -1.6941797 0.18524346
0.08061813 0.33479142 -0.29366422 0.2862077 -0.12792727 0.44585395 0.065866 -0.07658371
-0.37381646 -0.094330795 0.23148143 0.30029133 0.2840125 0.47647342 0.10759318 -0.14864779
-0.29573306 -0.8738337 -0.40103757 0.26608226 -0.34340712 -0.057797235 0.5729292 -0.5545568
00000000: b892 f93e cc91 dc3d 5d5e 58bf 64d5 413b
00000010: 8065 b13e c720 0abf 5121 d7be c30a 0c3e
00000020: 8d3f f4be e8a2 c13e 84eb 01be 38fa 063e
00000030: 2c87 90bd 3add c8be fc56 33bb 126c 18bf
00000040: 8501 6d3e 505e 7ebe 1319 2d3e 876d cb3a
00000050: 7c6a b0be 6d7a 05bf 164b f6bd a1d0 8a3e
00000060: 8505 eebe a0f5 61be 47f7 f3be 46d1 c6be
00000070: 00b5 e2bd 708c f43d c029 87be 003d 3d3b
00000080: 6fbc 573e f11b fdbd db80 c83e 21d6 3bbe
00000090: 030d 52be bd1e 85bf 3e4e ac3e 0123 71bc
000000a0: bf3a d6bd a0c3 293f 9866 883e 65ce 36bd
000000b0: f2d5 d23e 573d a2be f382 1fbf 0639 e93e
000000c0: 8ac4 09bf 79ba 473d fdab 0dbd 5d01 de3d
000000d0: ae41 a63e d922 adbf 3fe1 c5be 0084 3e3e
000000e0: ec0f 56be 555d 05bc 15d6 f0be b05c 773e
000000f0: 8c8d 19bf aeaa fabe c0e2 53be f978 6f3e
00000100: 0464 c13e 6f0b 253e 57e8 20be aae7 1e3d
00000110: dab2 78be 553a af3e bbc8 8bbe c122 4abe
00000120: 27dd 5abd 311f a53b fe9b f13e e569 b7be
00000130: f6a2 f73d 82bc b73e d0bb 38bf ce9b e73e
00000140: 91c8 d23e 70f5 70bf 5eb2 9abf 8e3a 1ebd
00000150: cb4c 2bbd 99e3 bf3e e50b 7b3e 1455 a93e
00000160: 68ff 95be 8499 54be d067 75be 801b 88bc
00000170: 3801 dbbd 249f 94be 19f2 883d 93c9 63bd
00000180: 0789 aa3e cc10 b0be fd3c 1a3d db79 d63d
00000190: 6952 b83e bd43 5c3e 487d f1bc b831 8abe
000001a0: 25f1 ff3c 7e09 e93e 945c 77be 6567 4cbe
000001b0: 5d41 a23e 761e bd3e 91e3 3dbd c36b 33be
000001c0: 27ac 0d3e 945f 0bbf 3303 b73e 31b1 4fbe
000001d0: b148 ef3d 2767 193d aab6 e5bf e0ab c83e
000001e0: b4b5 d43e 4a2b 0f3e 9efb 00c0 06be 9d3e
000001f0: 7456 abbe e858 143e 0d76 723f dd59 8bbe
00000200: a0f1 a1be 41ba 533e d43f bb3e 41a6 e4be
00000210: 96b5 943e 9dd9 2fbe 35d7 9fbe bf32 b13e
00000220: 26ed c43e 0d39 cfbe 8a1a b5bf 9a0e a93e
00000230: 513a 9dbe 9de1 783e cfb5 43be 0b9a 803d
00000240: 65f6 083f cb80 053f 6eb6 9dbe 228f 31be
00000250: 21f4 663e 85d0 223e 938f 723e 767b 38bc
00000260: 28b5 1dbe a0a6 033e e0c9 f0be d09b 17bd
00000270: e6cb 3f3e c9c1 dabb 3fe8 9ebf 184e 933e
00000280: b1ea a9be 6023 ecbd 25dc 863e cc37 adbe
00000290: 8f60 ad3e 6bf9 fc3e faf8 aabe 2cb6 a3bd
000002a0: 050c da3c f0c7 bcbe 128f be3e 833f 43be
000002b0: a5f1 313d b76e 1e3e 3dc2 8f3e 340b 3fbe
000002c0: 677d 243e db73 2fbf 6fa5 c8be 5119 a1bd
000002d0: 202a f8be fa83 8b3e 785f 18be 1042 82bd
000002e0: e235 8a3e f921 133e 8250 90be 377d 63bd
000002f0: 62f7 7c3d 767f 043f 4db9 62bf 9339 823e
00000300: 25cf b13e 13b2 31be a5a5 6c3d 586a c83d
00000310: cc3e 453e d631 4abd efdb 8abe 0bad cc3e
00000320: ae1a 43be d60b 75bf cbe4 a33e b4a3 6c3e
00000330: b081 c7be 00e3 813c e2a2 dfbe fc17 5ebe
00000340: 4ab6 cabd 8c6b e0be 3045 113d 0c56 0abf
00000350: b4e8 e83e fa86 61bd 1dbc 27bf 34da c0bc
00000360: 0fa4 5a3e ef5d c73e e64b b93e 8807 7cbc
00000370: 3cd9 0bbf 90cf 06bf eee5 91be c63e c6be
00000380: 962d 073e abd2 563d 9114 073f c500 24be
00000390: 7b27 243e d48f 6ebf e1da d8bf 76b0 3d3e
000003a0: 1e1b a53d c869 ab3e 285b 96be d189 923e
000003b0: 5eff 02be f846 e43e c1e4 863d ecd7 9cbd
000003c0: df64 bfbe 8130 c1bd 7809 6d3e c9bf 993e
000003d0: 166a 913e 53f4 f33e d059 dc3d 2037 18be
000003e0: 536a 97be 91b3 5fbf cc54 cdbe ef3b 883e
000003f0: 0fd3 afbe cbbc 6cbd 7dab 123f 6ff7 0dbf

fc1.bias f4 [64]
-0.08892871 -0.0990324 -0.07999073 0.015956208 -0.3601606 -0.34271383 -0.17650704 0.050985515
-0.027144324 -0.15873356 -0.2984995 -0.4124806 -0.5120871 -0.004272876 -0.22401099 -0.29823598
0.12673624 -0.457538 0.2933302 0.12437588 -0.25628284 0.24161391 -0.0919705 -0.33817637
-0.3984152 -0.052773245 0.3217862 0.25523773 0.3404678 0.41967365 -0.25126383 0.5828348
0.16619647 -0.15179838 -0.346053 0.37766364 0.07535097 -0.49661794 -0.4978422 -0.1072215
-0.3898804 -0.2259324 0.37566102 0.33089665 0.2992223 -0.02060312 -0.14891402 -0.0732213
-0.5247088 0.0146155935 0.087186575 0.23301572 0.22251111 -0.3907617 -0.2296174 -0.19555132
-0.24894817 0.2550296 0.1949155 0.30872384 -0.6307073 -0.4107099 0.059883587 0.19681108
00000000: 4120 b6bd 80d1 cabd 2ed2 a3bd 98b6 823c
00000010: f866 b8be 3078 afbe 43be 34be 30d6 503d
00000020: c65d debc 0d8b 22be edd4 98be a830 d3be
00000030: 2418 03bf 7b03 8cbb 2363 65be 63b2 98be
00000040: 25c7 013e 6c42 eabe 602f 963e c8b8 fe3d
00000050: 8137 83be a369 773e 085b bcbd 7425 adbe
00000060: 14fd cbbe c228 58bd 29c1 a43e 85ae 823e
00000070: cc51 ae3e 77df d63e a7a5 80be a934 153f
00000080: 682f 2a3e 0971 1bbe dc2d b1be 215d c13e
00000090: 9c51 9a3d b544 febe 2ce5 febe f296 dbbd
000000a0: 679e c7be d35a 67be a456 c03e 496b a93e
000000b0: aa33 993e e0c7 a8bc eb7c 18be 0df5 95bd
000000c0: 5153 06bf 3e76 6f3c e08e b23d ac9b 6e3e
000000d0: f4d9 633e eb11 c8be d320 6bbe 9b3e 48be
000000e0: 45ec 7ebe 3d93 823e ee97 473e 0d11 9e3e
000000f0: 0976 21bf 9148 d2be 7e48 753d d888 493e

fc2.weight f4 [64, 64]
0.1526273 0.05703668 -0.30297446 -0.29362687 0.12917995 0.0669935 -0.10640977 0.02384901
0.30541077 -0.84861875 -0.4658069 0.2435389 -0.034409866 -0.012147585 0.21210474 -0.09997566
0.02931794 0.018486738 -0.08022371 -0.25813994 -0.94092065 -0.06495124 -0.025055125 0.0111653805
0.039553028 -0.07042449 -0.124751784 0.10267 0.20653877 0.06466419 -0.23325238 -0.035890162
-1.2874548 -0.11163582 -0.09045848 0.109773524 -0.123129606 0.05412249 -0.12456109 0.16007034
-0.23286566 -0.13143532 0.1466981 0.04398216 -0.2353652 0.113748774 0.0010580884 0.3180914
0.12314095 -0.10248793 0.22787446 0.03962432 -1.0630857 0.030513242 -0.060031317 0.07912302
0.17851846 0.049555473 -0.1068959 -0.0029228446 -0.2137576 0.11011482 -0.01784362 0.4001696
-0.70515656 0.15743412 0.09478766 0.11290306 0.006576689 -0.061963167 -0.09060174 0.021996856
-0.048559543 0.29097173 -0.01586397 -0.06002715 -0.045353774 -0.07099863 0.011778616 -0.01499888
-0.009207155 -0.07543021 0.085992165 0.0077185915 -0.16868876 -0.058816496 0.013287634 -0.012586272
-0.47651356 0.11283971 -0.049793318 -0.081358515 0.034774266 -0.056884937 -0.018935766 0.029050475
-0.050942466 -0.44257522 -0.13759165 -0.016291568 -0.01353667 0.10697295 -0.058261856 -0.13115251
-0.36467937 0.15959334 -0.110213056 0.020064631 0.16733736 0.0016057044 0.3802953 0.19979727
-0.22202553 -0.33116636 0.060489822 0.110284805 0.25741512 -0.38253525 0.07447255 0.09861649
0.08624834 0.07870914 0.0390257 -0.090403534 0.05159554 -0.104412474 -0.0028031713 0.0645998
-0.11285187 0.06989254 -0.13887547 0.17152578 0.021032162 0.12569693 -0.15128541 -0.012113735
0.029307062 0.23014228 0.0029187251 0.06948108 -0.045990773 0.017355235 0.01869647 0.061397325
0.053120777 -0.09873364 0.095840156 -0.12519912 -0.7420392 0.020966353 -0.10484412 0.026899246
-0.16089912 0.050376706 0.0430857 0.06724774 0.049802277 0.27086666 -0.47761938 -0.08625945
-0.038092 -0.08847506 0.0035898264 -0.0765961 -0.09881522 -0.15364543 0.0073616207 0.15031391
-0.3026811 -0.045497138 0.1106981 0.10332617 -0.3379021 -0.05411257 0.1597365 -0.076907136
-0.022633065 -0.059323203 0.0363842 -0.077941746 -0.04439944 -0.52670586 -0.08399612 -0.016536644
0.05339454 0.072352864 -0.14563401 -0.17629634 0.07293009 0.069661856 0.01889588 0.0965864
0.03127593 -0.042209923 0.003284499 0.018256098 -0.013888635 -0.10223019 -0.042592987 0.12216267
-0.024807751 0.036211625 0.0526153 -0.0068305084 -0.048722148 -0.026038846 -0.11557856 -0.11655338
0.058349144 0.06590398 0.09782152 -0.035945155 -0.030731618 -0.13452068 -0.0011202693 -0.084261
-0.13299513 0.02249926 0.04410121 -0.14710334 -0.09270555 -0.0070868446 -0.12430012 -0.04722157
0.013494745 0.06912608 -0.08990345 -0.0031478703 0.018996691 -0.08155735 0.09743701 -0.030107372
-0.07221413 -0.07031604 -0.09133385 -0.030420465 0.026828364 0.068304256 -0.113181226 0.019404506
-0.036721844 -0.02015209 0.03348589 -0.12460916 -0.0268756 0.07217041 -0.100916795 -0.04482858
-0.11313631 -0.03142236 0.08963433 -0.15511937 0.06422651 -0.060893916 -0.09471974 -0.08403368
00000000: 554a 1c3e 4b9f 693d 781f 9bbe 4356 96be
00000010: c047 043e e333 893d 5eed d9bd 005f c33c
00000020: cd5e 9c3e 143f 59bf 3e7e eebe 4362 793e
00000030: 5cf1 0cbd aa06 47bc fc31 593e 0ac0 ccbd
00000040: 2d2c f03c 8071 973c 544c a4bd eb2a 84be
00000050: 2de0 70bf 2805 85bd 6840 cdbc 00ef 363c
00000060: 5b02 223d b73a 90bd dd7d ffbd a644 d23d
00000070: e67e 533e a96e 843d b6d9 6ebe 9001 13bd
00000080: 52cb a4bf 52a1 e4bd 4c42 b9bd f1d0 e03d
00000090: 602b fcbd 8baf 5d3d e219 ffbd 7be9 233e
000000a0: 5674 6ebe fb96 06be 0738 163e a326 343d
000000b0: 9303 71be 1ef5 e83d 8eaf 8a3a e0dc a23e
000000c0: 5331 fc3d 31e5 d1bd ec57 693e 1c4d 223d
000000d0: 3113 88bf e8f6 f93c 66e3 75bd 400b a23d
000000e0: 8bcd 363e aefa 4a3d 3dec dabd 328d 3fbb
000000f0: 46e3 5abe e183 e13d c92c 92bc 08e3 cc3e
00000100: 2485 34bf 6936 213e 0820 c23d b839 e73d
00000110: 4481 d73b 17cd 7dbd 688d b9bd c032 b43c
00000120: 5fe6 46bd 3ffa 943e 28f5 81bc 07df 75bd
00000130: e1c4 39bd bb67 91bd 19fb 403c ddbd 75bc
00000140: 9bd9 16bc 277b 9abd a91c b03d 3dec fc3b
00000150: bfbc 2cbe 91e9 70bd 60b4 593c a736 4ebc
00000160: 96f9 f3be 8218 e73d 14f4 4bbd 4b9f a6bd
00000170: 766f 0e3d 2e00 69bd 2e1f 9bbc 43fb ed3c
00000180: 0ca9 50bd 3899 e2be d3e4 0cbe e575 85bc
00000190: e9c8 5dbc a214 db3d fca3 6ebd d84c 06be
000001a0: 41b7 babe 706c 233e 62b7 e1bd 955e a43c
000001b0: 7c5a 2b3e 8076 d23a 11b6 c23e a897 4c3e
000001c0: a95a 63be a38e a9be 2dc4 773d 00dd e13d
000001d0: eacb 833e a9db c3be 1085 983d 71f7 c93d
000001e0: f8a2 b03d 4232 a13d 6ad9 1f3d 7d25 b9bd
000001f0: d855 533d 35d6 d5bd 69b5 37bb e64c 843d
00000200: e21e e7bd d223 8f3d 5f35 0ebe 74a4 2f3e
00000210: a44b ac3c b2b6 003e 90ea 1abe b078 46bc
00000220: 5d15 f03c 6baa 6b3e 1548 3f3b 194c 8e3d
00000230: d260 3cbd 912c 8e3c 5729 993c c37b 7b3d
00000240: 2c95 593d dd34 cabd d847 c43d 3334 00be
00000250: 48f6 3dbf a1c1 ab3c 84b8 d6bd cf5b dc3c
00000260: bdc2 24be ce57 4e3d a27a 303d 2fb9 893d
00000270: 79fd 4b3d 09af 8a3e 878a f4be cba8 b0bd
00000280: 5b06 1cbd 6a32 b5bd 4b43 6b3b 6bde 9cbd
00000290: a25f cabd 3a55 1dbe c039 f13b e4eb 193e
000002a0: 04f9 9abe 355b 3abd afb5 e23d ac9c d33d
000002b0: 8101 adbe 24a5 5dbd f791 233e 7d81 9dbd
000002c0: fa68 b9bc e3fc 72bd 9907 153d ec9f 9fbd
000002d0: 30dc 35bd 32d6 06bf 2806 acbd db77 87bc
000002e0: 3cb4 5a3d bd2d 943d 1521 15be 0787 34be
000002f0: 5f5c 953d e0aa 8e3d 88cb 9a3c 17cf c53d
00000300: 311b 003d 50e4 2cbd c040 573b d08d 953c
00000310: 288d 63bc 105e d1bd fc75 2ebd 6c30 fa3d
00000320: a039 cbbc a452 143d 2483 573d 75d2 dfbb
00000330: e090 47bd 6b4f d5bc 74b4 ecbd 8ab3 eebd
00000340: 83ff 6e3d aaf8 863d a656 c83d 3a3b 13bd
00000350: e0c0 fbbc cabf 09be 00d6 92ba 0891 acbd
00000360: e02f 08be 5e50 b83c 78a3 343d 42a2 16be
00000370: 68dc bdbd c338 e8bb 1091 febd 686b 41bd
00000380: 1019 5d3c f991 8d3d 4d1f b8bd 804c 4ebb
00000390: f39e 9b3c 8a07 a7bd 0e8d c73d bca3 f6bc
000003a0: 00e5 93bd db01 90bd 3e0d bbbd 5734 f9bc
000003b0: 28c7 db3c 1ae3 8b3d 8fcb e7bd 33f6 9e3c
000003c0: a569 16bd ff15 a5bc 8028 093d 1633 ffbd
000003d0: 382a dcbc 14ce 933d 77ad cebd 2c9e 37bd
000003e0: 02b4 e7bd bcb4 00bd 3492 b73d 9dd7 1ebe
000003f0: 3089 833d e66b 79bd 6cfc c1bd da19 acbd

fc2.bias f4 [64]
0.17707713 0.014131851 -0.1424149 0.06552051 -0.11050103 0.099565245 0.16762343 -0.12298873
0.059642427 0.002719433 0.10568778 -0.14304803 -0.117188536 0.123999715 0.06807291 -0.079554096
0.02236377 -0.03349101 0.04061925 0.090000905 -0.04422572 -0.06038458 0.029871792 -0.07638774
-0.14293669 -0.12161486 0.026408121 0.03783938 -0.23115529 0.061427217 0.033548743 0.08051644
0.03682804 -0.009688813 -0.09647693 -0.007841992 -0.0958801 0.07162501 0.03046732 0.037872143
-0.061600775 0.14661625 0.05715747 0.16262515 -0.1454181 0.08390632 0.09660687 0.09599286
0.0522726 -0.06801206 0.072628915 -0.100389495 0.0069397017 0.102084786 0.10176933 -0.07779031
0.071105555 0.033519626 -0.04655019 -0.114174716 -0.06599421 0.07805494 -0.05704797 0.07746804
00000000: b553 353e 4789 673c 36d5 11be 9e2f 863d
00000010: 5d4e e2bd dde8 cb3d 7aa5 2b3e 84e1 fbbd
00000020: 9e4b 743d 8438 323b d672 d83d 2f7b 12be
00000030: 8b00 f0bd 90f3 fd3d cf69 8b3d 42ed a2bd
00000040: 3a34 b73c df2d 09bd 5f60 263d 6552 b83d
00000050: 0726 35bd d255 77bd b0b5 f43c 2d71 9cbd
00000060: ff5d 12be 3611 f9bd d855 d83c 77fd 1a3d
00000070: f9b3 6cbe 1b9b 7b3d 686a 093d cee5 a43d
00000080: 00d9 163d d4bd 1ebc b295 c5bd b37b 00bc
00000090: c95c c4bd 22b0 923d 9a96 f93c d21f 1b3d
000000a0: 1851 7cbd 9222 163e f41d 6a3d 3587 263e
000000b0: 7be8 14be 14d7 ab3d d3d9 c53d e897 c43d
000000c0: cb1b 563d e849 8bbd 78be 943d 0299 cdbd
000000d0: 7066 e33b d411 d13d 706c d03d 8750 9fbd
000000e0: ca9f 913d e04b 093d 69ab 3ebd 6fd4 e9bd
000000f0: f927 87bd 45db 9f3d 22ab 69bd 90a7 9e3d

fc3.weight f4 [2, 64]
0.33584788 0.08133782 0.124383174 0.06421578 -0.36985528 -0.15154116 0.15905006 0.050695617
-0.82326823 -0.24665995 0.019152937 -0.054890808 -0.059410088 0.055853732 0.20818341 -0.10349739
0.08723612 0.18105043 -0.01708591 0.12484635 -0.0016907697 -0.10749018 -0.07456366 -0.028689617
0.16792311 0.014965773 0.0790578 0.020341186 -0.009771589 0.008824188 0.048285943 0.014265615
0.16157638 0.05840951 0.123566955 0.21363342 0.2323804 0.003371316 -0.05370831 0.111823164
0.022156127 0.14209269 -0.086099565 0.03603468 -0.05702034 0.031657264 0.16649216 -0.28361425
0.17939638 0.08501656 0.09229605 -0.0670972 0.29737997 -0.185014 0.0025624284 -0.02670644
-0.05033253 -0.15336928 -0.5358042 -0.12103461 0.046550795 0.37638158 -0.12219679 0.06424682
-0.40474728 0.07518693 0.122476 -0.08836827 -0.3141638 -0.33737996 -0.25062212 0.06166017
-0.70335704 -0.40051922 0.09568669 -0.03964161 -0.19235067 0.1538297 -0.04863842 0.10809383
0.37322736 0.2969778 -0.0854246 0.1351579 0.09502826 -0.032865774 0.041958064 -0.018667025
0.17904083 -0.051797777 0.05704254 -0.07374692 0.29986206 -0.019411193 0.091315836 0.039911516
0.16270383 -0.092197314 0.040070936 0.22965084 0.23243608 -0.048547395 -0.029157706 0.1549543
0.1240306 0.118838094 0.03209257 0.96328807 0.076874815 -0.035680905 0.07875089 -0.492933
0.1554189 -0.04801455 -0.11465151 -0.028040046 0.20777018 -0.30893695 -0.01797217 0.07520784
-0.09980069 -0.12823273 -0.4209624 -0.02095094 -0.049951848 0.36931646 0.0059249527 -0.036345594
00000000: 41f4 ab3e 7194 a63d 9bbc fe3d 9083 833d
00000010: ac5d bdbe 9b2d 1bbe 05de 223e 35a6 4f3d
00000020: b5c1 52bf 6d94 7cbe 9fe6 9c3c 2fd5 60bd
00000030: fe57 73bd e2c6 643d 082e 553e 71f6 d3bd
00000040: daa8 b23d 4965 393e c0f7 8bbc 71af ff3d
00000050: d19c ddba d023 dcbd d5b4 98bd 7d06 ebbc
00000060: 09f4 2b3e 0033 753c 0ee9 a13d 8fa2 a63c
00000070: 0419 20bc 5493 103c 7bc7 453d 53ba 693c
00000080: 4774 253e cf3e 6f3d ac10 fd3d b8c2 5a3e
00000090: 21f5 6d3e 4cf1 5c3b 3ffd 5bbd 8b03 e53d
000000a0: c480 b53c bf80 113e f854 b0bd 1a99 133d
000000b0: 298e 69bd 0cab 013d ec7c 2a3e e335 91be
000000c0: afb3 373e 2a1d ae3d b605 bd3d 426a 89bd
000000d0: 3042 983e 4f74 3dbe 6aee 273b 77c7 dabc
000000e0: 7c29 4ebd d60c 1dbe 772a 09bf fee0 f7bd
000000f0: 0cac 3e3d 16b5 c03e 5042 fabd d693 833d
00000100: 093b cfbe 9bfb 993d b2d4 fa3d 6cfa b4bd
00000110: 14da a0be 11bd acbe 8b51 80be 608f 7c3d
00000120: 350f 34bf db10 cdbe 62f7 c33d 3e5f 22bd
00000130: 93f7 44be 8885 1d3e 1439 47bd 4c60 dd3d
00000140: a817 bf3e 790d 983e 18f3 aebd d566 0a3e
00000150: 2d9e c23d 439e 06bd 38dc 2b3d 97eb 98bc
00000160: 7b56 373e e829 54bd 70a5 693d a008 97bd
00000170: 8587 993e 3904 9fbc cc03 bb3d 427a 233d
00000180: d59b 263e f2d1 bcbd 6c21 243d 9729 6b3e
00000190: b903 6e3e a2d9 46bd 24dc eebc 57ac 1e3e
000001a0: c103 fe3d 6361 f33d 8073 033d 0c9a 763f
000001b0: 8b70 9d3d 2426 12bd 2648 a13d b761 fcbe
000001c0: 2226 1f3e e8aa 44bd 69ce eabd 3db4 e5bc
000001d0: b5c1 543e fc2c 9ebe 5f3a 93bc 9106 9a3d
000001e0: 4e64 ccbd 714f 03be 6288 d7be 4ea1 abbc
000001f0: 4f9a 4cbd 0c17 bd3e 1b26 c23b 1edf 14bd

fc3.bias f4 [2]
-0.07050805 0.046647612
00000000: 8666 90bd 9111 3f3d
