checkpoint_model_episode_400.pth (torch, 21402 bytes, 6 tensors)

fc1.weight f4 [64, 4]
0.50233954 0.402777 -0.78603315 0.05090604 0.43126667 -0.36870733 -0.3734455 -0.10111466
-0.4743108 0.36863562 -0.1524394 0.109697424 0.0015411722 -0.20440271 0.09628873 -0.5975107
0.22772369 -0.42144787 0.18095873 -0.02338426 -0.3175129 -0.60335916 -0.087205134 0.31063056
-0.46488586 -0.22066355 -0.47649595 -0.38831538 -0.11069679 0.11940849 -0.2639904 0.002887547
0.20772544 -0.12384309 0.37761614 -0.1567462 -0.18088624 -1.1496058 0.32941884 -0.023076206
-0.084589005 0.67192984 0.25248742 0.010183883 0.43374234 -0.49482253 -0.53742653 0.3980017
-0.5381552 0.04876182 -0.03458785 0.10840104 0.33007014 -1.4387563 -0.43084472 0.16806562
-0.18842392 -0.036370546 -0.57651037 0.25046888 -0.5998161 -0.48958343 -0.20691967 0.23385991
0.4012286 0.16439559 -0.10609088 0.039495833 -0.24286976 0.3422419 -0.27301583 -0.1973982
-0.024115032 0.019520435 0.4916842 -0.2740643 0.1392612 0.34996086 -0.77868444 0.41904563
0.4150067 -0.9567775 -1.3150946 -0.028229797 -0.05433764 0.30695125 0.13527274 0.37779233
-0.29296422 -0.20761687 -0.23965383 -0.016614676 -0.10693592 -0.29027665 0.066868015 -0.055612158
0.3704135 -0.3646706 -0.13625996 0.101310775 0.36232355 0.2824948 0.008156174 -0.24748932
0.042460836 0.52545923 -0.24658701 -0.20125957 0.29580256 0.3807543 -0.030693011 -0.17156726
0.14469932 -0.41012272 0.39706522 -0.21889381 0.13756256 -0.010726047 -1.8171849 0.39791527
0.4603126 0.19639325 -1.8825924 0.35171172 -0.3321151 0.13211164 0.94092655 -0.23732264
-0.3502967 0.30518618 0.33469287 -0.41961962 0.30203146 -0.16318804 -0.34589627 0.32767534
0.38066137 -0.41919994 -1.4399625 0.31493825 -0.30708554 0.24304815 -0.19112323 0.06279381
0.5394969 0.5530858 -0.31353977 -0.1573046 0.23007323 0.09327597 0.17737852 0.0055610077
-0.15401137 0.12856531 -0.47029018 -0.03701383 0.19202544 -0.014019861 -1.2931578 0.29703334
-0.32588544 0.038782887 0.35164332 -0.27882025 0.32126158 0.5612132 -0.3303931 -0.022457052
0.03626889 -0.3359008 0.41211987 -0.18437357 0.060796905 0.1252518 0.2292168 -0.17890139
0.12105815 -0.5933816 -0.172141 -0.21976024 -0.4846964 0.27249128 -0.14880168 -0.06360257
0.24705234 0.27813062 -0.27557456 -0.036230955 0.06520688 0.5046171 -0.8541898 0.2806307
0.36386803 -0.10658854 -0.10092729 0.11993659 0.20639901 -0.10723314 -0.2826551 0.34813747
-0.201384 -1.0231869 0.28978586 0.3331555 -0.3896613 0.015855312 -0.43678957 -0.21688837
-0.07297578 0.12818591 0.024457352 -0.57025576 0.4872132 0.07919399 -0.630434 -0.04921361
0.21968463 0.34132048 0.35217547 0.02658161 -0.5462835 -0.52660465 -0.28495735 -0.38719767
0.15964551 0.0019889313 0.522881 -0.15668151 0.17037676 -0.8931453 -2.2327087 0.19007716
0.1077077 0.3063705 -0.28921735 0.2646972 -0.1573702 0.41796324 0.081783704 -0.10511652
-0.44754586 -0.16968723 0.17277208 0.2558896 0.27205312 0.44537058 0.08692557 -0.120733745
-0.29573306 -0.8738337 -0.40103757 0.26608226 -0.4035689 0.043514155 0.5804469 -0.5594621
00000000: 5399 003f c938 ce3e 7839 49bf da82 503d
00000010: fcce dc3e 35c7 bcbe 4034 bfbe 3415 cfbd
00000020: ddd8 f2be cfbd bc3e 1319 1cbe 0ba9 e03d
00000030: 2801 ca3a f24e 51be 0733 c53d 76f6 18bf
00000040: 6630 693e 04c8 d7be 3f4d 393e 5990 bfbc
00000050: 0d91 a2be bf75 1abf 9b98 b2bd f80a 9f3e
00000060: 8505 eebe a0f5 61be 47f7 f3be 46d1 c6be
00000070: 00b5 e2bd 708c f43d c029 87be 003d 3d3b
00000080: fab5 543e 72a1 fdbd e756 c13e 1382 20be
00000090: 3e3a 39be 4826 93bf 96a9 a83e 500a bdbc
000000a0: 003d adbd 9803 2c3f 0846 813e 4dda 263c
000000b0: 7a13 de3e 6159 fdbe c994 09bf e1c6 cb3e
000000c0: 8ac4 09bf 79ba 473d fdab 0dbd 5d01 de3d
000000d0: f4fe a83e 2b29 b8bf ae97 dcbe 6519 2c3e
000000e0: 33f2 40be 48f9 14bd 2f96 13bf 753d 803e
000000f0: 8c8d 19bf aeaa fabe c0e2 53be f978 6f3e
00000100: d66d cd3e 5157 283e 2d46 d9bd 62c6 213d
00000110: dab2 78be 553a af3e bbc8 8bbe c122 4abe
00000120: e38c c5bc 52e9 9f3c 08be fb3e 2852 8cbe
00000130: 7d9a 0e3e 122e b33e dd57 47bf 268d d63e
00000140: c27b d43e 5fef 74bf 0555 a8bf 2d42 e7bc
00000150: 2591 5ebd b728 9d3e f084 0a3e ff6d c13e
00000160: 68ff 95be 8499 54be d067 75be 801b 88bc
00000170: 3801 dbbd 249f 94be 19f2 883d 93c9 63bd
00000180: d7a6 bd3e 1bb6 babe bb87 0bbe 067c cf3d
00000190: 7982 b93e 29a3 903e 79a1 053c d76d 7dbe
000001a0: 6aeb 2d3d 7f84 063f 4e81 7cbe fd16 4ebe
000001b0: 6f73 973e 3af2 c23e e96f fbbc 54af 2fbe
000001c0: 0f2c 143e 9bfb d1be 224c cb3e b325 60be
000001d0: 33dd 0c3e 4dbc 2fbc 8499 e8bf 8dbb cb3e
000001e0: 18ae eb3e 501b 493e caf8 f0bf 8f13 b43e
000001f0: fe0a aabe 4648 073e 90e0 703f b504 73be
00000200: 175a b3be 5d41 9c3e dd5c ab3e 62d8 d6be
00000210: dea3 9a3e c41a 27be 5119 b1be 10c5 a73e
00000220: 0ce6 c23e 60a1 d6be b150 b8bf 963f a13e
00000230: 513a 9dbe 9de1 783e cfb5 43be 0b9a 803d
00000240: 781c 0a3f 0897 0d3f 4988 a0be 7514 21be
00000250: 5198 6b3e 7907 bf3d b7a2 353e 1d39 b63b
00000260: 28b5 1dbe a0a6 033e e0c9 f0be d09b 17bd
00000270: 51a2 443e 8fb3 65bc 3286 a5bf c114 983e
00000280: 75da a6be ceda 1e3d 980a b43e 87c1 8ebe
00000290: 667c a43e abab 0f3f 4929 a9be daf7 b7bc
000002a0: b08e 143d 31fb abbe 6001 d33e 6dcc 3cbe
000002b0: 2d06 793d 0242 003e cfb7 6a3e ed31 37be
000002c0: 56ed f73d dbe7 17bf bb45 30be d408 61be
000002d0: 202a f8be fa83 8b3e 785f 18be 1042 82bd
000002e0: 4afb 7c3e 2367 8e3e 1c18 8dbe e966 14bd
000002f0: 2f8b 853d 962e 013f 2fac 5abf d4ae 8f3e
00000300: e94c ba3e 184b dabd f8b2 cebd 51a1 f53d
00000310: 435a 533e 0c9d dbbd 2bb8 90be 133f b23e
00000320: 9b37 4ebe caf7 82bf d05e 943e 5c93 aa3e
00000330: b081 c7be 00e3 813c e2a2 dfbe fc17 5ebe
00000340: 5374 95bd 2b43 033e c95a c83c 48fc 11bf
00000350: 0274 f93e 7530 a23d 1f64 21bf 3694 49bd
00000360: 02f5 603e 8fc1 ae3e 5850 b43e adc1 d93c
00000370: 3cd9 0bbf 90cf 06bf eee5 91be c63e c6be
00000380: 1d7a 233e bb58 023b 87db 053f 1e71 20be
00000390: 3f77 2e3e 2ca5 64bf b3e4 0ec0 96a3 423e
000003a0: db95 dc3d 98dc 9c3e 4c14 94be 6486 873e
000003b0: a725 21be 47ff d53e 377e a73d 5447 d7bd
000003c0: bb24 e5be 7dc2 2dbe 2aeb 303e f603 833e
000003d0: 8c4a 8b3e 9d07 e43e 0906 b23d 4143 f7bd
000003e0: 536a 97be 91b3 5fbf cc54 cdbe ef3b 883e
000003f0: 95a0 cebe e63b 323d 2b98 143f e838 0fbf

fc1.bias f4 [64]
-0.06412996 -0.01987314 -0.10147474 0.10542462 -0.35770363 -0.31924635 -0.17650704 0.050985515
-0.033255752 -0.15496637 -0.28531507 -0.37654316 -0.5120871 -0.01764145 -0.22406991 -0.29823598
0.16155042 -0.457538 0.32064772 0.13194872 -0.2606385 0.19704099 -0.0919705 -0.33817637
-0.40818793 -0.043671038 0.32821134 0.25268042 0.3602513 0.43449438 -0.19463384 0.5836462
0.12631908 -0.1497189 -0.3538388 0.37766364 0.07630244 -0.50886166 -0.4978422 -0.111454315
-0.33255672 -0.23671061 0.39842543 0.33012426 0.3411917 -0.02060312 -0.16207375 -0.06526933
-0.54491603 0.021520812 0.06721157 0.23301572 0.23897189 -0.3594396 -0.2288513 -0.19555132
-0.23205459 0.23730874 0.21838793 0.29487655 -0.704497 -0.42595837 0.059883587 0.15933828
00000000: 9256 83bd ffcc a2bc fdd1 cfbd dde8 d73d
00000010: ee24 b7be 4274 a3be 43be 34be 30d6 503d
00000020: 2f37 08bd 81af 1ebe d114 92be 44ca c0be
00000030: 2418 03bf cd84 90bc 9572 65be 63b2 98be
00000040: 796d 253e 6c42 eabe f02b a43e 911d 073e
00000050: 6972 85be 1dc5 493e 085b bcbd 7425 adbe
00000060: 02fe d0be 67e0 32bd 510b a83e 545f 813e
00000070: dc72 b83e 0c76 de3e 184e 47be d669 153f
00000080: ca59 013e e94f 19be 5c2a b5be 215d c13e
00000090: 7444 9c3d c244 02bf 2ce5 febe 2942 e4bd
000000a0: e044 aabe 4464 72be 6bfe cb3e 0c06 a93e
000000b0: aeb0 ae3e e0c7 a8bc a9f6 25be edab 85bd
000000c0: 9e7f 0bbf 6a4c b03c 38a6 893d ac9b 6e3e
000000d0: 0cb5 743e 7808 b8be ff57 6abe 9b3e 48be
000000e0: b89f 6dbe 1001 733e 16a1 5f3e 0ffa 963e
000000f0: ea59 34bf 3717 dabe 7e48 753d 9329 233e

fc2.weight f4 [64, 64]
0.26433018 0.068802714 -0.30297446 -0.27127388 0.12940012 0.03273199 -0.10640977 0.02384901
0.30888322 -0.890949 -0.5787114 0.2567489 -0.034409866 -0.04422 0.18352613 -0.09997566
0.025178213 0.018486738 -0.08193858 -0.28787646 -1.1849779 -0.09768033 -0.025055125 0.0111653805
0.04420571 -0.06374754 -0.099061236 0.10171069 0.21356086 7.289023e-05 -0.15270172 -0.038833506
-1.3060206 -0.16646798 -0.035536874 0.109773524 -0.12135882 0.04306252 -0.12456109 0.09494892
0.4527968 -0.17443934 0.15026268 0.04467504 -0.17525914 0.113748774 -0.04572014 0.24242686
0.1255912 -0.12076913 0.25298965 0.03962432 -1.0085465 0.13798885 -0.06932204 0.07912302
0.17526694 0.01634748 -0.15581553 -0.0011786047 -0.22808434 0.10362988 -0.01784362 0.5028561
-0.7088355 0.22438504 0.086479746 0.10821552 -0.023791471 -0.10526604 -0.09060174 0.021996856
-0.0571074 0.27028865 -0.00974058 -0.621972 -0.045353774 -0.12397787 0.011778616 -0.01499888
0.036488082 -0.07543021 0.074498154 0.7669183 -0.31434023 -0.08694905 0.013287634 -0.012586272
-1.1308855 0.13222352 -0.03227185 -0.060699042 0.017636659 -0.11250149 -0.07990916 0.0044072126
-0.07266099 0.15891033 -0.13759165 -0.016291568 0.00899805 0.11678344 -0.058261856 -0.18200396
-0.41676205 0.24064557 -0.13376842 0.01756502 -0.032160696 0.0016057044 0.41572654 0.486407
-0.4614191 -0.17327331 0.020227157 0.110284805 0.2725532 -0.30385765 0.07906649 0.09861649
0.073028326 0.07870914 0.1561835 -0.08856735 -0.30188665 -0.0814626 -0.0028031713 0.04127408
-0.5337134 -0.37161404 -0.13887547 0.17745876 0.031462096 0.12569693 -0.15128541 -0.012113735
0.042463716 0.16736263 -0.0135131115 0.06948108 -0.045990773 -0.08236822 0.01869647 0.061397325
-0.009684025 -0.09873364 0.11257849 -0.12519912 -0.73557276 -0.09687237 -0.10484412 0.026899246
-0.35380572 0.048314728 0.026153628 0.0614699 0.06674896 0.27086666 -0.47761938 -0.06731413
-0.029989984 -0.21475531 0.0035898264 -0.0765961 -0.16625872 -0.15246718 0.0073616207 0.15031391
-0.30880797 -0.16473165 0.1268297 0.116953075 -0.56051123 -0.05411257 -0.023014605 -0.076907136
-0.19046834 -0.22255573 0.04713199 -0.077941746 -0.03918222 -0.63844216 -0.081857406 -0.016536644
0.06818447 0.072352864 -0.14622864 -0.1625654 -0.40197366 0.06293568 0.01889588 0.11602617
0.03127593 -0.042209923 0.003284499 0.018256098 -0.013888635 -0.10223019 -0.042592987 0.12216267
-0.024807751 0.036211625 0.0526153 -0.0068305084 -0.048722148 -0.026038846 -0.11557856 -0.11655338
0.058349144 0.06590398 0.09782152 -0.035945155 -0.030731618 -0.13452068 -0.0011202693 -0.084261
-0.13299513 0.02249926 0.04410121 -0.14710334 -0.09270555 -0.0070868446 -0.12430012 -0.04722157
0.013494745 0.06912608 -0.08990345 -0.0031478703 0.018996691 -0.08155735 0.09743701 -0.030107372
-0.07221413 -0.07031604 -0.09133385 -0.030420465 0.026828364 0.068304256 -0.113181226 0.019404506
-0.036721844 -0.02015209 0.03348589 -0.12460916 -0.0268756 0.07217041 -0.100916795 -0.04482858
-0.11313631 -0.03142236 0.08963433 -0.15511937 0.06422651 -0.060893916 -0.09471974 -0.08403368
00000000: 4956 873e 70e8 8c3d 781f 9bbe 69e4 8abe
00000010: 7781 043e fb11 063d 5eed d9bd 005f c33c
00000020: f125 9e3e 3c15 64bf 6e26 14bf 9874 833e
00000030: 5cf1 0cbd 0820 35bd 46ee 3b3e 0ac0 ccbd
00000040: 8a42 ce3c 8071 973c 6acf a7bd 8b64 93be
00000050: 5bad 97bf a00c c8bd 6840 cdbc 00ef 363c
00000060: 0c11 353d 128e 82bd 9ee0 cabd b24d d03d
00000070: b3af 5a3e a5dc 9838 d75d 1cbe e20f 1fbd
00000080: af2b a7bf 9576 2abe 1d8f 11bd f1d0 e03d
00000090: f98a f8bd 5362 303d e219 ffbd 9474 c23d
000000a0: fbd4 e73e 3aa0 32be 76de 193e 2dfd 363d
000000b0: 2277 33be 1ef5 e83d 0b45 3bbd bf3e 783e
000000c0: fb9a 003e ce55 f7bd dc87 813e 1c4d 223d
000000d0: 0d18 81bf f34c 0d3e b7f8 8dbd 400b a23d
000000e0: 2d79 333e 26eb 853c 1b8e 1fbe 697b 9aba
000000f0: f18e 69be e73b d43d c92c 92bc 2dbb 003f
00000100: 3e76 35bf 31c5 653e 4b1c b13d 19a0 dd3d
00000110: 55e6 c2bc b995 d7bd 688d b9bd c032 b43c
00000120: 73e9 69bd 4663 8a3e f496 1fbc 8f39 1fbf
00000130: e1c4 39bd 1ce8 fdbd 19fb 403c ddbd 75bc
00000140: 8774 153d 277b 9abd 7d92 983d c254 443f
00000150: 34f1 a0be 5812 b2bd 60b4 593c a736 4ebc
00000160: dbc0 90bf 9a65 073e 7d2f 04bd 8f9f 78bd
00000170: c17a 903c 2e67 e6bd 6aa7 a3bd 616a 903b
00000180: 49cf 94bd 64b9 223e d3e4 0cbe e575 85bc
00000190: 8f6c 133c 282c ef3d fca3 6ebd 3f5f 3abe
000001a0: d661 d5be cb6b 763e 97fa 08be 84e4 8f3c
000001b0: efba 03bd 8076 d23a 1cda d43e 570a f93e
000001c0: 203f ecbe 8f6e 31be 6cb3 a53c 00dd e13d
000001d0: 188c 8b3e 3b93 9bbe 9ded a13d 71f7 c93d
000001e0: e08f 953d 4232 a13d 91ee 1f3e cc62 b5bd
000001f0: e390 9abe ddd5 a6bd 69b5 37bb 020f 293d
00000200: 71a1 08bf 3244 bebe 5f35 0ebe c0b7 353e
00000210: 66de 003d b2b6 003e 90ea 1abe b078 46bc
00000220: 6fee 2d3d 1c61 2b3e 1966 5dbc 194c 8e3d
00000230: d260 3cbd abb0 a8bd 5729 993c c37b 7b3d
00000240: bfa9 1ebc dd34 cabd 8d8f e63d 3334 00be
00000250: 7f4e 3cbf 0565 c6bd 84b8 d6bd cf5b dc3c
00000260: 0626 b5be aae5 453d 2240 d63c ddc7 7b3d
00000270: aeb3 883d 09af 8a3e 878a f4be fedb 89bd
00000280: 8ead f5bc d1e8 5bbe 4b43 6b3b 6bde 9cbd
00000290: ba3f 2abe 5b20 1cbe c039 f13b e4eb 193e
000002a0: 141c 9ebe 6aaf 28be a5df 013e 1885 ef3d
000002b0: aa7d 0fbf 24a5 5dbd 2089 bcbc 7d81 9dbd
000002c0: 220a 43be a6e5 63be 790d 413d ec9f 9fbd
000002d0: 897d 20bd f270 23bf dba4 a7bd db77 87bc
000002e0: 4da4 8b3d bd2d 943d f6bc 15be 8b77 26be
000002f0: 7ecf cdbe 6ce4 803d 88cb 9a3c 219f ed3d
00000300: 311b 003d 50e4 2cbd c040 573b d08d 953c
00000310: 288d 63bc 105e d1bd fc75 2ebd 6c30 fa3d
00000320: a039 cbbc a452 143d 2483 573d 75d2 dfbb
00000330: e090 47bd 6b4f d5bc 74b4 ecbd 8ab3 eebd
00000340: 83ff 6e3d aaf8 863d a656 c83d 3a3b 13bd
00000350: e0c0 fbbc cabf 09be 00d6 92ba 0891 acbd
00000360: e02f 08be 5e50 b83c 78a3 343d 42a2 16be
00000370: 68dc bdbd c338 e8bb 1091 febd 686b 41bd
00000380: 1019 5d3c f991 8d3d 4d1f b8bd 804c 4ebb
00000390: f39e 9b3c 8a07 a7bd 0e8d c73d bca3 f6bc
000003a0: 00e5 93bd db01 90bd 3e0d bbbd 5734 f9bc
000003b0: 28c7 db3c 1ae3 8b3d 8fcb e7bd 33f6 9e3c
000003c0: a569 16bd ff15 a5bc 8028 093d 1633 ffbd
000003d0: 382a dcbc 14ce 933d 77ad cebd 2c9e 37bd
000003e0: 02b4 e7bd bcb4 00bd 3492 b73d 9dd7 1ebe
000003f0: 3089 833d e66b 79bd 6cfc c1bd da19 acbd

fc2.bias f4 [64]
0.1749227 0.021849029 -0.13249202 0.06552051 -0.09875616 0.08521957 0.1587996 -0.12298873
0.07043438 0.04233608 0.10568778 -0.14304803 -0.11380545 0.13991262 0.09423838 -0.079554096
0.02236377 -0.034300882 0.04061925 0.11928625 -0.04422572 -0.038574517 0.029871792 -0.07638774
-0.18052232 -0.12161486 0.026408121 0.03783938 -0.23115529 0.061427217 -0.004954185 0.08483907
0.017336303 -0.009688813 -0.09647693 0.017176103 -0.09677586 0.07162501 0.030747399 0.052129075
-0.032700054 0.19126724 0.05715747 0.15357558 -0.1454181 0.0522701 0.11174787 0.100025095
0.027181689 -0.06801206 0.04110199 -0.14433818 0.016545475 0.11240953 0.09974123 -0.07779031
0.071105555 0.0502678 -0.048058525 -0.114174716 -0.06599421 0.08157415 -0.08699189 0.07746804
00000000: f01e 333e bcfc b23c fdab 07be 9e2f 863d
00000010: ab40 cabd 9987 ae3d 5d9c 223e 84e1 fbbd
00000020: e63f 903d 9968 2d3d d672 d83d 2f7b 12be
00000030: d512 e9bd 4145 0f3e 0d00 c13d 42ed a2bd
00000040: 3a34 b73c 157f 0cbd 5f60 263d 594c f43d
00000050: 0726 35bd 5000 1ebd b0b5 f43c 2d71 9cbd
00000060: d8da 38be 3611 f9bd d855 d83c 77fd 1a3d
00000070: f9b3 6cbe 1b9b 7b3d b756 a2bb 1bc0 ad3d
00000080: dd04 8e3c d4bd 1ebc b295 c5bd e6b4 8c3c
00000090: 6c32 c6bd 22b0 923d f8e1 fb3c 4c85 553d
000000a0: 7ef0 05bd 8fdb 433e f41d 6a3d eb42 1d3e
000000b0: 7be8 14be 2c19 563d 11dc e43d f5d9 cc3d
000000c0: 22ac de3c e849 8bbd 8f5a 283d 63cd 13be
000000d0: 608a 873c f836 e63d 2145 cc3d 8750 9fbd
000000e0: ca9f 913d 9ce5 4d3d 04d9 44bd 6fd4 e9bd
000000f0: f927 87bd 5910 a73d ce28 b2bd 90a7 9e3d

fc3.weight f4 [2, 64]
0.3761358 0.14862698 0.14411205 0.06421578 -0.37360752 0.040281124 0.17418243 0.050695617
-0.7035687 -0.27331656 0.019152937 -0.054890808 -0.08658902 0.08257495 0.19695662 -0.10349739
0.08723612 0.26320732 -0.01708591 0.118457094 -0.0016907697 -0.10695185 -0.07456366 -0.028689617
0.23659396 0.014965773 0.0790578 0.020341186 -0.009771589 0.008824188 0.07408178 0.014649516
0.1123373 0.05840951 0.123566955 0.23651947 0.22219262 0.003371316 -0.0028419727 0.09095135
0.053129785 0.15880139 -0.086099565 -0.0026856393 -0.05702034 0.031657264 0.15751386 -0.2882715
0.26022348 0.08501656 0.09229605 -0.091096446 0.3295293 -0.20573957 0.002388164 -0.02670644
-0.05033253 -0.17681389 -0.5091264 -0.12103461 0.046550795 0.4135722 -0.121910214 0.06424682
-0.4256962 0.069243945 0.20488885 -0.08836827 -0.32626754 -0.12149724 -0.26913473 0.06166017
-0.68100816 -0.34730408 0.09568669 -0.03964161 -0.17973424 0.18630856 -0.026799964 0.10809383
0.37322736 0.34079468 -0.0854246 0.13107507 0.09502826 -0.01697107 0.041958064 -0.018667025
0.19433315 -0.051797777 0.05704254 -0.07374692 0.29986206 -0.019411193 0.07961235 0.0031866129
0.16307007 -0.092197314 0.040070936 0.22183226 0.25984466 -0.048547395 -0.024203938 0.15309873
0.14336023 0.14125165 0.03209257 1.1364367 0.076874815 -0.022710243 0.038722936 -0.4344971
0.2468172 -0.04801455 -0.08699491 -0.07302072 0.2263819 -0.26716268 -0.01797217 0.07520784
-0.09980069 -0.17567903 -0.43621263 -0.02095094 -0.049951848 0.3383134 0.0059249527 -0.036345594
00000000: df94 c03e ac31 183e 1c92 133e 9083 833d
00000010: 7c49 bfbe d2fd 243d e15c 323e 35a6 4f3d
00000020: 141d 34bf 26f0 8bbe 9fe6 9c3c 2fd5 60bd
00000030: 9655 b1bd 0e1d a93d ffae 493e 71f6 d3bd
00000040: daa8 b23d 1cc3 863e c0f7 8bbc a299 f23d
00000050: d19c ddba 9209 dbbd d5b4 98bd 7d06 ebbc
00000060: b045 723e 0033 753c 0ee9 a13d 8fa2 a63c
00000070: 0419 20bc 5493 103c 30b8 973d 8604 703c
00000080: 1911 e63d cf3e 6f3d ac10 fd3d 2932 723e
00000090: 7686 633e 4cf1 5c3b 6440 3abb b444 ba3d
000000a0: 9e9e 593d d59c 223e f854 b0bd 8d01 30bb
000000b0: 298e 69bd 0cab 013d 504b 213e 5298 93be
000000c0: 033c 853e 2a1d ae3d b605 bd3d c690 babd
000000d0: 10b8 a83e 65ad 52be be82 1c3b 77c7 dabc
000000e0: 7c29 4ebd b30e 35be 1c56 02bf fee0 f7bd
000000f0: 0cac 3e3d bcbf d33e 10ac f9bd d693 833d
00000100: daf4 d9be c5cf 8d3d 62ce 513e 6cfa b4bd
00000110: 8a0c a7be 8cd3 f8bd 07cc 89be 608f 7c3d
00000120: 8d56 2ebf d7d1 b1be 62f7 c33d 3e5f 22bd
00000130: 410c 38be acc7 3e3e 998b dbbc 4c60 dd3d
00000140: a817 bf3e a47c ae3e 18f3 aebd 8b38 063e
00000150: 2d9e c23d ea06 8bbc 38dc 2b3d 97eb 98bc
00000160: 45ff 463e e829 54bd 70a5 693d a008 97bd
00000170: 8587 993e 3904 9fbc cd0b a33d 7ed6 503b
00000180: d7fb 263e f2d1 bcbd 6c21 243d ff27 633e
00000190: 5c0a 853e a2d9 46bd 5647 c6bc eac5 1c3e
000001a0: 06cd 123e 46a4 103e 8073 033d c276 913f
000001b0: 8b70 9d3d d50a babc f19b 1e3d 6776 debe
000001c0: a6bd 7c3e e8aa 44bd 632a b2bd e38b 95bd
000001d0: a8d0 673e 8cc9 88be 5f3a 93bc 9106 9a3d
000001e0: 4e64 ccbd 34e5 33be 4357 dfbe 4ea1 abbc
000001f0: 4f9a 4cbd 6a37 ad3e 1b26 c23b 1edf 14bd

fc3.bias f4 [2]
-0.027359668 0.07587187
00000000: 6221 e0bc b662 9b3d
