checkpoint_model_episode_100.pth (torch, 21402 bytes, 6 tensors)

fc1.weight f4 [64, 4]
0	0x3ee20017	0.44140694
1	0x3d071f74	0.03298898
2	0xbf51ae42	-0.8190652
3	0x3dce9ff4	0.100891024
4	0x3eaf9cc7	0.342993
5	0xbeb6042c	-0.35550058
6	0xbe77e162	-0.2420707
7	0x3eacb02e	0.33728164
8	0xbed2b502	-0.41153723
9	0x3ed2a75a	0.41143304
10	0xbdb7ae05	-0.089687385
11	0x3d399dd5	0.045316536
12	0xbd8a49dc	-0.06752369
13	0xbedf068e	-0.43559688
14	0xbda6ecb7	-0.081506185
15	0xbf17d6a9	-0.5931192
16	0x3eb30cfa	0.34970838
17	0xbdc3f765	-0.09568671
18	0x3e9dff5b	0.30858883
19	0x3d851122	0.064974084
20	0xbea1bc03	-0.31588754
21	0xbed25fe6	-0.4108879
22	0xbe1a3039	-0.15057458
23	0x3e67e00e	0.22644064
24	0xbeee0585	-0.46488586
25	0xbe61f5a0	-0.22066355
26	0xbef3f747	-0.47649595
27	0xbec6d146	-0.38831538
28	0xbde2b500	-0.11069679
29	0x3df48c70	0.11940849
30	0xbe8729c0	-0.2639904
31	0x3b3d3d00	0.002887547
32	0x3e02cc17	0.12773167
33	0xbe487725	-0.195767
34	0x3e8a2361	0.26980117
35	0xbea8af70	-0.32946348
36	0xbe087daf	-0.13329194
37	0xbf24e533	-0.6441223
38	0x3de047d0	0.10951197
39	0x3e1326be	0.14370248
40	0xbe56ebca	-0.20988384
41	0x3f1293a0	0.5725651
42	0x3e1aae51	0.15105559
43	0xbe7496e5	-0.23885687
44	0x3ee5b279	0.44862726
45	0xbde0040f	-0.10938274
46	0xbf0451da	-0.51687396
47	0x3f0afe4f	0.54294294
48	0xbee115a7	-0.43961832
49	0x3e0ee5c5	0.13954838
50	0xbc5eb2a0	-0.013592392
51	0x3decc05b	0.115601264
52	0x3e8da99f	0.27668473
53	0xbf0cfa0a	-0.5506903
54	0xbeabf65a	-0.3358639
55	0x3efa7ca8	0.4892323
56	0xbdf4e10b	-0.11956986
57	0x3e426934	0.18985444
58	0xbdcb7759	-0.09934873
59	0x3eaa191e	0.33222288
60	0xbf198d8c	-0.5998161
61	0xbefaaaae	-0.48958343
62	0xbe53e2c0	-0.20691967
63	0x3e6f78f9	0.23385991
64	0x3e9743b9	0.29543856
65	0xbc14b267	-0.009075738
66	0x3b1320cd	0.002244997
67	0xbe3d35d9	-0.18477573
68	0xbe582df2	-0.21111277
69	0x3ebf5602	0.37370306
70	0xbe772e33	-0.24138717
71	0xbe6aa83b	-0.22915737
72	0xbe056bf2	-0.13029459
73	0xbea39c2a	-0.3195508
74	0x3e81bd66	0.25339812
75	0xbef5f9dc	-0.4804219
76	0x3dd6e9b6	0.104937956
77	0x3ed0dd2f	0.4079375
78	0xbf0c268f	-0.54746336
79	0x3ef173d0	0.4715867
80	0x3e9b57fd	0.30340567
81	0xbf5d36df	-0.8641185
82	0xbf88f147	-1.0698632
83	0x3df0a4e1	0.11750198
84	0xbc970fe1	-0.018440189
85	0x3ecaabb4	0.39584124
86	0x3e9b2b8e	0.30306667
87	0x3e73ac16	0.23796114
88	0xbe95ff68	-0.29296422
89	0xbe549984	-0.20761687
90	0xbe7567d0	-0.23965383
91	0xbc881b80	-0.016614676
92	0xbdcfb6e1	-0.10142303
93	0xbe949f24	-0.29027665
94	0x3ddb5199	0.10708923
95	0xbd63c993	-0.055612158
96	0x3e8dd787	0.27703497
97	0xbe76997f	-0.24081992
98	0x3e7b29f6	0.24527726
99	0x3e203f42	0.15649131
100	0x3ea1b64e	0.315844
101	0x3d7bf7ef	0.061515745
102	0xbe4b3235	-0.19843371
103	0xbefdb690	-0.49553347
104	0xbe31966d	-0.17342539
105	0x3e884020	0.26611423
106	0xbe9843ae	-0.29739136
107	0xbecd602b	-0.40112433
108	0x3ea8920e	0.3292393
109	0x3ea951a8	0.3307011
110	0xbd89b486	-0.06723885
111	0xbe8f1e8c	-0.27952993
112	0x3dae55f8	0.08512491
113	0xbef59b9c	-0.47970283
114	0x3e8bfed7	0.27342865
115	0xbe431f8e	-0.19055006
116	0x3d96b29b	0.07358285
117	0x3d1f8d74	0.03895326
118	0xbfc6f7d7	-1.5544385
119	0x3e992a14	0.29914916
120	0x3e8bd1fe	0.2730865
121	0xbe8b200d	-0.2717289
122	0xc00ad12d	-2.169017
123	0x3e1c6c39	0.15275659
124	0xbeb36b4f	-0.35042807
125	0x3cbef359	0.023309397
126	0x3f018b40	0.50603104
127	0xbec6ca57	-0.38826248
128	0xbeb3b0ed	-0.3509592
129	0x3e0a796b	0.1352288
130	0x3e2aecc3	0.1669188
131	0xbee47a5e	-0.4462461
132	0x3e8cd8e4	0.27509224
133	0xbe266f34	-0.16253358
134	0xbe7bfd06	-0.2460824
135	0x3ed73a3b	0.42036614
136	0x3eec9f6f	0.46215388
137	0xbed522c1	-0.41628078
138	0xbf8cdd6c	-1.1005073
139	0x3eebdc12	0.46066338
140	0xbe9d3a51	-0.30708554
141	0x3e78e19d	0.24304815
142	0xbe43b5cf	-0.19112323
143	0x3d809a0b	0.06279381
144	0x3ef7f831	0.48431543
145	0x3ecd97af	0.40154788
146	0xbeca09cd	-0.39460602
147	0xbe8d9f4a	-0.2766059
148	0x3e9a5712	0.30144554
149	0x3e160bcc	0.14652938
150	0x3ebdc027	0.37060663
151	0xbd9cd4e7	-0.076577954
152	0xbe1db528	-0.15401137
153	0x3e03a6a0	0.12856531
154	0xbef0c9e0	-0.47029018
155	0xbd179bd0	-0.03701383
156	0x3e486c9b	0.1957268
157	0xbe1bef86	-0.1522809
158	0xbf5c21ae	-0.8598889
159	0x3e6b0811	0.22952296
160	0xbe89240f	-0.26785323
161	0xbe50aef7	-0.20379244
162	0x3dd18384	0.10230163
163	0xbeaa62ad	-0.3327841
164	0x3e8b6e98	0.27232814
165	0x3ea75760	0.3268385
166	0xbe9cbed6	-0.30614346
167	0xbe8913d5	-0.26772943
168	0x3d32c594	0.043645456
169	0xbeaecfe6	-0.3414299
170	0x3ec9f88e	0.39447445
171	0xbca11681	-0.019664051
172	0x3c062d5a	0.008189524
173	0x3de218e4	0.11039904
174	0x3ec73e1c	0.38914573
175	0xbe8f8e4e	-0.28038257
176	0x3db8545a	0.09000464
177	0xbf241d8d	-0.6410759
178	0xbe6d3698	-0.23165357
179	0xbdb44cad	-0.08803687
180	0xbef82a20	-0.4846964
181	0x3e8b83fa	0.27249128
182	0xbe185f78	-0.14880168
183	0xbd824210	-0.06360257
184	0x3e9e7fd4	0.309569
185	0x3e419418	0.1890415
186	0xbe805a02	-0.2506867
187	0xbd5e6022	-0.0542909
188	0xbc59a3d9	-0.013283693
189	0x3ee9291f	0.45539185
190	0xbfaafaf3	-1.3357834
191	0x3cbc1f16	0.022964042
192	0x3e9e94ec	0.30972993
193	0xbcbc24fd	-0.022966856
194	0x3e22b8ca	0.15890804
195	0x3e3db70a	0.18526855
196	0x3e64979f	0.22323464
197	0x3ca9280a	0.020648975
198	0xbe84c925	-0.2593471
199	0x3ed1ae4d	0.40953293
200	0xbdfbd473	-0.12296381
201	0xbf3cb888	-0.7371907
202	0x3ed16182	0.40894705
203	0x3e7749ee	0.24149296
204	0xbec781b0	-0.3896613
205	0x3c81e300	0.015855312
206	0xbedfa2e2	-0.43678957
207	0xbe5e17fc	-0.21688837
208	0xbdde5d54	-0.10857645
209	0xbf043805	-0.5164798
210	0xbd0a8925	-0.033822197
211	0xbeea45cf	-0.45756385
212	0x3ea4870e	0.3213429
213	0xbe79a676	-0.24379906
214	0xbf27f6b2	-0.656108
215	0xbda8a12a	-0.082338646
216	0x3e8bb704	0.27288067
217	0x3eda9e7c	0.4269904
218	0x3ed9c917	0.42536232
219	0x3cb098c5	0.021557221
220	0xbf0bd93c	-0.5462835
221	0xbf06cf90	-0.52660465
222	0xbe91e5ee	-0.28495735
223	0xbec63ec6	-0.38719767
224	0x3dab2551	0.08356727
225	0x3af1d44f	0.0018450114
226	0x3f0d59e4	0.5521529
227	0xbea8fd37	-0.33005688
228	0x3db0b4e5	0.08628253
229	0xbf80ae1e	-1.0053136
230	0xbf3c9e3c	-0.73678946
231	0x3e875b15	0.26436678
232	0x3d22416f	0.039613184
233	0x3eb78561	0.35843948
234	0xbded7ff6	-0.11596672
235	0x3e2e0191	0.16992785
236	0xbdd7ced5	-0.10537497
237	0x3ec7eddb	0.39048657
238	0x3d99d4f4	0.07511321
239	0xbe056fb6	-0.13030896
240	0xbe978e1e	-0.29600614
241	0x3e0d8500	0.13820267
242	0x3e94ea0b	0.2908481
243	0x3e90c3e1	0.28274444
244	0x3e982082	0.29712301
245	0x3eaf39d6	0.34223813
246	0x3d7021e5	0.058626074
247	0xbe90662e	-0.28202957
248	0xbe19cb8f	-0.15019058
249	0xbf2a02b1	-0.66410357
250	0xbd7216cc	-0.059103772
251	0x3ed5167a	0.4161871
252	0xbeaf3847	-0.34222624
253	0xbdf3189a	-0.11869927
254	0x3ee0144e	0.4376549
255	0xbf0b5623	-0.5442831

fc1.bias f4 [64]
0	0xbe01a3db	-0.12660162
1	0xbd8519f4	-0.06499091
2	0xbd177f21	-0.036986474
3	0xbc5d0668	-0.013490297
4	0xbe6690e9	-0.22516216
5	0xbebb8413	-0.36624202
6	0xbe34be43	-0.17650704
7	0x3d50d630	0.050985515
8	0xbdf99020	-0.12185693
9	0xbe7eb58c	-0.24873942
10	0xbed18064	-0.40918267
11	0xbebbe9fb	-0.3670195
12	0xbef80741	-0.48443034
13	0xbc3d5f9b	-0.011558439
14	0xbd986840	-0.07441759
15	0xbe98b263	-0.29823598
16	0x3ddba92f	0.107256286
17	0xbeda0393	-0.42580852
18	0x3e26d97f	0.16293906
19	0x3e0cba57	0.13742958
20	0xbeb3b990	-0.3510251
21	0x3e9053a7	0.28188822
22	0xbdbc5b08	-0.0919705
23	0xbe997d9e	-0.2997865
24	0xbec093a4	-0.3761264
25	0xbdf1f892	-0.11814989
26	0x3e1da214	0.15393859
27	0x3e840b50	0.2578988
28	0x3e8d2c1e	0.2757272
29	0x3eca0d45	0.3946325
30	0xbecf1e76	-0.40452927
31	0x3f0600c4	0.5234492
32	0x3da5dcce	0.08098756
33	0xbe1c58c4	-0.15268236
34	0xbe6dcfdb	-0.23223822
35	0x3ec15d21	0.37766364
36	0x3c783464	0.01514921
37	0xbecbcdad	-0.39805356
38	0xbefee52c	-0.4978422
39	0xbd8d3e5c	-0.0689666
40	0xbee15372	-0.44008976
41	0xbe8f380f	-0.27972457
42	0x3ecbc25a	0.39796716
43	0x3ea75894	0.32684767
44	0x3e89f32d	0.2694334
45	0xbca8c7e0	-0.02060312
46	0xbdd976fb	-0.10618397
47	0xbe36c030	-0.17846751
48	0xbf042cba	-0.5163075
49	0x3d24cf9f	0.040237065
50	0x3e250882	0.16116527
51	0x3e6e9bac	0.23301572
52	0x3e577e08	0.21044171
53	0xbf056cb1	-0.52118975
54	0xbe273251	-0.16327788
55	0xbe483e9b	-0.19555132
56	0xbe8e5cc1	-0.2780514
57	0x3e7d6f45	0.24749477
58	0x3e52aba9	0.20573296
59	0x3ea801ce	0.32813877
60	0xbf06f091	-0.52710825
61	0xbed12c97	-0.40854332
62	0x3e792ef4	0.24334317
63	0x3e2324b0	0.15931964

fc2.weight f4 [64, 64]
0	0x3d8a24c3	0.06745293
1	0x3dd75675	0.10514537
2	0x3dce0f83	0.100615524
3	0xbe5fef3d	-0.21868606
4	0x3d7aea6b	0.061258715
5	0x3de76e38	0.113003194
6	0xbdd9ed5e	-0.10640977
7	0x3cc35f00	0.02384901
8	0x3e30253c	0.17201704
9	0xbe702988	-0.23453343
10	0xbe5d6fab	-0.21624629
11	0x3e43866f	0.19094251
12	0xbd0cf15c	-0.034409866
13	0xbdaa6bac	-0.08321318
14	0x3e14f348	0.1454593
15	0xbdccc00a	-0.09997566
16	0x3c4107fb	0.011781688
17	0x3c977180	0.018486738
18	0xbea9f427	-0.33194086
19	0xbe4b3cab	-0.19847362
20	0xbea988af	-0.33112094
21	0xbce0cf00	-0.027442455
22	0xbccd4068	-0.025055125
23	0x3c36ef00	0.0111653805
24	0xbd1b6e40	-0.03794694
25	0xbe158abf	-0.14603709
26	0xbd340353	-0.043948483
27	0x3dcc111c	0.09964201
28	0xbd2932be	-0.041308157
29	0x3d313528	0.043263584
30	0xbe192530	-0.14955592
31	0xbdfa293e	-0.122148976
32	0xbce722b6	-0.028214794
33	0xbd6dde12	-0.05807311
34	0xbc95ddb9	-0.018294202
35	0x3de0d0f1	0.109773524
36	0xbdd870e3	-0.105684064
37	0x3d33ed3e	0.043927424
38	0xbdff19e2	-0.12456109
39	0x3e21564f	0.1575558
40	0xbc13ad0e	-0.009013427
41	0xbc6964a2	-0.014245184
42	0xbd15751b	-0.036488634
43	0xbd2b795d	-0.041863788
44	0xbe969a98	-0.2941482
45	0x3de8f51e	0.113748774
46	0x3d931e43	0.07183506
47	0x3f031202	0.5119935
48	0x3dc0044d	0.0937582
49	0xbd6dffc5	-0.05810525
50	0xbd88caf1	-0.06679333
51	0x3d224d1c	0.03962432
52	0xbf2c9937	-0.6742129
53	0x3aa72132	0.0012750982
54	0xbd6b85fa	-0.057500817
55	0x3da20b40	0.07912302
56	0x3c6e10f1	0.014530406
57	0xbbb30b5b	-0.005464
58	0xbd6d5e87	-0.057951476
59	0x3d7e1e3d	0.062040556
60	0xbdf060d1	-0.11737216
61	0x3e023a81	0.1271763
62	0xbd371b58	-0.04470381
63	0xbe1435c5	-0.14473636
64	0xbd99e932	-0.075151816
65	0x3d32a8b5	0.043617923
66	0x3d6dcb7d	0.05805539
67	0x3d37bc69	0.044857416
68	0xbcd23ec7	-0.0256647
69	0xba4cd79e	-0.0007814112
70	0xbdb98d68	-0.09060174
71	0x3cb432c0	0.021996856
72	0xbd145e7d	-0.036222924
73	0x3dd39c7b	0.10332581
74	0x3cab6749	0.020923274
75	0xbd75df07	-0.06002715
76	0xbd39c4e1	-0.045353774
77	0xbd6e5e8d	-0.05819564
78	0x3d0b9866	0.034080885
79	0xbc75bddd	-0.01499888
80	0xbd6599ad	-0.05605476
81	0xbd9a7b27	-0.07543021
82	0x3dce4e89	0.10073573
83	0xbd13efc3	-0.036117326
84	0xbdbd8c1d	-0.0925524
85	0xbda9338a	-0.082617834
86	0x3c59b460	0.013287634
87	0xb8094d39	-3.2735265e-05
88	0xbe1c9ad8	-0.15293443
89	0x3da858b1	0.082200415
90	0xbda9b87b	-0.0828714
91	0xbdb7842d	-0.089607574
92	0x3d4b0ddc	0.049573764
93	0xbd69002e	-0.056884937
94	0xbc9b1f2e	-0.018935766
95	0x3d83125c	0.06399986
96	0x3bc06e9e	0.0058725616
97	0x3d39744e	0.045276932
98	0xbe0ce4d3	-0.13759165
99	0xbc8575e5	-0.016291568
100	0xbd8fdb7f	-0.070242874
101	0x3df298e1	0.118455656
102	0xbd6ea3fc	-0.058261856
103	0xbe064cd8	-0.13115251
104	0xbe881272	-0.26576573
105	0x3d16bee9	0.03680316
106	0xbdbaecb3	-0.09127178
107	0x3cfa6256	0.030564468
108	0x3e82fea4	0.255849
109	0x3ad27680	0.0016057044
110	0xbda55d71	-0.08074463
111	0x3e4c97a8	0.19979727
112	0xbd718fba	-0.05897496
113	0xbdac83c1	-0.084235676
114	0x3d5a3c7a	0.05328033
115	0x3de1dd00	0.110284805
116	0x3e39ab54	0.18131763
117	0x3d709b14	0.058741644
118	0x3dba0c9b	0.090844356
119	0x3dc9f771	0.09861649
120	0x3ddf1e57	0.10894459
121	0x3da13242	0.07870914
122	0x3d21fe17	0.03954896
123	0xbd9113dd	-0.07083867
124	0xbdf898dc	-0.121385306
125	0xbdd6e126	-0.104921624
126	0xbb0430bd	-0.0020170652
127	0x3dd3a060	0.103333235
128	0x3cf2d084	0.029640444
129	0x3deaaf2e	0.11459194
130	0xbdbf8dae	-0.09353195
131	0x3dd00aec	0.10158333
132	0x3cb2d6b4	0.021830894
133	0x3d2946c7	0.041327264
134	0xbe1aea90	-0.15128541
135	0xbc4678b0	-0.012113735
136	0x3c3a7327	0.0113799935
137	0x3daec382	0.08533384
138	0x3d9ad500	0.07560158
139	0x3dceba51	0.10094131
140	0xbd9e769d	-0.077374674
141	0xbba95d97	-0.0051686275
142	0x3ca47aad	0.020078028
143	0x3d7b7bc3	0.061397325
144	0x3d11317e	0.03544759
145	0xbdca34dd	-0.09873364
146	0x3de1c567	0.1102398
147	0xbd418ee1	-0.0472554
148	0xbe83bbcc	-0.25729215
149	0x3da6cae5	0.08144168
150	0xbdd6b884	-0.10484412
151	0x3d40da7c	0.047083363
152	0xbde76d5d	-0.11300156
153	0x3c0cbbb5	0.008589675
154	0x39864396	0.00025608827
155	0x3dad474d	0.08460865
156	0x3c82a590	0.015948087
157	0x3e0c64e3	0.1371036
158	0xbefd823b	-0.4951342
159	0xbd1aede5	-0.03782453
160	0x3bfd6fd7	0.0077342796
161	0xbcc3ebcc	-0.023916148
162	0xbc0fac2f	-0.008769079
163	0xbd9cde6b	-0.0765961
164	0xbdf9b07a	-0.12191863
165	0xbdda4dd9	-0.106593795
166	0x3bf139c0	0.0073616207
167	0x3d1eb7e0	0.038749576
168	0xbe474be2	-0.19462541
169	0xbdef1515	-0.11673943
170	0x3dea7bfa	0.11449428
171	0x3def87d3	0.11695828
172	0xbdcddb97	-0.10051649
173	0xbd5da524	-0.05411257
174	0x3cd9de00	0.026595116
175	0x3e809836	0.25116128
176	0x3d7070d5	0.058701355
177	0x3c37cb4c	0.011217903
178	0x3d2249c1	0.03962112
179	0xbd9f9fec	-0.077941746
180	0xbdfcafff	-0.12338256
181	0xbda11c96	-0.078667805
182	0xbcbf5bf7	-0.023359282
183	0xbc8777db	-0.016536644
184	0x3d89a9cb	0.067218386
185	0xbda841f8	-0.082157075
186	0x3abc2891	0.0014355351
187	0xbdcf8f40	-0.10134745
188	0xbc3ce98a	-0.011530289
189	0x3dc5616a	0.09637721
190	0xbc3cf705	-0.011533503
191	0x3dfe2337	0.124090604
192	0x3d80c89a	0.06288262
193	0xbc2eef70	-0.010677204
194	0x3b5740c0	0.003284499
195	0x3c958dd0	0.018256098
196	0x3c9047e8	0.017612413
197	0xbdd15e10	-0.10223019
198	0xbd2e75fc	-0.042592987
199	0x3dfa306c	0.12216267
200	0xbccb39a0	-0.024807751
201	0x3d1452a4	0.036211625
202	0x3d578324	0.0526153
203	0x3ccb0c68	0.02478619
204	0xbd4790e0	-0.048722148
205	0x3bb017c0	0.005373925
206	0xbdc71b96	-0.097220585
207	0xbdeeb38a	-0.11655338
208	0x3db7fb0c	0.0898343
209	0x3d86f8aa	0.06590398
210	0x3dc856a6	0.09782152
211	0xbb8e0ca0	-0.004335001
212	0xbcfbc0e0	-0.030731618
213	0xbdd2f226	-0.103000924
214	0xba92d600	-0.0011202693
215	0xbdac9108	-0.084261
216	0xbdd03286	-0.101658866
217	0x3d5c9188	0.053849727
218	0x3d34a378	0.04410121
219	0xbdec98f8	-0.11552614
220	0xbdbddc68	-0.09270555
221	0x3cc88170	0.024475783
222	0xbdbe1016	-0.09280412
223	0xbd416b68	-0.04722157
224	0x3c5d1910	0.013494745
225	0x3dce37ee	0.100692615
226	0xbd6ed40c	-0.058307692
227	0xbb4e4c80	-0.0031478703
228	0x3d4f4d74	0.050610974
229	0xbd4d2448	-0.05008343
230	0x3dc78d0e	0.09743701
231	0x3ab64d80	0.0013908595
232	0xbd93e500	-0.07221413
233	0xbd1f003c	-0.038818583
234	0xbdbb0d3e	-0.09133385
235	0xbbb2f440	-0.005461246
236	0x3cdbc728	0.026828364
237	0x3d8be31a	0.068304256
238	0xbda72d4e	-0.08162938
239	0x3d505f98	0.050872415
240	0xbbab7000	-0.0052318573
241	0x3c3b4660	0.011430353
242	0x3d092880	0.03348589
243	0xbdff3316	-0.12460916
244	0xbcdc2a38	-0.0268756
245	0x3dd40dae	0.10354172
246	0xbd8e032a	-0.06934197
247	0xbd379e2c	-0.04482858
248	0xbde7b402	-0.11313631
249	0xbd00b4bc	-0.03142236
250	0x3df81e30	0.12115133
251	0xbdfe6872	-0.12422265
252	0x3d838930	0.06422651
253	0xbcf0e3e8	-0.02940555
254	0xbdc1fc6c	-0.09471974
255	0xbdac19da	-0.08403368

fc2.bias f4 [64]
0	0x3e0ac5e5	0.13552053
1	0x3c88b9eb	0.016690215
2	0xbdebd5ba	-0.115153745
3	0x3dc68b3a	0.09694524
4	0xbe000185	-0.1250058
5	0x3d9ba3f7	0.07599633
6	0x3dfaddd7	0.12249344
7	0xbdc05710	-0.09391606
8	0x3cba3cbd	0.02273404
9	0xbd6d6461	-0.057957057
10	0x3dd872d6	0.10568778
11	0xbe127b2f	-0.14304803
12	0xbde12fbf	-0.10995435
13	0x3de29ad3	0.110646866
14	0xbb2d8bcf	-0.0026481037
15	0xbda2ed42	-0.079554096
16	0x3d92b2aa	0.07162984
17	0xbd2b1bbc	-0.041774496
18	0x3d26605f	0.04061925
19	0x3d871825	0.06596402
20	0xbd352607	-0.04422572
21	0xbd9f810d	-0.07788286
22	0x3d0a9ac3	0.033839
23	0xbd471299	-0.04860172
24	0xbdb3344e	-0.08750211
25	0xbdf91136	-0.12161486
26	0x3cd855d8	0.026408121
27	0x3d3b97d9	0.04579911
28	0xbe3a07ab	-0.18166988
29	0x3da3b0e3	0.07992723
30	0x3d00f97d	0.03148793
31	0x3dc0035b	0.0937564
32	0x3d9103a3	0.07080772
33	0x3a96d6e5	0.0011508135
34	0xbdc595b2	-0.09647693
35	0xbbaebc66	-0.0053325174
36	0xbe20be4c	-0.15697592
37	0x3d99b6be	0.075055584
38	0x3cb6dd91	0.022322448
39	0xbd06c79c	-0.032905206
40	0xbd7c0bf1	-0.061534826
41	0x3df4809b	0.11938592
42	0x3dab6aff	0.08370017
43	0x3de227e7	0.11042767
44	0xbdea0bb7	-0.11428016
45	0x3dabd714	0.08390632
46	0x3da97b5d	0.08275483
47	0x3dcb8c3e	0.099388584
48	0x3d9f4318	0.07776469
49	0xbd8b49e8	-0.06801206
50	0x3d94be78	0.072628915
51	0xbdc823ce	-0.09772454
52	0x3c8871ed	0.016655887
53	0x3dd6d4d7	0.10489815
54	0x3dda86a2	0.106702104
55	0xbd9f5087	-0.07779031
56	0x3d919fca	0.071105555
57	0x3d08c27c	0.0333886
58	0xbd822ba2	-0.063559785
59	0xbde9d46f	-0.114174716
60	0xbd8727f9	-0.06599421
61	0x3d980016	0.074218914
62	0xbd69ab22	-0.05704797
63	0x3de958e5	0.113939084

fc3.weight f4 [2, 64]
0	0x3e6496af	0.22323106
1	0x3db4c639	0.088268705
2	0x3d9b6e6f	0.07589423
3	0x3db9c110	0.09070027
4	0x3c6acbf0	0.014330849
5	0xbe95cd28	-0.29258084
6	0x3d4f74b5	0.05064841
7	0x3d66400a	0.056213416
8	0xbf29d6c8	-0.66343355
9	0xbdce6787	-0.1007834
10	0x3c9ce69f	0.019152937
11	0xbd60d52f	-0.054890808
12	0xbd6b51ae	-0.057450943
13	0x3d00b2b5	0.03142043
14	0x3e1f3964	0.15549237
15	0xbdd3f671	-0.10349739
16	0x3dcf4278	0.101201
17	0x3e56a026	0.2095953
18	0xbc8bf7c0	-0.01708591
19	0x3d3ada21	0.04561818
20	0xbadd9cd1	-0.0016907697
21	0xbdceec0b	-0.101036154
22	0xbd99c79b	-0.07508775
23	0xbd8eff3e	-0.06982277
24	0xbb9b7d1f	-0.00474514
25	0x3c753300	0.014965773
26	0x3da1e90e	0.0790578
27	0x3ca65d19	0.020308064
28	0xbbde1aea	-0.0067781108
29	0x3c03e066	0.008049106
30	0x3dcd95ba	0.10038324
31	0x3d4f48b6	0.050606452
32	0x3e4e48fe	0.20145032
33	0x3d703275	0.05864187
34	0x3dfd10ac	0.123566955
35	0x3e432fa8	0.19061148
36	0x3e827668	0.25480962
37	0x3b71c73c	0.0036892435
38	0xbdcf44a7	-0.10120516
39	0x3d75496d	0.059884477
40	0x3d060b41	0.032725576
41	0x3e05e8d2	0.13077095
42	0xbdb05145	-0.08609251
43	0x3dccd634	0.100017935
44	0xbd698e29	-0.05702034
45	0x3d01ab0c	0.031657264
46	0x3e328fda	0.17437688
47	0xbe57cbe8	-0.21073878
48	0x3e35ca72	0.17753008
49	0x3dae1d2a	0.08501656
50	0x3dbd05b6	0.09229605
51	0xbe11373e	-0.1418123
52	0x3ea9953c	0.3312167
53	0xbe0696a6	-0.13143405
54	0x3cd85c2b	0.026411137
55	0xbcdac777	-0.02670644
56	0xbd4e297c	-0.05033253
57	0xbe4f3240	-0.20234013
58	0xbe3e0091	-0.18554904
59	0xbdf7e0fe	-0.12103461
60	0x3d3eac0c	0.046550795
61	0xbd551d2f	-0.052029785
62	0xbdfa4250	-0.12219679
63	0x3dc61e7f	0.096737854
64	0x3caa50ef	0.020790545
65	0x3c945482	0.018106703
66	0x3d2efd95	0.042722303
67	0xbdb4fa6c	-0.08836827
68	0xbd806c13	-0.062706135
69	0xbea8e531	-0.3298736
70	0xbd1177cb	-0.035514634
71	0x3d7c8f60	0.06166017
72	0xbf150f37	-0.5822634
73	0xbe5a3cbb	-0.2131223
74	0x3dc3f762	0.09568669
75	0xbd225f3e	-0.03964161
76	0xbe415e51	-0.18883635
77	0x3dfdb3b9	0.12387795
78	0xbd14385d	-0.036186565
79	0x3ddd604c	0.10809383
80	0x3e9de1b6	0.30836266
81	0x3e9aee02	0.3025971
82	0xbdaef318	-0.0854246
83	0x3d4a55e1	0.049398307
84	0x3dc29e2d	0.09502826
85	0xbcba9e08	-0.022780433
86	0x3c9dea05	0.019276628
87	0xbd807087	-0.06271463
88	0x3e1377d4	0.1440118
89	0xbd5429e8	-0.051797777
90	0x3d69a570	0.05704254
91	0xbd9717b6	-0.073775694
92	0x3e5d872e	0.21633598
93	0xbd0bd542	-0.034138925
94	0x3db3a95a	0.087725356
95	0x3d9711c4	0.073764354
96	0x3e28c416	0.16481051
97	0xbdbc3636	-0.091900274
98	0x3d24216c	0.040070936
99	0x3e71bd5a	0.23607388
100	0x3f1eaae6	0.6197952
101	0xbd4b1822	-0.04958356
102	0xbdd39783	-0.10331633
103	0x3d95a809	0.07307441
104	0x3e08070a	0.13283935
105	0x3dbae730	0.09126127
106	0x3d03b7c3	0.03215767
107	0x3e8436da	0.25823098
108	0x3daafa4a	0.0834852
109	0xbd122624	-0.035680905
110	0x3d7fe1eb	0.06247131
111	0xbeb1b8a6	-0.34711188
112	0x3e5efb62	0.21775582
113	0xbd44aae8	-0.04801455
114	0xbdeace69	-0.11465151
115	0xbe11f0c7	-0.14252006
116	0x3e614694	0.2199958
117	0xbe738f92	-0.23785236
118	0x3d3a04f4	0.04541488
119	0x3d9a0691	0.07520784
120	0xbdcc644e	-0.09980069
121	0xbe242e71	-0.16033341
122	0xbd23ed17	-0.04002103
123	0xbcaba14e	-0.02095094
124	0xbd4c9a4f	-0.049951848
125	0x3e8ce0e1	0.2751532
126	0x3bc2261b	0.0059249527
127	0xbc2ae25e	-0.010429947

fc3.bias f4 [2]
0	0xbdb4b47d	-0.08823488
1	0x3c890582	0.01672626
