checkpoint_model_episode_500.pth (torch, 21402 bytes, 6 tensors)

fc1.weight f4 [64, 4]
0.4763749 0.52219313 -0.7324714 0.19663274 0.5069367 -0.11297797 -0.16985664 -0.14673808
-0.4743108 0.36863562 -0.1524394 0.109697424 0.071420126 -0.07348032 0.17610255 -0.5359256
0.2837231 -0.45632675 0.2768868 -0.07461636 -0.32315573 -0.61550814 -0.06500045 0.32661676
-0.46488586 -0.22066355 -0.47649595 -0.38831538 -0.11069679 0.11940849 -0.2639904 0.002887547
0.20941684 -0.14084066 0.36484504 -0.15471762 -0.19974181 -1.334104 0.29602188 -0.0447306
-0.09598769 0.65254 0.2567844 0.041107487 0.43521038 -0.56553316 -0.52344644 0.34399906
-0.5381552 0.04876182 -0.03458785 0.10840104 0.33678296 -1.4640254 -0.44456282 0.1848493
-0.19311422 -0.04441201 -0.68634796 0.23073679 -0.5998161 -0.48958343 -0.20691967 0.23385991
0.41458488 0.15711647 -0.06612673 0.047911458 -0.24286976 0.3422419 -0.27301583 -0.1973982
0.01813888 0.048479196 0.48080873 -0.27984655 0.14173213 0.3445858 -0.83389896 0.42039883
0.4262533 -0.921166 -1.4297935 -0.030731192 -0.078232616 0.25754 0.11802786 0.37407902
-0.29296422 -0.20761687 -0.23965383 -0.016614676 -0.10693592 -0.29027665 0.066868015 -0.055612158
0.4077079 -0.2411456 -0.12317617 0.09981875 0.34661174 0.31615174 0.03810844 -0.24943891
0.022055982 0.60424435 -0.1995775 -0.20547631 0.2746844 0.39124462 0.015502171 -0.10662571
0.17251678 -0.34352186 0.41796657 -0.20494138 0.15262765 -0.018046664 -1.8366302 0.38437042
0.472831 0.24541746 -1.7950783 0.37974936 -0.32796437 0.12917878 0.8953542 -0.23338124
-0.27306065 0.4700825 0.34994745 -0.3460005 0.30707395 -0.16898614 -0.3442684 0.32750416
0.3998203 -0.45122874 -1.4756451 0.28205752 -0.30708554 0.24304815 -0.19112323 0.06279381
0.530809 0.58507216 -0.23660737 -0.14958632 0.22632754 0.052603275 0.17151222 0.0027571665
-0.15401137 0.12856531 -0.47029018 -0.03701383 0.21802041 -0.039515108 -1.2865489 0.3075527
-0.4191092 0.11818673 0.36692256 -0.31520554 0.2951579 0.56953514 -0.31866983 0.08741853
0.06273566 -0.3530214 0.42579252 -0.20833848 0.082340024 0.13952656 0.23974538 -0.17827009
0.18418546 -0.11654794 -0.12715235 -0.32929546 -0.4846964 0.27249128 -0.14880168 -0.06360257
0.2297149 0.38542953 -0.20770812 0.04563343 0.057298783 0.4746444 -0.8570488 0.30431208
0.3921242 -0.1535819 -0.086799696 0.12880845 0.22027442 -0.15979998 -0.31614122 0.24759533
-0.18292926 -0.9909799 0.2591121 0.37728527 -0.3896613 0.015855312 -0.43678957 -0.21688837
-0.03501448 0.4704691 0.05005891 -0.46138293 0.4890322 0.18993416 -0.6112497 -0.10293365
0.22817726 0.296688 0.34622952 0.03444701 -0.5462835 -0.52660465 -0.28495735 -0.38719767
0.17980415 -0.013375952 0.5413845 -0.17525192 0.15934548 -0.9151209 -2.4390292 0.20712604
0.1204166 0.17312281 -0.31257066 0.27059367 -0.16836299 0.43660322 0.11497425 -0.10308637
-0.79429317 -0.12783077 0.23506358 0.17664586 0.26670226 0.45891663 0.09057826 -0.14190565
-0.29573306 -0.8738337 -0.40103757 0.26608226 -0.40281874 0.14719737 0.57615376 -0.567049
00000000: 69e7 f33e 73ae 053f 3f83 3bbf 185a 493e
00000010: 9bc6 013f fe60 e7bd e6ee 2dbe 8242 16be
00000020: ddd8 f2be cfbd bc3e 1319 1cbe 0ba9 e03d
00000030: b744 923d da7c 96bd 3a54 343e 6c32 09bf
00000040: 2744 913e a9a3 e9be 1bc4 8d3e 76d0 98bd
00000050: ab74 a5be f191 1dbf f51e 85bd 503a a73e
00000060: 8505 eebe a0f5 61be 47f7 f3be 46d1 c6be
00000070: 00b5 e2bd 708c f43d c029 87be 003d 3d3b
00000080: 5e71 563e 8938 10be f8cc ba3e 4c6e 1ebe
00000090: 1e89 4cbe ebc3 aabf 2e90 973e 6f37 37bd
000000a0: 3295 c4bd dd0c 273f 3f79 833e 5360 283d
000000b0: e5d3 de3e c8c6 10bf 9600 06bf a520 b03e
000000c0: 8ac4 09bf 79ba 473d fdab 0dbd 5d01 de3d
000000d0: d16e ac3e 2f65 bbbf bd9d e3be 2349 3d3e
000000e0: bcbf 45be 5ee9 35bd 80b4 2fbf 4446 6c3e
000000f0: 8c8d 19bf aeaa fabe c0e2 53be f978 6f3e
00000100: 7844 d43e 24e3 203e 736d 87bd ce3e 443d
00000110: dab2 78be 553a af3e bbc8 8bbe c122 4abe
00000120: fd97 943c 1f92 463d 902c f63e 0c48 8fbe
00000130: 3a22 113e 8d6d b03e 677a 55bf 843e d73e
00000140: df3d da3e 89d1 6bbf 7903 b7bf fbbf fbbc
00000150: 6c38 a0bd 48dc 833e 97b8 f13d 4987 bf3e
00000160: 68ff 95be 8499 54be d067 75be 801b 88bc
00000170: 3801 dbbd 249f 94be 19f2 883d 93c9 63bd
00000180: 17bf d03e dfee 76be ca43 fcbd c66d cc3d
00000190: 1877 b13e a4de a13e 9817 1c3d ea6c 7fbe
000001a0: bfae b43c c2af 1a3f 0b5e 4cbe 6268 52be
000001b0: 6fa3 8c3e 3751 c83e d1fc 7d3c 955e dabd
000001c0: 3da8 303e 19e2 afbe b7ff d53e 27dc 51be
000001d0: 6c4a 1c3e 99d6 93bc b316 ebbf 33cc c43e
000001e0: e816 f23e b74e 7b3e 20c5 e5bf 826e c23e
000001f0: f2ea a7be 7147 043e ef35 653f 7efb 6ebe
00000200: 9bce 8bbe a7ae f03e 502c b33e fa26 b1be
00000210: cc38 9d3e b40a 2dbe f343 b0be a0ae a73e
00000220: 3fb5 cc3e 7407 e7be f0e1 bcbf d869 903e
00000230: 513a 9dbe 9de1 783e cfb5 43be 0b9a 803d
00000240: 19e3 073f 4ac7 153f 3449 72be 282d 19be
00000250: 68c2 673e 8876 573d e6a0 2f3e 94b1 343b
00000260: 28b5 1dbe a0a6 033e e0c9 f0be d09b 17bd
00000270: be40 5f3e 98da 21bd a2ad a4bf 8c77 9d3e
00000280: 7b95 d6be e20b f23d 46dd bb3e 9f62 a1be
00000290: f01e 973e 0ecd 113f b128 a3be 7c08 b33d
000002a0: 8e7b 803d 39bf b4be 7a01 da3e af56 55be
000002b0: e3a1 a83d 0de0 0e3e d07f 753e 6f8c 36be
000002c0: 1d9b 3c3e b0b0 eebd 3a34 02be 6a99 a8be
000002d0: 202a f8be fa83 8b3e 785f 18be 1042 82bd
000002e0: 623a 6b3e 0557 c53e 70b1 54be 1fea 3a3d
000002f0: 21b2 6a3d 9704 f33e 8d67 5bbf cbce 9b3e
00000300: 81c4 c83e 9344 1dbe 0ac4 b1bd 5de6 033e
00000310: 9e8f 613e 9ba2 23be 43dd a1be a189 7d3e
00000320: cf51 3bbe dcb0 7dbf 57aa 843e 892b c13e
00000330: b081 c7be 00e3 813c e2a2 dfbe fc17 5ebe
00000340: 586b 0fbd 53e1 f03e 920a 4d3d 623a ecbe
00000350: 6e62 fa3e 1a7e 423e dc7a 1cbf e1ce d2bd
00000360: 4da7 693e 7de7 973e ff44 b13e 4f18 0d3d
00000370: 3cd9 0bbf 90cf 06bf eee5 91be c63e c6be
00000380: 941e 383e cf26 5bbc 2d98 0a3f 3d75 33be
00000390: 762b 233e 5d45 6abf 0e19 1cc0 d918 543e
000003a0: fa9c f63d 1b47 313e 4309 a0be 418b 8a3e
000003b0: 5967 2cbe 758a df3e 9f77 eb3d f21e d3bd
000003c0: cc56 4bbf 12e6 02be 82b4 703e a7e2 343e
000003d0: 338d 883e 1ff7 ea3e 1881 b93d b74f 11be
000003e0: 536a 97be 91b3 5fbf cc54 cdbe ef3b 883e
000003f0: 423e cebe e8ba 163e d07e 133f 202a 11bf

fc1.bias f4 [64]
-0.07306394 0.10405486 -0.10147474 0.18498637 -0.27827555 -0.30699363 -0.17650704 0.050985515
-0.036670092 -0.18197724 -0.29200116 -0.37260115 -0.5120871 -0.018936895 -0.24369061 -0.29823598
0.18593718 -0.457538 0.34241593 0.12687613 -0.25621113 0.1724961 -0.0919705 -0.33817637
-0.37421185 -0.047713313 0.32329527 0.2669578 0.38763046 0.44676575 -0.17264804 0.5711241
0.1840828 -0.14546746 -0.33678785 0.37766364 0.09202021 -0.5136174 -0.4978422 -0.085586
-0.35305122 -0.2504096 0.41970056 0.34877294 0.39611545 -0.02060312 -0.15268742 -0.07267921
-0.5176558 0.02695273 0.067150675 0.23301572 0.2717425 -0.3537826 -0.22561339 -0.19555132
-0.20956394 0.21630454 0.2214832 0.30178207 -0.70830107 -0.42899072 0.059883587 0.15725404
00000000: 8ca2 95bd b71a d53d fdd1 cfbd 116d 3d3e
00000010: 227a 8ebe 452e 9dbe 43be 34be 30d6 503d
00000020: 6133 16bd 3e58 3abe 2d81 95be 94c5 bebe
00000030: 2418 03bf 8c21 9bbc 088a 79be 63b2 98be
00000040: 5166 3e3e 6c42 eabe 2451 af3e d1eb 013e
00000050: 1b2e 83be d1a2 303e 085b bcbd 7425 adbe
00000060: b298 bfbe 096f 43bd f586 a53e b1ae 883e
00000070: 8077 c63e 7bbe e43e a6ca 30be 3035 123f
00000080: 3480 3c3e 6cf5 14be 756f acbe 215d c13e
00000090: 1875 bc3d 6e7c 03bf 2ce5 febe b647 afbd
000000a0: 21c3 b4be b035 80be fee2 d63e 5e92 b23e
000000b0: a5cf ca3e e0c7 a8bc 175a 1cbe d6d8 94bd
000000c0: 1785 04bf f9cb dc3c 4b86 893d ac9b 6e3e
000000d0: d521 8b3e fe22 b5be 3207 67be 9b3e 48be
000000e0: ee97 56be f07e 5d3e 7ecc 623e 2e83 9a3e
000000f0: 3853 35bf aca4 dbbe 7e48 753d 3407 213e

fc2.weight f4 [64, 64]
0.26564774 0.13186154 -0.30297446 -0.2590678 0.12926166 -0.06893637 -0.10640977 0.02384901
0.31119493 -0.8740072 -0.5647953 0.23783822 -0.034409866 -0.05924555 0.15300417 -0.09997566
0.020147245 0.018486738 -0.07595935 -0.32471767 -1.415947 -0.11244293 -0.025055125 0.0111653805
0.12695621 -0.062086873 -0.10048639 0.1006129 0.2166763 -0.08553175 -0.11664298 -0.029545166
-1.2777239 -0.19444257 0.062838584 0.109773524 -0.08641966 0.038169824 -0.12456109 0.01006654
0.7555867 -0.18563238 0.15320721 0.048849557 -0.16408078 0.113748774 -0.051663417 0.12126496
0.21171278 -0.14852153 0.24885572 0.03962432 -0.99939543 0.14673583 -0.069304645 0.07912302
0.17774633 0.01829598 -0.19998737 0.019010501 -0.21552733 0.10086789 -0.01784362 0.5164033
-0.93068695 0.22282533 0.086479746 0.12249977 -0.02545199 -0.02135061 -0.09060174 0.021996856
-0.057967912 0.23790741 0.0015558548 -0.5818175 -0.045353774 -0.12397787 0.011778616 -0.01499888
0.0270326 -0.07543021 0.075872 0.59270674 -0.92164165 -0.056897115 0.013287634 -0.012586272
-1.1825731 0.13258795 -0.03719121 -0.07022946 0.021244803 -0.11250149 -0.045318767 0.0037895415
-0.075829275 0.30898178 -0.13759165 -0.016291568 -0.01980503 0.111616395 -0.058261856 -0.18200396
-0.42576164 0.16880834 -0.13279423 0.01742885 0.0051274323 0.0016057044 0.32341468 0.50485957
-0.79881644 -0.028732572 0.07572939 0.110284805 0.29732928 -0.2663228 0.07414912 0.09861649
0.07240992 0.07870914 0.18955576 -0.09080875 -0.24072587 -0.09166679 -0.0028031713 0.041541584
-0.5107755 -0.4240516 -0.13887547 0.16084585 0.073204674 0.12569693 -0.15128541 -0.012113735
0.064949 0.14287144 -0.00047721335 0.06948108 -0.045990773 -0.10016739 0.01869647 0.061397325
0.07008039 -0.09873364 0.1284155 -0.12519912 -0.73557276 -0.051469598 -0.10484412 0.026899246
-0.34636298 0.08016867 0.040305145 0.097988434 0.088855416 0.27086666 -0.47761938 -0.057700902
-0.037941486 -0.22045977 0.0035898264 -0.0765961 -0.15422131 -0.109995835 0.0073616207 0.15031391
-0.36637017 -0.107586615 0.14077657 0.13952886 -0.5314928 -0.05411257 0.07269828 -0.076907136
-0.19889371 -0.22586876 0.01112872 -0.077941746 -0.040169757 -0.95575273 -0.046812516 -0.016536644
0.088457465 0.072352864 -0.2741331 -0.1498101 -0.41289473 0.0954715 0.01889588 0.10444113
0.03127593 -0.042209923 0.003284499 0.018256098 -0.013888635 -0.10223019 -0.042592987 0.12216267
-0.024807751 0.036211625 0.0526153 -0.0068305084 -0.048722148 -0.026038846 -0.11557856 -0.11655338
0.058349144 0.06590398 0.09782152 -0.035945155 -0.030731618 -0.13452068 -0.0011202693 -0.084261
-0.13299513 0.02249926 0.04410121 -0.14710334 -0.09270555 -0.0070868446 -0.12430012 -0.04722157
0.013494745 0.06912608 -0.08990345 -0.0031478703 0.018996691 -0.08155735 0.09743701 -0.030107372
-0.07221413 -0.07031604 -0.09133385 -0.030420465 0.026828364 0.068304256 -0.113181226 0.019404506
-0.036721844 -0.02015209 0.03348589 -0.12460916 -0.0268756 0.07217041 -0.100916795 -0.04482858
-0.11313631 -0.03142236 0.08963433 -0.15511937 0.06422651 -0.060893916 -0.09471974 -0.08403368
00000000: fb02 883e b606 073e 781f 9bbe 89a4 84be
00000010: 2b5d 043e 832e 8dbd 5eed d9bd 005f c33c
00000020: f154 9f3e f0be 5fbf 6d96 10bf dd8b 733e
00000030: 5cf1 0cbd 76ab 72bd 20ad 1c3e 0ac0 ccbd
00000040: d60b a53c 8071 973c 9390 9bbd 6541 a6be
00000050: c03d b5bf 7b48 e6bd 6840 cdbc 00ef 363c
00000060: cf00 023e ce4e 7ebd cfcb cdbd 230e ce3d
00000070: 64e0 5d3e 452b afbd 84e2 eebd b408 f2bc
00000080: 758c a3bf f41b 47be 84b1 803d f1d0 e03d
00000090: cafc b0bd f657 1c3d e219 ffbd 21ee 243c
000000a0: 216e 413f 6a16 3ebe 5ae2 1c3e 7916 483d
000000b0: cb04 28be 1ef5 e83d 059d 53bd c359 f83d
000000c0: 3ccb 583e 0716 18be 09d4 7e3e 1c4d 223d
000000d0: 61d8 7fbf eb41 163e 98ef 8dbd 400b a23d
000000e0: 2203 363e 73e1 953c 7dc9 4cbe e9bb 9b3c
000000f0: 32b3 5cbe d393 ce3d c92c 92bc 0233 043f
00000100: 8041 6ebf 532c 643e 4b1c b13d 29e1 fa3d
00000110: b180 d0bc 79e7 aebc 688d b9bd c032 b43c
00000120: c36f 6dbd 009e 733e d3ed cb3a fef1 14bf
00000130: e1c4 39bd 1ce8 fdbd 19fb 403c ddbd 75bc
00000140: 7973 dd3c 277b 9abd c762 9b3d a1bb 173f
00000150: b5f0 6bbf f30c 69bd 60b4 593c a736 4ebc
00000160: 8e5e 97bf 23c5 073e cf55 18bd 77d4 8fbd
00000170: 9509 ae3c 2e67 e6bd 2ca0 39bd f559 783b
00000180: 614c 9bbd dc32 9e3e d3e4 0cbe e575 85bc
00000190: 293e a2bc 2397 e43d fca3 6ebd 3f5f 3abe
000001a0: 6efd d9be 18dc 2c3e 36fb 07be f3c6 8e3c
000001b0: 0504 a83b 8076 d23a 9c96 a53e 7a3e 013f
000001c0: 3c7f 4cbf 9260 ebbc 0318 9b3d 00dd e13d
000001d0: 8b3b 983e 765b 88be 7edb 973d 71f7 c93d
000001e0: a74b 943d 4232 a13d e81a 423e f0f9 b9bd
000001f0: d880 76be ccbb bbbd 69b5 37bb 8227 2a3d
00000200: 2fc2 02bf 4b1d d9be 5f35 0ebe c6b4 243e
00000210: 55ec 953d b2b6 003e 90ea 1abe b078 46bc
00000220: fb03 853d e44c 123e 7e32 fab9 194c 8e3d
00000230: d260 3cbd 9024 cdbd 5729 993c c37b 7b3d
00000240: 4f86 8f3d dd34 cabd 5a7f 033e 3334 00be
00000250: 7f4e 3cbf c9d1 52bd 84b8 d6bd cf5b dc3c
00000260: 7d56 b1be 792f a43d 0217 253d 29ae c83d
00000270: d4f9 b53d 09af 8a3e 878a f4be c857 6cbd
00000280: 8868 1bbd 35c0 61be 4b43 6b3b 6bde 9cbd
00000290: 31ec 1dbe 7f45 e1bd c039 f13b e4eb 193e
000002a0: df94 bbbe 5f56 dcbd bc27 103e a7e0 0e3e
000002b0: ea0f 08bf 24a5 5dbd d6e2 943d 7d81 9dbd
000002c0: cbaa 4bbe 244a 67be 3c55 363c ec9f 9fbd
000002d0: 0b89 24bd 36ac 74bf 7bbe 3fbd db77 87bc
000002e0: 3029 b53d bd2d 943d 2c5b 8cbe d267 19be
000002f0: f066 d3be 9086 c33d 88cb 9a3c 3be5 d53d
00000300: 311b 003d 50e4 2cbd c040 573b d08d 953c
00000310: 288d 63bc 105e d1bd fc75 2ebd 6c30 fa3d
00000320: a039 cbbc a452 143d 2483 573d 75d2 dfbb
00000330: e090 47bd 6b4f d5bc 74b4 ecbd 8ab3 eebd
00000340: 83ff 6e3d aaf8 863d a656 c83d 3a3b 13bd
00000350: e0c0 fbbc cabf 09be 00d6 92ba 0891 acbd
00000360: e02f 08be 5e50 b83c 78a3 343d 42a2 16be
00000370: 68dc bdbd c338 e8bb 1091 febd 686b 41bd
00000380: 1019 5d3c f991 8d3d 4d1f b8bd 804c 4ebb
00000390: f39e 9b3c 8a07 a7bd 0e8d c73d bca3 f6bc
000003a0: 00e5 93bd db01 90bd 3e0d bbbd 5734 f9bc
000003b0: 28c7 db3c 1ae3 8b3d 8fcb e7bd 33f6 9e3c
000003c0: a569 16bd ff15 a5bc 8028 093d 1633 ffbd
000003d0: 382a dcbc 14ce 933d 77ad cebd 2c9e 37bd
000003e0: 02b4 e7bd bcb4 00bd 3492 b73d 9dd7 1ebe
000003f0: 3089 833d e66b 79bd 6cfc c1bd da19 acbd

fc2.bias f4 [64]
0.17572296 0.02247284 -0.090463646 0.06552051 -0.07725194 0.069325365 0.16612354 -0.12298873
0.08051702 0.06974915 0.10568778 -0.14304803 -0.12627412 0.17127867 0.119282395 -0.079554096
0.02236377 -0.027581438 0.04061925 0.13770828 -0.04422572 -0.008575642 0.029871792 -0.09751934
-0.18052232 -0.12161486 0.026408121 0.03783938 -0.23115529 0.061427217 -0.004954185 0.09557639
0.0072957138 -0.009688813 -0.09647693 0.035341255 -0.10418249 0.07162501 0.023187382 0.06298143
-0.011441806 0.21433994 0.05715747 0.15156306 -0.1454181 0.0522701 0.13258635 0.10713693
0.037210535 -0.06801206 0.04110199 -0.1414744 0.019713124 0.09891637 0.09974123 -0.07779031
0.071105555 0.06765924 -0.041785643 -0.114174716 -0.06599421 0.07751758 -0.08699189 0.07746804
00000000: b8f0 333e f618 b83c 0145 b9bd 9e2f 863d
00000010: 4436 9ebd 75fa 8d3d 4a1c 2a3e 84e1 fbbd
00000020: 1be6 a43d a4d8 8e3d d672 d83d 2f7b 12be
00000030: 014e 01be ad63 2f3e 544a f43d 42ed a2bd
00000040: 3a34 b73c 78f2 e1bc 5f60 263d 6603 0d3e
00000050: 0726 35bd d980 0cbc b0b5 f43c 38b8 c7bd
00000060: d8da 38be 3611 f9bd d855 d83c 77fd 1a3d
00000070: f9b3 6cbe 1b9b 7b3d b756 a2bb 8ebd c33d
00000080: e210 ef3b d4bd 1ebc b295 c5bd fec1 103d
00000090: a15d d5bd 22b0 923d 77f3 bd3c 68fc 803d
000000a0: 6a76 3bbc ee7b 5b3e f41d 6a3d 5933 1b3e
000000b0: 7be8 14be 2c19 563d b7c4 073e 9b6a db3d
000000c0: 136a 183d e849 8bbd 8f5a 283d aade 10be
000000d0: 6b7d a13c aa94 ca3d 2145 cc3d 8750 9fbd
000000e0: ca9f 913d ed90 8a3d 6c27 2bbd 6fd4 e9bd
000000f0: f927 87bd 89c1 9e3d ce28 b2bd 90a7 9e3d

fc3.weight f4 [2, 64]
0.38797572 0.14881364 0.12748952 0.06421578 -0.32092345 -0.014546446 0.17008437 0.050695617
-0.5667295 -0.32050598 0.019152937 -0.054890808 -0.07911478 0.08888272 0.18404528 -0.10349739
0.08723612 0.19813128 -0.01708591 0.10873398 -0.0016907697 -0.09673574 -0.07456366 0.01070379
0.23659396 0.014965773 0.0790578 0.020341186 -0.009771589 0.008824188 0.07408178 0.07271411
0.11926615 0.05840951 0.123566955 0.23612987 0.21915656 0.003371316 0.0071884054 0.10954909
0.07369288 0.16773409 -0.086099565 -0.0030919244 -0.05702034 0.031657264 0.24163158 -0.27075765
0.2698152 0.08501656 0.09229605 -0.14201541 0.29127756 -0.21581261 0.002388164 -0.02670644
-0.05033253 -0.14950971 -0.4903827 -0.12103461 0.046550795 0.38389322 -0.121910214 0.06424682
-0.46735343 0.14365835 0.20008111 -0.08836827 -0.34746587 -0.06171668 -0.33300808 0.06166017
-0.56534266 -0.34572232 0.09568669 -0.03964161 -0.17358585 0.1805531 0.021683786 0.10809383
0.37322736 0.26663467 -0.0854246 0.118014924 0.09502826 -0.02537345 0.041958064 -0.06917589
0.19433315 -0.051797777 0.05704254 -0.07374692 0.29986206 -0.019411193 0.07961235 0.027769623
0.1545617 -0.092197314 0.040070936 0.1925809 0.28830767 -0.048547395 -0.0059758043 0.1468693
0.15093155 0.15617841 0.03209257 1.1805063 0.076874815 -0.022710243 0.120012775 -0.38449347
0.29936215 -0.04801455 -0.08699491 -0.097381756 0.2289649 -0.22339419 -0.01797217 0.07520784
-0.09980069 -0.19573376 -0.45689797 -0.02095094 -0.049951848 0.33018464 0.0059249527 -0.036345594
00000000: c1a4 c63e 9a62 183e 9d8c 023e 9083 833d
00000010: 1450 a4be 3754 6ebc 992a 2e3e 35a6 4f3d
00000020: 2f15 11bf 5c19 a4be 9fe6 9c3c 2fd5 60bd
00000030: ee06 a2bd 2508 b63d 5e76 3c3e 71f6 d3bd
00000040: daa8 b23d ede2 4a3e c0f7 8bbc ecaf de3d
00000050: d19c ddba 631d c6bd d5b4 98bd f35e 2f3c
00000060: b045 723e 0033 753c 0ee9 a13d 8fa2 a63c
00000070: 0419 20bc 5493 103c 30b8 973d 23eb 943d
00000080: d041 f43d cf3e 6f3d ac10 fd3d 07cc 713e
00000090: 946a 603e 4cf1 5c3b b78c eb3b 465b e03d
000000a0: 4bec 963d 7cc2 2b3e f854 b0bd e2a1 4abb
000000b0: 298e 69bd 0cab 013d 456e 773e bfa0 8abe
000000c0: 3825 8a3e 2a1d ae3d b605 bd3d 7d6c 11be
000000d0: 5522 953e fbfd 5cbe be82 1c3b 77c7 dabc
000000e0: 7c29 4ebd 1319 19be 7113 fbbe fee0 f7bd
000000f0: 0cac 3e3d a78d c43e 10ac f9bd d693 833d
00000100: f348 efbe 2d1b 133e 10e2 4c3e 6cfa b4bd
00000110: 0ce7 b1be a1ca 7cbd 0980 aabe 608f 7c3d
00000120: 4cba 10bf 8402 b1be 62f7 c33d 3e5f 22bd
00000130: 7dc0 31be e9e2 383e 32a2 b13c 4c60 dd3d
00000140: a817 bf3e 5784 883e 18f3 aebd cfb1 f13d
00000150: 2d9e c23d fbdb cfbc 38dc 2b3d 17ac 8dbd
00000160: 45ff 463e e829 54bd 70a5 693d a008 97bd
00000170: 8587 993e 3904 9fbc cd0b a33d 1f7d e33c
00000180: 6c45 1e3e f2d1 bcbd 6c21 243d ed33 453e
00000190: 109d 933e a2d9 46bd aed0 c3bb e864 163e
000001a0: cd8d 1a3e 3ced 1f3e 8073 033d d51a 973f
000001b0: 8b70 9d3d d50a babc 42c9 f53d 54dc c4be
000001c0: ff45 993e e8aa 44bd 632a b2bd 1670 c7bd
000001d0: c675 6a3e 72c1 64be 5f3a 93bc 9106 9a3d
000001e0: 4e64 ccbd 6e6e 48be 88ee e9be 4ea1 abbc
000001f0: 4f9a 4cbd f60d a93e 1b26 c23b 1edf 14bd

fc3.bias f4 [2]
0.00569627 0.091791056
00000000: c7a7 ba3b f3fc bb3d
