checkpoint_model_episode_600.pth (torch, 21402 bytes, 6 tensors)

fc1.weight f4 [64, 4]
0	0x3ef19f83	0.4719201
1	0x3f0d6052	0.552251
2	0xbf3a73f6	-0.7283319
3	0x3e71c01d	0.23608442
4	0x3f070352	0.5273944
5	0xbcd98245	-0.026551375
6	0xbd9b9548	-0.075968325
7	0xbdb4b732	-0.08824004
8	0xbef2d8dd	-0.4743108
9	0x3ebcbdcf	0.36863562
10	0xbe1c1913	-0.1524394
11	0x3de0a90b	0.109697424
12	0x3de1e1b5	0.11029378
13	0x3c557fa5	0.013030921
14	0x3e4d8f08	0.20074093
15	0xbee9ad7c	-0.4564017
16	0x3e9bc942	0.30426985
17	0xbef65246	-0.48109645
18	0x3e8df45b	0.2772549
19	0xbd9dd4c8	-0.077066004
20	0xbe901589	-0.2814143
21	0xbf307b0d	-0.6893776
22	0xbdbaca2e	-0.09120594
23	0x3eafad7c	0.34312046
24	0xbeee0585	-0.46488586
25	0xbe61f5a0	-0.22066355
26	0xbef3f747	-0.47649595
27	0xbec6d146	-0.38831538
28	0xbde2b500	-0.11069679
29	0x3df48c70	0.11940849
30	0xbe8729c0	-0.2639904
31	0x3b3d3d00	0.002887547
32	0x3e58f010	0.21185327
33	0xbe21bd03	-0.15794758
34	0x3eb7c756	0.3589427
35	0xbe1ae502	-0.15126422
36	0xbe90ffc4	-0.28320134
37	0xbfdfe662	-1.7492182
38	0x3ea82b6d	0.3284563
39	0xbd9ffe47	-0.078121714
40	0xbe0cf697	-0.13765942
41	0x3f1fbcd2	0.6239749
42	0x3e52c29e	0.20582053
43	0x3e2e611e	0.17029235
44	0x3edb872d	0.42876568
45	0xbf164f4e	-0.5871476
46	0xbf072316	-0.5278791
47	0x3ea9ea43	0.3318654
48	0xbf09c48a	-0.5381552
49	0x3d47ba79	0.04876182
50	0xbd0dabfd	-0.03458785
51	0x3dde015d	0.10840104
52	0x3eab7863	0.33490285
53	0xbfbb6725	-1.4640852
54	0xbeed459f	-0.4634218
55	0x3e33fe7f	0.17577551
56	0xbe3d8073	-0.1850603
57	0xbc1de749	-0.009637662
58	0xbf449a7e	-0.76798236
59	0x3e63a012	0.2222903
60	0xbf198d8c	-0.5998161
61	0xbefaaaae	-0.48958343
62	0xbe53e2c0	-0.20691967
63	0x3e6f78f9	0.23385991
64	0x3ed1dc88	0.40988564
65	0x3e1a1237	0.15046011
66	0xbda2509a	-0.0792553
67	0x3d77fbfe	0.060543053
68	0xbe78b2da	-0.24286976
69	0x3eaf3a55	0.3422419
70	0xbe8bc8bb	-0.27301583
71	0xbe4a22c1	-0.1973982
72	0x3c938079	0.018005596
73	0x3d86f823	0.06590297
74	0x3ef9a713	0.4876028
75	0xbe89591a	-0.26825792
76	0x3ded16d5	0.115766205
77	0x3eaa607c	0.33276737
78	0xbf520b63	-0.82048625
79	0x3ee78699	0.45219877
80	0x3ed0527e	0.40687937
81	0xbf5a61cd	-0.8530548
82	0xbfd11064	-1.6333127
83	0xbcc74d96	-0.024328988
84	0xbdc1de4d	-0.09466229
85	0x3e5669a5	0.20938738
86	0x3df67652	0.120342866
87	0x3ecfb681	0.40568927
88	0xbe95ff68	-0.29296422
89	0xbe549984	-0.20761687
90	0xbe7567d0	-0.23965383
91	0xbc881b80	-0.016614676
92	0xbddb0138	-0.10693592
93	0xbe949f24	-0.29027665
94	0x3d88f219	0.066868015
95	0xbd63c993	-0.055612158
96	0x3eda8c20	0.42685032
97	0xbe7c1f58	-0.24621332
98	0xbd177757	-0.036979046
99	0x3d3df210	0.046373427
100	0x3e9e5497	0.30923912
101	0x3e9bec75	0.3045384
102	0x3d662216	0.05618485
103	0xbe608863	-0.21927027
104	0x3ba3c881	0.004998267
105	0x3f0719bf	0.5277366
106	0xbe312ef4	-0.17303067
107	0xbe257110	-0.16156411
108	0x3e7b0a9f	0.2451577
109	0x3ec70fd2	0.38879257
110	0x3cbb61c5	0.022873769
111	0xbda93d41	-0.082636364
112	0x3e2b4d7d	0.16728778
113	0xbe9f6d34	-0.31138003
114	0x3ee1edf1	0.44126847
115	0xbe35b3fa	-0.17744437
116	0x3e15d844	0.1463328
117	0x3cf3f0d3	0.02977792
118	0xbfebad41	-1.8412248
119	0x3ecc23c1	0.39871028
120	0x3ee71502	0.45133215
121	0x3e78f12d	0.24310751
122	0xbfe09d58	-1.7548018
123	0x3ece9b44	0.40352833
124	0xbea743cf	-0.3266892
125	0x3dde14be	0.108438
126	0x3f5f63ef	0.8726186
127	0xbe761c14	-0.24034148
128	0xbe85df4c	-0.26146924
129	0x3f0fd57b	0.5618512
130	0x3ea83066	0.32849425
131	0xbe7728e9	-0.241367
132	0x3e9b9543	0.30387315
133	0xbe2c1e58	-0.1680845
134	0xbeb2d07b	-0.34924683
135	0x3ea4c7a6	0.3218357
136	0x3eb645e5	0.356002
137	0xbeeb6422	-0.45974833
138	0xbfbdb5f2	-1.482115
139	0x3e8658d0	0.26239634
140	0xbe9d3a51	-0.30708554
141	0x3e78e19d	0.24304815
142	0xbe43b5cf	-0.19112323
143	0x3d809a0b	0.06279381
144	0x3f03724c	0.5134628
145	0x3f117024	0.5681174
146	0xbe8cf73e	-0.2753238
147	0xbe130fe3	-0.14361529
148	0x3e535808	0.2063905
149	0x3c841765	0.016124437
150	0x3e302b18	0.17203939
151	0xbace5d1c	-0.0015744301
152	0xbe1db528	-0.15401137
153	0x3e03a6a0	0.12856531
154	0xbef0c9e0	-0.47029018
155	0xbd179bd0	-0.03701383
156	0x3e51bb60	0.20481634
157	0x3a86c4b5	0.0010282012
158	0xbfa82add	-1.3138081
159	0x3e9f58e0	0.31122494
160	0xbea18a93	-0.31551036
161	0x3e8e881c	0.27838218
162	0x3ebd4fc2	0.36974913
163	0xbe8dce8e	-0.2769665
164	0x3e8afec6	0.27147502
165	0x3f028421	0.5098286
166	0xbea85ab6	-0.32881707
167	0x3e5634dc	0.20918602
168	0x3db4a60b	0.08820733
169	0xbe9c53d6	-0.30532712
170	0x3ed74a92	0.4204908
171	0xbe5d19cf	-0.21591876
172	0x3d98d079	0.07461638
173	0x3e23d912	0.16000775
174	0x3e7d396e	0.24728939
175	0xbe2349dd	-0.15946145
176	0x3e689c0e	0.2271578
177	0x3d9b200f	0.07574474
178	0xbcf5d753	-0.030009901
179	0xbe80cd6f	-0.25156733
180	0xbef82a20	-0.4846964
181	0x3e8b83fa	0.27249128
182	0xbe185f78	-0.14880168
183	0xbd824210	-0.06360257
184	0x3e645fc2	0.22302154
185	0x3ed01246	0.40638942
186	0xbe7c0b9f	-0.24613808
187	0x3d87e6ad	0.06635795
188	0x3d2d5fb8	0.042327613
189	0x3eeae5e4	0.45878518
190	0xbf6055bc	-0.8763082
191	0x3e9e40d4	0.30908835
192	0x3eca6793	0.39532146
193	0xbe3fc2d8	-0.1872667
194	0xbdf8f8e8	-0.1215685
195	0x3e13bff8	0.14428699
196	0x3e588669	0.21145023
197	0xbe369e19	-0.17833747
198	0xbea1de17	-0.31614754
199	0x3e686f91	0.22698809
200	0xbe1a88b7	-0.15091215
201	0xbf8aef55	-1.0854288
202	0x3e542c1d	0.20719953
203	0x3eb688df	0.356513
204	0xbec781b0	-0.3896613
205	0x3c81e300	0.015855312
206	0xbedfa2e2	-0.43678957
207	0xbe5e17fc	-0.21688837
208	0xbd1ce569	-0.03830472
209	0x3f064f5e	0.52464855
210	0x3d8a0c57	0.06740635
211	0xbebbe4f9	-0.3669813
212	0x3ef21cba	0.47287542
213	0x3e7e494e	0.24832651
214	0xbf15700d	-0.583741
215	0xbdd8fb9b	-0.10594865
216	0x3e5e5a9e	0.21714255
217	0x3e8c2ea3	0.2737933
218	0x3eb0314f	0.3441262
219	0x3cea9ff8	0.028640732
220	0xbf0bd93c	-0.5462835
221	0xbf06cf90	-0.52660465
222	0xbe91e5ee	-0.28495735
223	0xbec63ec6	-0.38719767
224	0x3e24ef19	0.16106834
225	0xbc87efc3	-0.01659382
226	0x3f14eb93	0.5817196
227	0xbe2395b3	-0.15975074
228	0x3defbca0	0.11705899
229	0xbf73c199	-0.9521728
230	0xc01e8108	-2.4766254
231	0x3e2df126	0.16986522
232	0x3e03aa9d	0.12858053
233	0x3da11bff	0.07866668
234	0xbea8270c	-0.3284229
235	0x3e81833e	0.25295442
236	0xbe346376	-0.17616066
237	0x3ede1458	0.43374896
238	0x3e006ee5	0.12542303
239	0xbdae811b	-0.08520719
240	0xbf7a7441	-0.9783364
241	0xbe8749af	-0.26423404
242	0x3e2b0be8	0.1670376
243	0x3dc5616e	0.09637724
244	0x3e8041ae	0.2505011
245	0x3ee07774	0.43841136
246	0x3ddd3318	0.10800761
247	0xbde08fee	-0.109649524
248	0xbe976a53	-0.29573306
249	0xbf5fb391	-0.8738337
250	0xbecd54cc	-0.40103757
251	0x3e883bef	0.26608226
252	0xbebaa929	-0.36457184
253	0x3ec1f71d	0.37883845
254	0x3f0381a4	0.5136969
255	0xbf25ad3a	-0.6471745

fc1.bias f4 [64]
0	0xbd9c4bc7	-0.07631641
1	0x3e2222d5	0.158336
2	0xbdcfd1fd	-0.10147474
3	0x3e626154	0.2210744
4	0xbe86d4a4	-0.26334107
5	0xbe9bfa76	-0.30464524
6	0xbe34be43	-0.17650704
7	0x3d50d630	0.050985515
8	0xbd1924de	-0.037388675
9	0xbe397e33	-0.18114547
10	0xbeaea712	-0.3411184
11	0xbec1f1b4	-0.37879717
12	0xbf031824	-0.5120871
13	0xbcd8498f	-0.026402263
14	0xbe7ca490	-0.2467215
15	0xbe98b263	-0.29823598
16	0x3e359259	0.17731608
17	0xbeea426c	-0.457538
18	0x3eb10d96	0.34580678
19	0x3dd63ec3	0.104611896
20	0xbe92b08e	-0.28650326
21	0x3e2370fb	0.15961067
22	0xbdbc5b08	-0.0919705
23	0xbead2574	-0.33817637
24	0xbeab52c4	-0.33461583
25	0xbd769cf7	-0.060208287
26	0x3ea27601	0.31730655
27	0x3e832282	0.25612265
28	0x3ec97e16	0.39354008
29	0x3ee1256c	0.43973863
30	0xbe3ebddd	-0.18627115
31	0x3f0fb3e1	0.5613385
32	0x3e3caf92	0.1842635
33	0xbe189892	-0.14901951
34	0xbec3c791	-0.38238195
35	0x3ec15d21	0.37766364
36	0x3d89e0b6	0.06732313
37	0xbf06dbcf	-0.5267915
38	0xbefee52c	-0.4978422
39	0xbdd0354e	-0.10166417
40	0xbea20f8b	-0.31652483
41	0xbe8aa77f	-0.27080914
42	0x3edbd6a4	0.42937195
43	0x3eb1ee12	0.34751946
44	0x3eefa189	0.4680293
45	0xbca8c7e0	-0.02060312
46	0xbe2fbed3	-0.17162637
47	0xbdb5d8fa	-0.088792756
48	0xbf05c4c0	-0.5225334
49	0x3c988af7	0.018620951
50	0x3d8f52cc	0.06998214
51	0x3e6e9bac	0.23301572
52	0x3e8e4ebd	0.27794448
53	0xbeb8549d	-0.36002055
54	0xbe6e99ad	-0.2330081
55	0xbe483e9b	-0.19555132
56	0xbe4c124e	-0.19928858
57	0x3e316aac	0.17325848
58	0x3e639066	0.22223052
59	0x3e9abe19	0.30223158
60	0xbf49a91c	-0.78773665
61	0xbedffd65	-0.43748012
62	0x3d75487e	0.059883587
63	0x3e197074	0.14984304

fc2.weight f4 [64, 64]
0	0x3e94cc0f	0.29061934
1	0x3e282560	0.16420507
2	0xbe9b1f78	-0.30297446
3	0xbe7a525a	-0.24445477
4	0x3e1a4282	0.15064433
5	0xbd9793bc	-0.07401225
6	0xbdd9ed5e	-0.10640977
7	0x3cc35f00	0.02384901
8	0x3ea7b6ed	0.3275675
9	0xbf834845	-1.025643
10	0xbf303053	-0.68823737
11	0x3e8608f9	0.2617872
12	0xbd0cf15c	-0.034409866
13	0xbd81ee7b	-0.06344315
14	0x3e1cad20	0.15300417
15	0xbdccc00a	-0.09997566
16	0x3d4db1ca	0.05021838
17	0x3c977180	0.018486738
18	0xbd84af06	-0.064786956
19	0xbeb9bbb9	-0.36276034
20	0xbfbea954	-1.4895425
21	0xbddcf163	-0.10788228
22	0xbccd4068	-0.025055125
23	0x3c36ef00	0.0111653805
24	0x3e196aac	0.14982098
25	0xbd169192	-0.03675992
26	0xbdfbb79e	-0.122908816
27	0x3e006f4b	0.12542455
28	0x3e6f17a9	0.2334887
29	0xbdd25e79	-0.102719255
30	0xbe45d733	-0.19320373
31	0xbd0d5251	-0.03450233
32	0xbfa8ffcf	-1.3203067
33	0xbe4b9af9	-0.19883336
34	0xbbf111ba	-0.0073568495
35	0x3de0d0f1	0.109773524
36	0xbd833ffc	-0.064086884
37	0x3d6eb76b	0.05828039
38	0xbdff19e2	-0.12456109
39	0xbc804ad4	-0.01566068
40	0x3ef4b22b	0.4779218
41	0xbe057e1f	-0.13036393
42	0x3e29d0dc	0.1658358
43	0x3d873af7	0.066030435
44	0xbe07d540	-0.13264942
45	0x3de8f51e	0.113748774
46	0xbd238545	-0.039922018
47	0x3df859c3	0.12126496
48	0x3e6a0608	0.22853863
49	0xbe1a051f	-0.15041016
50	0x3e4f2764	0.2022987
51	0x3d224d1c	0.03962432
52	0xbf7ebf6c	-0.99510837
53	0x3e24019d	0.1601624
54	0xbd4e452f	-0.050358947
55	0x3da20b40	0.07912302
56	0x3e426214	0.18982726
57	0x3c95e173	0.01829598
58	0xbe37b7e4	-0.17941242
59	0xbcd9ff07	-0.026610864
60	0xbe5d5dbc	-0.21617788
61	0x3dfe5f3b	0.124205075
62	0xbc922cc9	-0.01784362
63	0x3ee90369	0.45510414
64	0xbf791f84	-0.97313714
65	0x3e538a1b	0.20658152
66	0x3db11c4b	0.086479746
67	0x3e0883f0	0.1333158
68	0xbc598801	-0.013277055
69	0x3d5d9ed9	0.054106567
70	0xbdb98d68	-0.09060174
71	0x3cb432c0	0.021996856
72	0xbd44d4af	-0.048054393
73	0x3e99e293	0.30055675
74	0x3cab38bf	0.020901082
75	0xbf4dee5f	-0.8044185
76	0xbd39c4e1	-0.045353774
77	0xbdfde81c	-0.12397787
78	0x3c40fb19	0.011778616
79	0xbc75bddd	-0.01499888
80	0x3d1c42ed	0.038149763
81	0xbd9a7b27	-0.07543021
82	0x3db51b70	0.08843124
83	0x3e6710fe	0.22565076
84	0xbf3e4fa9	-0.743403
85	0xbd22c3b0	-0.039737403
86	0x3c59b460	0.013287634
87	0xbc4e36a7	-0.012586272
88	0xbf7c756a	-0.9861666
89	0x3e0c3fc4	0.136962
90	0xbcc37266	-0.02385826
91	0xbd823107	-0.063570075
92	0x3d0e3a75	0.034723718
93	0xbde6672e	-0.11250149
94	0xbd39a02c	-0.045318767
95	0x3c7f0b79	0.0155667
96	0xbd88d4d5	-0.066812195
97	0x3ecf9780	0.40545273
98	0xbe0ce4d3	-0.13759165
99	0xbc8575e5	-0.016291568
100	0xbc1fdfb6	-0.009757927
101	0x3dfaa378	0.122382104
102	0xbd6ea3fc	-0.058261856
103	0xbe3a5f3f	-0.18200396
104	0xbeda22df	-0.4260473
105	0x3e3c4b7b	0.18388169
106	0xbdfdaaa8	-0.12386066
107	0x3cf6a6f7	0.030108912
108	0x3c8fce4c	0.017554425
109	0x3ad27680	0.0016057044
110	0x3e8d2b82	0.27572256
111	0x3f013e7a	0.50485957
112	0xbf62ecb0	-0.88642406
113	0x3d327280	0.043566227
114	0x3e0639c1	0.13107969
115	0x3de1dd00	0.110284805
116	0x3e9f09f3	0.31062278
117	0x3b968098	0.0045929663
118	0x3db26c58	0.08712071
119	0x3dc9f771	0.09861649
120	0x3dabc948	0.08388001
121	0x3da13242	0.07870914
122	0x3e92268e	0.2854504
123	0xbd9dac8e	-0.07698928
124	0xbe632bf2	-0.22184733
125	0xbda8a296	-0.08234136
126	0xbb37b569	-0.0028031713
127	0x3d50ceba	0.0509784
128	0xbf563c87	-0.8368611
129	0xbf032e1e	-0.51242244
130	0xbe0e355f	-0.13887547
131	0x3e18b11a	0.14911309
132	0x3dc49068	0.09597856
133	0x3e3751fa	0.17902365
134	0xbe1aea90	-0.15128541
135	0xbc4678b0	-0.012113735
136	0x3d990529	0.07471687
137	0x3e65cafb	0.22440712
138	0x3a94d532	0.0011355041
139	0x3d8e4c19	0.06948108
140	0xbd3c60d2	-0.045990773
141	0xbdcd2490	-0.10016739
142	0x3c992957	0.01869647
143	0x3d7b7bc3	0.061397325
144	0x3d9f2e04	0.07772449
145	0xbdca34dd	-0.09873364
146	0x3e0f389b	0.13986437
147	0xbe003433	-0.12519912
148	0xbf3c4e7f	-0.73557276
149	0xbdc0d8d9	-0.094163604
150	0xbdd6b884	-0.10484412
151	0x3cdc5bcf	0.026899246
152	0xbe641d25	-0.22276743
153	0x3dbb4d87	0.091456465
154	0x3d4b1b07	0.049586322
155	0x3de1198b	0.109912
156	0x3dce2fbf	0.100677006
157	0x3e8aaf09	0.27086666
158	0xbef48a87	-0.47761938
159	0xbd59f9e1	-0.05321682
160	0xbcd35c56	-0.025800865
161	0x3dd98ee2	0.10622956
162	0x3b6b434b	0.0035898264
163	0xbd9cde6b	-0.0765961
164	0xbe19c5a5	-0.15016802
165	0xbdd64549	-0.10462434
166	0x3bf139c0	0.0073616207
167	0x3e19ebe4	0.15031391
168	0xbeb0c32c	-0.34523904
169	0x3d1bb4ca	0.03801421
170	0x3e1839c9	0.14865793
171	0x3e1bd6d3	0.15218668
172	0xbf0dd621	-0.5540486
173	0xbd5da524	-0.05411257
174	0x3df6d27b	0.12051865
175	0xbd9d817d	-0.076907136
176	0xbea117d9	-0.31463507
177	0xbe4770c6	-0.19476613
178	0xbdba7928	-0.0910514
179	0xbd9f9fec	-0.077941746
180	0xbcc3e771	-0.02391407
181	0xbf84457c	-1.0333705
182	0xbd2f67cb	-0.042823594
183	0xbc8777db	-0.016536644
184	0x3dc5a22f	0.09650075
185	0x3d942dbd	0.072352864
186	0xbe1c26bb	-0.1524915
187	0xbe0cc36d	-0.13746424
188	0xbf1bd270	-0.6086798
189	0x3de32deb	0.110927425
190	0x3c9acb88	0.01889588
191	0x3df16eac	0.11788687
192	0x3d001b31	0.03127593
193	0xbd2ce450	-0.042209923
194	0x3b5740c0	0.003284499
195	0x3c958dd0	0.018256098
196	0xbc638d28	-0.013888635
197	0xbdd15e10	-0.10223019
198	0xbd2e75fc	-0.042592987
199	0x3dfa306c	0.12216267
200	0xbccb39a0	-0.024807751
201	0x3d1452a4	0.036211625
202	0x3d578324	0.0526153
203	0xbbdfd275	-0.0068305084
204	0xbd4790e0	-0.048722148
205	0xbcd54f6b	-0.026038846
206	0xbdecb474	-0.11557856
207	0xbdeeb38a	-0.11655338
208	0x3d6eff83	0.058349144
209	0x3d86f8aa	0.06590398
210	0x3dc856a6	0.09782152
211	0xbd133b3a	-0.035945155
212	0xbcfbc0e0	-0.030731618
213	0xbe09bfca	-0.13452068
214	0xba92d600	-0.0011202693
215	0xbdac9108	-0.084261
216	0xbe082fe0	-0.13299513
217	0x3cb8505e	0.02249926
218	0x3d34a378	0.04410121
219	0xbe16a242	-0.14710334
220	0xbdbddc68	-0.09270555
221	0xbbe838c3	-0.0070868446
222	0xbdfe9110	-0.12430012
223	0xbd416b68	-0.04722157
224	0x3c5d1910	0.013494745
225	0x3d8d91f9	0.06912608
226	0xbdb81f4d	-0.08990345
227	0xbb4e4c80	-0.0031478703
228	0x3c9b9ef3	0.018996691
229	0xbda7078a	-0.08155735
230	0x3dc78d0e	0.09743701
231	0xbcf6a3bc	-0.030107372
232	0xbd93e500	-0.07221413
233	0xbd9001db	-0.07031604
234	0xbdbb0d3e	-0.09133385
235	0xbcf93457	-0.030420465
236	0x3cdbc728	0.026828364
237	0x3d8be31a	0.068304256
238	0xbde7cb8f	-0.113181226
239	0x3c9ef633	0.019404506
240	0xbd1669a5	-0.036721844
241	0xbca515ff	-0.02015209
242	0x3d092880	0.03348589
243	0xbdff3316	-0.12460916
244	0xbcdc2a38	-0.0268756
245	0x3d93ce14	0.07217041
246	0xbdcead77	-0.100916795
247	0xbd379e2c	-0.04482858
248	0xbde7b402	-0.11313631
249	0xbd00b4bc	-0.03142236
250	0x3db79234	0.08963433
251	0xbe1ed79d	-0.15511937
252	0x3d838930	0.06422651
253	0xbd796be6	-0.060893916
254	0xbdc1fc6c	-0.09471974
255	0xbdac19da	-0.08403368

fc2.bias f4 [64]
0	0x3e4a63ce	0.19764635
1	0x3d1d214f	0.038361844
2	0xbdaa01b2	-0.083011046
3	0x3d862f9e	0.06552051
4	0xbdc67e94	-0.096921116
5	0x3d8dfa75	0.069325365
6	0x3e2641b1	0.16235997
7	0xbdfbe184	-0.12298873
8	0x3dbd7e87	0.09252649
9	0x3db544d0	0.088510156
10	0x3dd872d6	0.10568778
11	0xbe127b2f	-0.14304803
12	0xbe0d8870	-0.13821578
13	0x3e303c4e	0.17210504
14	0x3e006549	0.12538637
15	0xbda2ed42	-0.079554096
16	0x3cb7343a	0.02236377
17	0xbcc0cbba	-0.023534644
18	0x3d26605f	0.04061925
19	0x3e188a4e	0.14896509
20	0xbd352607	-0.04422572
21	0xbc50d006	-0.012744909
22	0x3cf4b5b0	0.029871792
23	0xbdc7b838	-0.09751934
24	0xbe38dad8	-0.18052232
25	0xbdf91136	-0.12161486
26	0x3cd855d8	0.026408121
27	0x3d1afd77	0.03783938
28	0xbe6cb3f9	-0.23115529
29	0x3d7b9b1b	0.061427217
30	0xbba256b7	-0.004954185
31	0x3dcd9d64	0.100397855
32	0x3bef10e2	0.0072957138
33	0xbc1ebdd4	-0.009688813
34	0xbdc595b2	-0.09647693
35	0x3d111182	0.035417087
36	0xbdc36d0f	-0.09542286
37	0x3d92b022	0.07162501
38	0x3c57b32e	0.013165278
39	0x3d82d1d4	0.06387678
40	0xbb08b077	-0.0020857134
41	0x3e68f921	0.22751285
42	0x3d6a1df4	0.05715747
43	0x3e2167b7	0.1576222
44	0xbe14e87b	-0.1454181
45	0x3d56192c	0.0522701
46	0x3e182c35	0.14860614
47	0x3ddf1a6e	0.10893713
48	0x3d37d97f	0.044885155
49	0xbd8b49e8	-0.06801206
50	0x3d285a8f	0.04110199
51	0xbe062fab	-0.13104121
52	0x3bcd0f87	0.0062579545
53	0x3ddd3a95	0.10802189
54	0x3dcc4521	0.09974123
55	0xbd9f5087	-0.07779031
56	0x3d919fca	0.071105555
57	0x3d95dfa7	0.07318049
58	0xbd119e33	-0.03555126
59	0xbde9d46f	-0.114174716
60	0xbd8727f9	-0.06599421
61	0x3d980cd4	0.07424322
62	0xbdb228ce	-0.08699189
63	0x3d9ea790	0.07746804

fc3.weight f4 [2, 64]
0	0x3ec8e3ba	0.39236242
1	0x3e0c860e	0.13723013
2	0x3e292225	0.16516931
3	0x3d838390	0.06421578
4	0xbe61047e	-0.2197437
5	0xbc6e5437	-0.014546446
6	0x3e407ed6	0.18798384
7	0x3d4fa635	0.050695617
8	0xbed6b746	-0.41936702
9	0xbea757a0	-0.3268404
10	0x3c9ce69f	0.019152937
11	0xbd60d52f	-0.054890808
12	0xbd9b2dd5	-0.07577101
13	0x3daf9288	0.085728705
14	0x3e12b212	0.14325741
15	0xbdd3f671	-0.10349739
16	0x3db2a8da	0.08723612
17	0x3e158c9a	0.14604416
18	0xbc8bf7c0	-0.01708591
19	0x3dc094e7	0.09403401
20	0xbadd9cd1	-0.0016907697
21	0xbda8c659	-0.08240957
22	0xbd98b4d5	-0.07456366
23	0x3c2f5ef3	0.01070379
24	0x3e7245b0	0.23659396
25	0x3c753300	0.014965773
26	0x3da1e90e	0.0790578
27	0x3ca6a28f	0.020341186
28	0xbc201904	-0.009771589
29	0x3c109354	0.008824188
30	0x3d97b830	0.07408178
31	0x3e3385ce	0.17531511
32	0x3df441d0	0.11926615
33	0x3d6f3ecf	0.05840951
34	0x3dfd10ac	0.123566955
35	0x3e4e577f	0.20150565
36	0x3e2d1ea8	0.16906226
37	0x3b5cf14c	0.003371316
38	0x3d112b1c	0.035441503
39	0x3df29c6f	0.118462436
40	0x3d9ef6cb	0.07761916
41	0x3e2d804d	0.16943474
42	0xbdb054f8	-0.086099565
43	0xbcda2b74	-0.026632048
44	0xbd698e29	-0.05702034
45	0x3d01ab0c	0.031657264
46	0x3e6e88ff	0.23294447
47	0xbe6f505f	-0.23370503
48	0x3e5bf140	0.21478748
49	0x3dae1d2a	0.08501656
50	0x3dbd05b6	0.09229605
51	0xbda24b34	-0.079245
52	0x3e5f7074	0.21820241
53	0xbe64bd58	-0.22337854
54	0x3b1c82be	0.002388164
55	0xbcdac777	-0.02670644
56	0xbd4e297c	-0.05033253
57	0xbe19e66f	-0.1502931
58	0xbeec5be9	-0.46163872
59	0xbdf7e0fe	-0.12103461
60	0x3d3eac0c	0.046550795
61	0x3ea86544	0.3288976
62	0xbdf9ac10	-0.121910214
63	0x3d8393d6	0.06424682
64	0xbf01d4a5	-0.50715095
65	0x3dfd1a9f	0.12358593
66	0x3e905e64	0.28197014
67	0xbdb4fa6c	-0.08836827
68	0xbe925ada	-0.2858494
69	0xbd7ccaa1	-0.06171668
70	0xbea4a9e4	-0.32160866
71	0x3d7c8f60	0.06166017
72	0xbedf80c0	-0.43652916
73	0xbeab835c	-0.33498657
74	0x3dc3f762	0.09568669
75	0xbd225f3e	-0.03964161
76	0xbe0f602b	-0.14001529
77	0x3dd6a9dc	0.10481617
78	0x3ceec53d	0.029146785
79	0x3ddd604c	0.10809383
80	0x3ebf17a8	0.37322736
81	0x3e47273d	0.19448562
82	0xbdaef318	-0.0854246
83	0x3de0f8cb	0.109849535
84	0x3dc29e2d	0.09502826
85	0xbc84a0b0	-0.016189903
86	0x3d2bdc38	0.041958064
87	0xbd8dac17	-0.06917589
88	0x3e46ff45	0.19433315
89	0xbd5429e8	-0.051797777
90	0x3d69a570	0.05704254
91	0xbd9708a0	-0.07374692
92	0x3e998785	0.29986206
93	0xbc9f0439	-0.019411193
94	0x3da30bcd	0.07961235
95	0x3e1e6db5	0.15471537
96	0x3e1e456c	0.1545617
97	0xbdbcd1f2	-0.092197314
98	0x3d24216c	0.040070936
99	0x3e144660	0.14479971
100	0x3e4c0890	0.19925141
101	0xbd46d9a2	-0.048547395
102	0x3ca52485	0.020159015
103	0x3e063f60	0.13110113
104	0x3e1009cd	0.14066239
105	0x3e275c1f	0.16343735
106	0x3d037380	0.03209257
107	0x3f99f36d	1.2027413
108	0x3d9d708b	0.076874815
109	0xbcba0ad5	-0.022710243
110	0x3e090102	0.1337929
111	0xbeb1dc44	-0.34738362
112	0x3e6a75b2	0.2289646
113	0xbd44aae8	-0.04801455
114	0xbdb22a63	-0.08699491
115	0xbd57f99e	-0.052728288
116	0x3e345ca2	0.17613462
117	0xbe60143a	-0.21882716
118	0xbc933a5f	-0.01797217
119	0x3d9a0691	0.07520784
120	0xbdcc644e	-0.09980069
121	0xbe31c00c	-0.17358416
122	0xbed281e9	-0.4111474
123	0xbcaba14e	-0.02095094
124	0xbd4c9a4f	-0.049951848
125	0x3e938fca	0.2882064
126	0x3bc2261b	0.0059249527
127	0xbd14df1e	-0.036345594

fc3.bias f4 [2]
0	0x3cd1293a	0.025532354
1	0x3dd24c52	0.10268463
