checkpoint_model_episode_800.pth (torch, 21402 bytes, 6 tensors)

fc1.weight f4 [64, 4]
000000 b4 e9 e5 3e 86 ae 30 3e 53 5c 33 bf e2 4f d2 3e
       0.44904864 0.17254075 -0.7006275 0.4107657
000010 6e 5d 03 3f 9e 19 6e bb f1 60 42 bd 01 9a 71 bd
       0.5131444 -0.0036331187 -0.04745573 -0.05898476
000020 dd d8 f2 be cf bd bc 3e 13 19 1c be 0b a9 e0 3d
       -0.4743108 0.36863562 -0.1524394 0.109697424
000030 80 1e c5 3d 7c 24 58 bb 01 9a 46 3e 0d a0 c8 be
       0.09624958 -0.003298073 0.19394685 -0.3918461
000040 32 6d 98 3e d9 b6 f8 be 6d 03 93 3e 6d 20 cd bd
       0.2977081 -0.48577002 0.2871355 -0.1001595
000050 d3 6a 0a bf fd 2e 39 bf 35 eb 96 bd 21 35 8c 3e
       -0.5406925 -0.72337323 -0.07369081 0.27384284
000060 85 05 ee be a0 f5 61 be 47 f7 f3 be 46 d1 c6 be
       -0.46488586 -0.22066355 -0.47649595 -0.38831538
000070 00 b5 e2 bd 70 8c f4 3d c0 29 87 be 00 3d 3d 3b
       -0.11069679 0.11940849 -0.2639904 0.002887547
000080 24 14 53 3e eb f2 26 be 0d 50 b0 3e 0a 0d 19 be
       0.20613152 -0.16303603 0.34436074 -0.1494638
000090 41 69 ad be 8a 25 03 c0 67 a1 b7 3e a0 96 1d be
       -0.33869365 -2.0491662 0.35865328 -0.1538949
0000a0 ba 68 43 be 87 aa 0f 3f 01 e3 de 3d a0 8e 8a 3e
       -0.19082919 0.5611958 0.10883141 0.2706194
0000b0 1f 3d e3 3e 6e ac 25 bf f1 f2 06 bf b9 a0 7b 3e
       0.4438257 -0.6471623 -0.5271445 0.2457303
0000c0 8a c4 09 bf 79 ba 47 3d fd ab 0d bd 5d 01 de 3d
       -0.5381552 0.04876182 -0.03458785 0.10840104
0000d0 ae 6b db 3e f9 1d ac bf 43 6d fa be 55 b2 ce bb
       0.4285559 -1.3446647 -0.48911485 -0.00630788
0000e0 99 58 5a be 83 e2 0a bd df a3 4a bf db e2 46 3e
       -0.2132286 -0.033907425 -0.791563 0.19422476
0000f0 8c 8d 19 bf ae aa fa be c0 e2 53 be f9 78 6f 3e
       -0.5998161 -0.48958343 -0.20691967 0.23385991
000100 9c 86 d4 3e 9d 97 10 3e c9 fc 2e bd fb bf 4b 3d
       0.4150895 0.14120336 -0.042721543 0.049743634
000110 da b2 78 be 55 3a af 3e bb c8 8b be c1 22 4a be
       -0.24286976 0.3422419 -0.27301583 -0.1973982
000120 bb 2b 87 3d 69 43 ef 3d 23 81 f5 3e 0a 4e 4a be
       0.06600138 0.11682779 0.47950086 -0.19756332
000130 7e 4c 16 3e 08 17 56 3e 8a db 81 bf c9 30 d9 3e
       0.14677617 0.20907223 -1.0145123 0.42420033
000140 68 55 fe 3e 04 5b e0 be ca 2c 01 c0 af e3 13 be
       0.49674535 -0.4381944 -2.0183587 -0.14442323
000150 1c 38 4a be 08 93 5e 3d 44 af ae bd 95 f1 d2 3e
       -0.19747967 0.05433944 -0.08529523 0.41199937
000160 68 ff 95 be 84 99 54 be d0 67 75 be 80 1b 88 bc
       -0.29296422 -0.20761687 -0.23965383 -0.016614676
000170 38 01 db bd 24 9f 94 be 19 f2 88 3d 93 c9 63 bd
       -0.10693592 -0.29027665 0.066868015 -0.055612158
000180 ad d9 e3 3e 77 cb 9d bd be de a8 3c 17 28 a6 bb
       0.4450201 -0.077048235 0.020614024 -0.005070697
000190 d0 7f 9d 3e 77 ad 96 3e 71 98 91 3c 4b 7a 7b be
       0.30761576 0.29429218 0.017772885 -0.2455837
0001a0 96 69 4c bb d7 9b 03 3f 4e ec 1e be 24 de 16 be
       -0.0031190864 0.5140967 -0.1551983 -0.14733177
0001b0 63 dc 2d 3e 65 b4 b8 3e dd 20 3c bc 00 9f 27 bd
       0.16978602 0.3607513 -0.011482445 -0.04092312
0001c0 3d b9 06 3e c7 e9 a7 be a3 7b c9 3e 35 41 db bd
       0.131566 -0.32795545 0.3935214 -0.10705797
0001d0 15 5d 12 3e 13 39 4f 3c a2 76 f3 bf 23 06 d1 3e
       0.1429332 0.012647885 -1.9020579 0.40824994
0001e0 66 98 f1 3e 68 6c 47 3e 88 00 e4 bf d7 1a b3 3e
       0.47186583 0.19474947 -1.7812662 0.34981415
0001f0 3c fb 99 be a7 c2 c3 3d 21 e9 5d 3f 60 3f 74 be
       -0.3007449 0.09558611 0.8668385 -0.238523
000200 ca 25 86 be e3 2c 21 3f 41 59 a7 3e 7f 92 58 be
       -0.26200706 0.62959117 0.32685283 -0.21149634
000210 b2 e0 a3 3e 26 b8 5b be 87 cd ad be ea 0e 83 3e
       0.32007366 -0.21456966 -0.33945867 0.25597316
000220 d3 d0 c2 3e 13 ce d2 be dd 01 c9 bf 18 6a 77 3e
       0.38049945 -0.41172847 -1.5703694 0.24161565
000230 51 3a 9d be 9d e1 78 3e cf b5 43 be 0b 9a 80 3d
       -0.30708554 0.24304815 -0.19112323 0.06279381
000240 1f 09 fd 3e 58 6c 15 3f 10 4d 73 be 13 1f a3 bd
       0.4942102 0.58368444 -0.23759866 -0.07964911
000250 59 86 3b 3e b4 92 1c bd 49 43 4d 3d 70 03 80 bd
       0.18312968 -0.038225845 0.050112996 -0.06250656
000260 28 b5 1d be a0 a6 03 3e e0 c9 f0 be d0 9b 17 bd
       -0.15401137 0.12856531 -0.47029018 -0.03701383
000270 2b 03 7b 3e 77 7a fe bb cb 31 aa bf 72 fc a7 3e
       0.24512927 -0.007766064 -1.3296446 0.32809788
000280 47 74 b9 be 8a bc 43 3e 26 3e d6 3e 49 a8 8e be
       -0.36221525 0.1911489 0.4184429 -0.27862766
000290 bb 69 90 3e 35 b7 9c 3e 0f 58 cd be 20 bb 83 3e
       0.28205666 0.30608526 -0.40106246 0.25728703
0002a0 c4 a1 aa 3d c1 03 96 be 44 e8 b5 3e 08 bc 3f be
       0.083316356 -0.2929974 0.35528767 -0.18724072
0002b0 05 99 5c 3d ef 22 0a 3e 68 e2 36 3e 64 c1 0e be
       0.05385687 0.13489889 0.17859805 -0.1394096
0002c0 92 39 59 3e d8 55 da 3d 0b 2c 60 bc b3 a2 6b be
       0.21213368 0.10660905 -0.013682376 -0.23011284
0002d0 20 2a f8 be fa 83 8b 3e 78 5f 18 be 10 42 82 bd
       -0.4846964 0.27249128 -0.14880168 -0.06360257
0002e0 b7 c2 95 3e 8b bf 66 3e d3 9a 8f be d2 d2 fe 3d
       0.29250118 0.22534005 -0.2804781 0.124425545
0002f0 3c ba 70 3d d4 f3 d1 3e 10 c3 69 bf db 80 9e 3e
       0.058771357 0.4100634 -0.91313267 0.30957684
000300 e7 cb e9 3e d2 46 45 be f8 b8 88 be 1e d1 02 3e
       0.45663378 -0.19265297 -0.2670362 0.12775084
000310 db d0 65 3e 39 d0 84 be b7 06 9d be d5 4a 2d 3e
       0.22442953 -0.2594011 -0.30669186 0.16923077
000320 21 1f 36 be ef 73 89 bf 61 e4 1e 3e 68 98 a7 3e
       -0.17785312 -1.0738505 0.15516807 0.32733464
000330 b0 81 c7 be 00 e3 81 3c e2 a2 df be fc 17 5e be
       -0.3896613 0.015855312 -0.43678957 -0.21688837
000340 65 c7 09 bd 2b 38 12 3f b2 f0 47 3d 0f f5 86 be
       -0.033637423 0.57116956 0.04881353 -0.2635884
000350 28 ed fc 3e 8a a4 81 3e 7e e3 1d bf 17 14 90 bd
       0.49399686 0.25320846 -0.6167525 -0.07035082
000360 0a f5 39 3e 0e 16 75 3e fb 2c 9f 3e 20 c4 e7 3c
       0.18159881 0.23934194 0.31089005 0.028291762
000370 3c d9 0b bf 90 cf 06 bf ee e5 91 be c6 3e c6 be
       -0.5462835 -0.52660465 -0.28495735 -0.38719767
000380 54 58 30 3e 43 97 f5 bc 9b a4 09 3f 8c 5f fb bd
       0.17221195 -0.029979354 0.53766793 -0.122740835
000390 bf e7 28 3e c3 d2 78 bf c2 d7 2e c0 d8 90 4f 3e
       0.16494654 -0.97196597 -2.7319188 0.20270097
0003a0 22 64 0a 3e 97 4f f3 3d b0 93 8e be b8 ce 7e 3e
       0.1351476 0.11880415 -0.27847052 0.24883544
0003b0 b6 30 48 be be ef ec 3e 4f 5d 00 3e cc 51 43 bd
       -0.19549832 0.4627666 0.12535594 -0.04768543
0003c0 9f b6 7e bf ab d1 8c be ab 62 08 3e 5a b2 d8 3d
       -0.9949741 -0.27503714 0.13318889 0.10580893
0003d0 3f 2d 71 3e 2b c7 d3 3e 42 d4 bd 3d 8f 23 de bd
       0.23552416 0.4136289 0.092690006 -0.10846626
0003e0 89 aa a7 be c2 bc 67 bf d4 48 dd be a4 f5 6f 3e
       -0.32747295 -0.90522397 -0.43219626 0.23433548
0003f0 17 51 bb be d7 3f 2b 3f c4 48 03 3f b4 7b 01 bf
       -0.36585304 0.66894287 0.51282907 -0.5057938

fc1.bias f4 [64]
000000 2b c4 b5 bd 34 25 28 3e fd d1 cf bd 7b ae 56 3e
       -0.08875307 0.16420442 -0.10147474 0.20964997
000010 ad 76 87 be 74 1f be be 43 be 34 be 30 d6 50 3d
       -0.2645773 -0.37133372 -0.17650704 0.050985515
000020 8a d9 41 bd 5f d0 38 be 5a 98 cf be 97 ce bb be
       -0.047326602 -0.18048237 -0.40545923 -0.36681053
000030 24 18 03 bf 92 78 14 3d c4 88 8c be 63 b2 98 be
       -0.5120871 0.036247797 -0.27448094 -0.29823598
000040 0d 7b 48 3e 6c 42 ea be 4f 44 be 3e 3b 66 e2 3d
       0.1957819 -0.457538 0.3716149 0.11054655
000050 cb 20 64 be 5a 52 02 3d 08 5b bc bd 74 25 ad be
       -0.22278135 0.031816818 -0.0919705 -0.33817637
000060 34 01 99 be 9d b0 ae bd 3a e0 a0 3e 41 0f 45 3e
       -0.2988373 -0.0852978 0.3142107 0.192441
000070 5e 65 b3 3e ce 19 db 3e f0 a6 2f be 17 a5 12 3f
       0.35038275 0.42793125 -0.17153525 0.5728316
000080 54 31 3f 3e ec 9e 0a be 55 01 bb be 21 5d c1 3e
       0.18671161 -0.13537186 -0.36524454 0.37766364
000090 a5 9a 81 3d 9e be 16 bf 2c e5 fe be ab 37 89 bd
       0.06328324 -0.5888461 -0.4978422 -0.06700071
0000a0 6a d2 a6 be 22 5b 92 be 8d 70 cb 3e d7 72 9b 3e
       -0.32582408 -0.28585154 0.39734307 0.30361053
0000b0 a0 6a f0 3e e0 c7 a8 bc a3 ca 0d be 01 61 a0 bd
       0.46956348 -0.02060312 -0.13846831 -0.07831002
0000c0 c0 6b ff be 14 69 06 3d 28 24 1a 3d ac 9b 6e 3e
       -0.49886894 0.032815054 0.037632138 0.23301572
0000d0 d1 ae 8b 3e 56 c9 b3 be c1 70 8a be 9b 3e 48 be
       0.27281812 -0.35114545 -0.2703915 -0.19555132
0000e0 e8 11 59 be f7 5b 52 3e d9 86 76 3e 37 97 94 3e
       -0.21198237 0.20542894 0.24074878 0.29021618
0000f0 a0 13 52 bf 52 0f e7 be c1 59 e7 3c 68 5d 17 3e
       -0.82061195 -0.45128876 0.02824104 0.14781725

fc2.weight f4 [64, 64]
000000 bf 36 8b 3e f0 f3 3f 3e 78 1f 9b be 78 a6 72 be
       0.27190205 0.18745399 -0.30297446 -0.23696315
000010 49 60 34 3e 36 bb 22 be 5e ed d9 bd 00 5f c3 3c
       0.17614855 -0.15891728 -0.10640977 0.02384901
000020 a4 db b1 3e 95 2f 78 bf 65 83 f0 be 15 d1 7d 3e
       0.34737885 -0.96947604 -0.46975246 0.2478679
000030 5c f1 0c bd 7d d6 85 bd 20 ad 1c 3e 0a c0 cc bd
       -0.034409866 -0.06535051 0.15300417 -0.09997566
000040 5e 90 9c 3d 80 71 97 3c 42 48 38 bd c0 f1 0e bf
       0.07644723 0.018486738 -0.044990785 -0.5583763
000050 87 b7 c6 bf 3d 20 8c be 68 40 cd bc 00 ef 36 3c
       -1.5524758 -0.27368346 -0.025055125 0.0111653805
000060 58 d1 35 3e 6c 55 9f bc f1 f1 53 be a5 29 12 3e
       0.1775564 -0.019449912 -0.20697762 0.14273699
000070 ea 82 82 3e 85 76 8c be 23 81 a6 be a5 e4 97 bc
       0.25490505 -0.27434173 -0.32520398 -0.018541643
000080 d8 fe ab bf b1 99 61 be 7e 79 ad bc f1 d0 e0 3d
       -1.3437147 -0.22031285 -0.021176096 0.109773524
000090 2c 7a 97 3a 87 72 9a 3d e2 19 ff bd f1 7c 83 bd
       0.0011556796 0.075413756 -0.12456109 -0.06420315
0000a0 01 f3 c1 3e b9 a4 8d bd fe a9 3b 3e ef 5e b1 3d
       0.3788071 -0.06916184 0.18326566 0.08660685
0000b0 e8 a8 e7 bd 1e f5 e8 3d b4 15 69 bd 08 ab d2 bc
       -0.11311513 0.113748774 -0.056905463 -0.02571632
0000c0 56 f2 86 3e 81 15 28 be 2c cf 21 3e 1c 4d 22 3d
       0.26356763 -0.16414453 0.15801686 0.03962432
0000d0 56 56 82 bf ea 06 1a 3e 5f 6b d6 bc 40 0b a2 3d
       -1.0182598 0.150417 -0.026174245 0.07912302
0000e0 ec bf 53 3e 90 4c 4e bd 99 f5 5e be fd 57 5f bd
       0.20678681 -0.050365984 -0.21773376 -0.05452727
0000f0 bc 5d 5d be 97 5f 06 3e c9 2c 92 bc 41 cb b5 3e
       -0.21617788 0.13122402 -0.01784362 0.35506633
000100 aa a7 b0 be 28 b2 51 3e 4b 1c b1 3d 1f e4 0e 3e
       -0.34502918 0.20478117 0.086479746 0.13954209
000110 96 1e 08 bd ec af 07 3d 68 8d b9 bd c0 32 b4 3c
       -0.033232294 0.033126757 -0.09060174 0.021996856
000120 32 8c 6c bd a3 fd 80 3e 90 e1 ec 3c 3c 6d 3b bf
       -0.05775089 0.2519351 0.02891615 -0.73213553
000130 e1 c4 39 bd 12 db 1d 3f 19 fb 40 3c dd bd 75 bc
       -0.045353774 0.616624 0.011778616 -0.01499888
000140 7a bc 7c 3d 27 7b 9a bd a0 82 b4 3d bf 33 8c be
       0.061703183 -0.07543021 0.08813977 -0.2738323
000150 6e 15 81 bf 7e c7 08 bc 60 b4 59 3c a7 36 4e bc
       -1.0084665 -0.008348344 0.013287634 -0.012586272
000160 d5 aa 62 bf 56 31 25 3e ea 19 87 3c 09 e6 3d bd
       -0.8854192 0.16132101 0.016491849 -0.046361957
000170 1a 79 dc 3c 5e 28 d2 be 51 27 0f bf d9 4f 9e 39
       0.026913214 -0.41046423 -0.5591937 0.000301956
000180 ee 22 7a bd 6c ae de 3e d3 e4 0c be e5 75 85 bc
       -0.061068468 0.43492448 -0.13759165 -0.016291568
000190 bc 23 9d 3c 80 f4 15 3e fc a3 6e bd bb e6 02 bf
       0.019182079 0.1464405 -0.058261856 -0.51133317
0001a0 17 a2 dc be 7b 02 d4 3e d9 87 0f be d3 bf 1b 3d
       -0.43092415 0.41408142 -0.14016666 0.038024735
0001b0 ec f0 53 3d 80 76 d2 3a 6e c1 3e 3e 94 4a a5 3d
       0.051743433 0.0016057044 0.18628475 0.08070865
0001c0 f2 90 b2 bf 0c 79 0c bf 58 24 08 3e 00 dd e1 3d
       -1.3950484 -0.548722 0.13295114 0.110284805
0001d0 bb 93 b2 3e 9b 21 5b 3e 24 ea a9 3d 71 f7 c9 3d
       0.34878334 0.21399538 0.08296612 0.09861649
0001e0 10 f5 97 3d 42 32 a1 3d 50 80 d6 3e a4 40 7d bd
       0.07419789 0.07870914 0.4189477 -0.061829224
0001f0 ce 9c 6f be 52 b9 5d bd 69 b5 37 bb 3f 59 66 3d
       -0.2339966 -0.054131813 -0.0028031713 0.056237455
000200 d0 73 78 bf f4 51 fc be 5f 35 0e be c9 8a 2b 3e
       -0.97051716 -0.49281275 -0.13887547 0.16752161
000210 5f 7c 1f 3e 6b 98 2f 3e 90 ea 1a be b0 78 46 bc
       0.15574788 0.17147987 -0.15128541 -0.012113735
000220 8b 20 b7 3d ed 3f 2a 3e ee 80 e6 bc 19 4c 8e 3d
       0.08941754 0.16625948 -0.02813765 0.06948108
000230 d2 60 3c bd 90 24 cd bd 57 29 99 3c c3 7b 7b 3d
       -0.045990773 -0.10016739 0.01869647 0.061397325
000240 ea bc ef 3d dd 34 ca bd 99 ad 15 3e 33 34 00 be
       0.117059544 -0.09873364 0.14617004 -0.12519912
000250 7f 4e 3c bf 6c ba ed bd 84 b8 d6 bd cf 5b dc 3c
       -0.73557276 -0.11607823 -0.10484412 0.026899246
000260 11 a4 a5 be 1a 57 dd 3d 06 99 16 bb e6 72 f5 3d
       -0.32351735 0.10807629 -0.0022979393 0.11984806
000270 97 c0 ef 3d 09 af 8a 3e 87 8a f4 be 4c 6f 6b bd
       0.117066555 0.27086666 -0.47761938 -0.057479188
000280 90 b9 26 bd df 5c 4b 3d 4b 43 6b 3b 6b de 9c bd
       -0.04070431 0.049649116 0.0035898264 -0.0765961
000290 de 4b 54 be 67 ac d1 bd c0 39 f1 3b e4 eb 19 3e
       -0.20732066 -0.10237961 0.0073616207 0.15031391
0002a0 b2 07 c3 be b3 56 3b bd 18 bb 23 3e 45 0c 24 3e
       -0.3809181 -0.04573698 0.1598934 0.16020305
0002b0 2a 0b fb be 24 a5 5d bd 86 96 8a 3c 7d 81 9d bd
       -0.49031955 -0.05411257 0.016917478 -0.076907136
0002c0 81 f7 8b bf 57 a7 61 be e5 e3 28 be ec 9f 9f bd
       -1.0934907 -0.22036491 -0.16493185 -0.077941746
0002d0 22 19 cf bc 7c 45 84 bf 05 2f 24 bd db 77 87 bc
       -0.025280539 -1.0333705 -0.040083904 -0.016536644
0002e0 74 97 cb 3d bd 2d 94 3d 3d 43 bd be 13 40 15 be
       0.09940997 0.072352864 -0.3696536 -0.14575224
0002f0 f8 43 1a bf 52 78 e6 3d 88 cb 9a 3c 1a 08 be 3d
       -0.6025996 0.11253418 0.01889588 0.09278889
000300 31 1b 00 3d 50 e4 2c bd c0 40 57 3b d0 8d 95 3c
       0.03127593 -0.042209923 0.003284499 0.018256098
000310 28 8d 63 bc 10 5e d1 bd fc 75 2e bd 6c 30 fa 3d
       -0.013888635 -0.10223019 -0.042592987 0.12216267
000320 a0 39 cb bc a4 52 14 3d 24 83 57 3d 75 d2 df bb
       -0.024807751 0.036211625 0.0526153 -0.0068305084
000330 e0 90 47 bd 6b 4f d5 bc 74 b4 ec bd 8a b3 ee bd
       -0.048722148 -0.026038846 -0.11557856 -0.11655338
000340 83 ff 6e 3d aa f8 86 3d a6 56 c8 3d 3a 3b 13 bd
       0.058349144 0.06590398 0.09782152 -0.035945155
000350 e0 c0 fb bc ca bf 09 be 00 d6 92 ba 08 91 ac bd
       -0.030731618 -0.13452068 -0.0011202693 -0.084261
000360 e0 2f 08 be 5e 50 b8 3c 78 a3 34 3d 42 a2 16 be
       -0.13299513 0.02249926 0.04410121 -0.14710334
000370 68 dc bd bd c3 38 e8 bb 10 91 fe bd 68 6b 41 bd
       -0.09270555 -0.0070868446 -0.12430012 -0.04722157
000380 10 19 5d 3c f9 91 8d 3d 4d 1f b8 bd 80 4c 4e bb
       0.013494745 0.06912608 -0.08990345 -0.0031478703
000390 f3 9e 9b 3c 8a 07 a7 bd 0e 8d c7 3d bc a3 f6 bc
       0.018996691 -0.08155735 0.09743701 -0.030107372
0003a0 00 e5 93 bd db 01 90 bd 3e 0d bb bd 57 34 f9 bc
       -0.07221413 -0.07031604 -0.09133385 -0.030420465
0003b0 28 c7 db 3c 1a e3 8b 3d 8f cb e7 bd 33 f6 9e 3c
       0.026828364 0.068304256 -0.113181226 0.019404506
0003c0 a5 69 16 bd ff 15 a5 bc 80 28 09 3d 16 33 ff bd
       -0.036721844 -0.02015209 0.03348589 -0.12460916
0003d0 38 2a dc bc 14 ce 93 3d 77 ad ce bd 2c 9e 37 bd
       -0.0268756 0.07217041 -0.100916795 -0.04482858
0003e0 02 b4 e7 bd bc b4 00 bd 34 92 b7 3d 9d d7 1e be
       -0.11313631 -0.03142236 0.08963433 -0.15511937
0003f0 30 89 83 3d e6 6b 79 bd 6c fc c1 bd da 19 ac bd
       0.06422651 -0.060893916 -0.09471974 -0.08403368

fc2.bias f4 [64]
000000 2d cd 65 3e 4a 80 19 3d d0 8e 84 bd 9e 2f 86 3d
       0.2244155 0.03747586 -0.06472552 0.06552051
000010 a1 66 db bd e5 98 1f 3d 94 68 12 3e 84 e1 fb bd
       -0.10712934 0.03896417 0.14297706 -0.12298873
000020 2f c7 81 3d 9c a4 ad 3d d6 72 d8 3d 2f 7b 12 be
       0.063368194 0.08478662 0.10568778 -0.14304803
000030 9d 75 0f be 68 81 11 3e 60 b7 07 3e 42 ed a2 bd
       -0.1400971 0.14209521 0.13253546 -0.079554096
000040 3a 34 b7 3c 0a 56 4f bc 5f 60 26 3d 65 55 22 3e
       0.02236377 -0.012654791 0.04061925 0.15852888
000050 07 26 35 bd 69 49 e1 bc b0 b5 f4 3c 38 b8 c7 bd
       -0.04422572 -0.027500825 0.029871792 -0.09751934
000060 d8 da 38 be 36 11 f9 bd 6e 39 9a bb 77 fd 1a 3d
       -0.18052232 -0.12161486 -0.004706553 0.03783938
000070 f9 b3 6c be 1b 9b 7b 3d b7 56 a2 bb 44 e6 00 3e
       -0.23115529 0.061427217 -0.004954185 0.1258784
000080 c6 2b 9d bc 97 5f 0d bd b2 95 c5 bd 5d d4 19 3d
       -0.019185912 -0.03451499 -0.09647693 0.03755604
000090 19 09 cb bd 22 b0 92 3d 45 8e 78 3c 8d 03 8e 3d
       -0.099138446 0.07162501 0.015170638 0.06934271
0000a0 3f d0 a8 3c d3 41 74 3e f4 1d 6a 3d ee d7 1e 3e
       0.020607112 0.23853235 0.05715747 0.15512058
0000b0 7b e8 14 be 2c 19 56 3d 6e b9 2d 3e af b4 d4 3d
       -0.1454181 0.0522701 0.16965267 0.10386025
0000c0 f3 6e 02 3d e8 49 8b bd 8f 5a 28 3d 15 33 2a be
       0.03184409 -0.06801206 0.04110199 -0.16621049
0000d0 71 50 d2 bc f3 ce f4 3d 21 45 cc 3d 87 50 9f bd
       -0.025673123 0.11953535 0.09974123 -0.07779031
0000e0 ca 9f 91 3d 9d e3 91 3d 5c 38 f6 bc 6f d4 e9 bd
       0.071105555 0.07123492 -0.030056171 -0.114174716
0000f0 f9 27 87 bd 30 88 cb 3d ce 28 b2 bd 90 a7 9e 3d
       -0.06599421 0.09938085 -0.08699189 0.07746804

fc3.weight f4 [2, 64]
000000 a3 d3 d2 3e df d4 3a 3e a6 d9 1f 3e 90 83 83 3d
       0.4117709 0.18245266 0.1561037 0.06421578
000010 53 6b 35 be 37 54 6e bc 42 4f 4f 3e 35 a6 4f 3d
       -0.17716722 -0.014546446 0.20245078 0.050695617
000020 70 96 a9 be da cf bf be 9f e6 9c 3c 2f d5 60 bd
       -0.33122587 -0.37463266 0.019152937 -0.054890808
000030 6f d4 bc bd f9 74 cc 3d 88 ca ef 3d 71 f6 d3 bd
       -0.09220206 0.09983248 0.11708552 -0.10349739
000040 da a8 b2 3d 2b 9a 88 3d c0 f7 8b bc cd 88 c5 3d
       0.08723612 0.0667003 -0.01708591 0.09645233
000050 d1 9c dd ba 5e 90 90 bd d5 b4 98 bd f3 5e 2f 3c
       -0.0016907697 -0.07058786 -0.07456366 0.01070379
000060 b0 45 72 3e 00 33 75 3c 0a 51 97 3d 8f a2 a6 3c
       0.23659396 0.014965773 0.07388504 0.020341186
000070 04 19 20 bc 54 93 10 3c 30 b8 97 3d 4e c7 1d 3e
       -0.009771589 0.008824188 0.07408178 0.1540806
000080 fd cd c0 3d e5 3b dd 3c ac 10 fd 3d 02 de 0f 3e
       0.09414289 0.027006099 0.123566955 0.14049533
000090 c8 05 69 3e 4c f1 5c 3b 8e 41 b8 bc 15 04 14 3e
       0.22756112 0.003371316 -0.022492196 0.14454682
0000a0 93 ae ce 3d 76 45 39 3e f8 54 b0 bd 9b d3 62 3c
       0.10091891 0.18092903 -0.086099565 0.013844396
0000b0 29 8e 69 bd 0c ab 01 3d d4 d8 59 3e c5 44 7b be
       -0.05702034 0.031657264 0.2127412 -0.24537952
0000c0 11 94 2e 3e 2a 1d ae 3d b6 05 bd 3d 83 b9 6b be
       0.1704867 0.08501656 0.09229605 -0.23019986
0000d0 02 b3 00 3e 47 55 cf be be 82 1c 3b 77 c7 da bc
       0.12568286 -0.4049475 0.002388164 -0.02670644
0000e0 7c 29 4e bd 51 c7 3b be 01 4e de be fe e0 f7 bd
       -0.05033253 -0.18337752 -0.43418887 -0.12103461
0000f0 0c ac 3e 3d 5a cd 59 3e 10 ac f9 bd d6 93 83 3d
       0.046550795 0.21269742 -0.121910214 0.06424682
000100 18 5e fa be 17 b0 1c 3e f1 b3 5c 3e 6c fa b4 bd
       -0.48899913 0.15301548 0.21553017 -0.08836827
000110 c4 d8 96 be 0c 99 77 bd 60 47 83 be 60 8f 7c 3d
       -0.29462254 -0.06044869 -0.25640392 0.06166017
000120 24 61 b8 be eb d2 c8 be 62 f7 c3 3d 3e 5f 22 bd
       -0.36011612 -0.39223418 0.09568669 -0.03964161
000130 df e8 d8 bd 5c 8a cd 3d f6 5f 99 3d 4c 60 dd 3d
       -0.10591292 0.100361556 0.07489006 0.10809383
000140 a8 17 bf 3e e2 37 6a 3d 18 f3 ae bd 61 02 a1 3d
       0.37322736 0.0571822 -0.0854246 0.07861782
000150 2d 9e c2 3d 4d fa 9b bd 38 dc 2b 3d 17 ac 8d bd
       0.09502826 -0.076161005 0.041958064 -0.06917589
000160 45 ff 46 3e e8 29 54 bd 70 a5 69 3d a0 08 97 bd
       0.19433315 -0.051797777 0.05704254 -0.07374692
000170 85 87 99 3e 39 04 9f bc cd 0b a3 3d c3 10 01 3e
       0.29986206 -0.019411193 0.07961235 0.1260405
000180 48 d3 fb 3d f2 49 80 bd 6c 21 24 3d 5f 5a fa 3d
       0.12296158 -0.06264104 0.040070936 0.12224268
000190 97 97 69 3e a2 d9 46 bd 15 26 c4 bc 54 d9 f6 3d
       0.22811733 -0.048547395 -0.02394394 0.12053171
0001a0 93 f7 16 3e 1d 86 24 3e 80 73 03 3d 70 1b 9e 3f
       0.1474288 0.16066785 0.03209257 1.2352123
0001b0 8b 70 9d 3d d5 0a ba bc e8 4f 44 3e 41 6b 85 be
       0.076874815 -0.022710243 0.19171107 -0.2605839
0001c0 9a a0 2f 3e e8 aa 44 bd 63 2a b2 bd da c2 92 be
       0.17151108 -0.04801455 -0.08699491 -0.28664285
0001d0 ce 57 18 3e 59 5e e7 be 5f 3a 93 bc 91 06 9a 3d
       0.14877245 -0.4518917 -0.01797217 0.07520784
0001e0 4e 64 cc bd 4c 17 3f be 49 40 c7 be 4e a1 ab bc
       -0.09980069 -0.18661231 -0.38916233 -0.02095094
0001f0 4f 9a 4c bd 2e fd 5a 3e 1b 26 c2 3b 1e df 14 bd
       -0.049951848 0.21385643 0.0059249527 -0.036345594

fc3.bias f4 [2]
000000 63 35 09 3d 8d 77 ca 3d
       0.03349818 0.09886084
