checkpoint_model_episode_700.pth (torch, 21402 bytes, 6 tensors)

fc1.weight f4 [64, 4]
000000 54 9f ec 3e e3 88 d6 3e 63 65 35 bf 19 3e be 3e
       0.46215308 0.4190131 -0.7085783 0.37156752
000010 a6 a4 05 3f 05 5e 67 bc 9c 1b 72 bd 3c dc ac bd
       0.5220436 -0.014121537 -0.05910836 -0.08440444
000020 dd d8 f2 be cf bd bc 3e 13 19 1c be 0b a9 e0 3d
       -0.4743108 0.36863562 -0.1524394 0.109697424
000030 55 10 ca 3d ef 00 4e 3c e6 0f 54 3e 10 68 d3 be
       0.09866396 0.012573465 0.2070919 -0.4129033
000040 78 94 98 3e 49 7a f8 be 09 35 8f 3e ec 6f 99 bd
       0.29800773 -0.48530796 0.2797015 -0.074920505
000050 8d 7a e7 be 62 94 3f bf 3d a7 a4 bd 4c dd 92 3e
       -0.45210686 -0.7483579 -0.08039711 0.2868446
000060 85 05 ee be a0 f5 61 be 47 f7 f3 be 46 d1 c6 be
       -0.46488586 -0.22066355 -0.47649595 -0.38831538
000070 00 b5 e2 bd 70 8c f4 3d c0 29 87 be 00 3d 3d 3b
       -0.11069679 0.11940849 -0.2639904 0.002887547
000080 c9 93 58 3e 04 55 1e be 7c 6d b4 3e b7 7f 08 be
       0.21150126 -0.15462118 0.3523978 -0.1332997
000090 5c 8f 89 be 0e 5b fe bf cb 98 ac 3e c5 1a 37 bd
       -0.26867187 -1.9871538 0.33710322 -0.044703264
0000a0 cb e0 3d be 12 ff 11 3f 64 51 4c 3e f3 c1 82 3e
       -0.18542783 0.5702983 0.19952923 0.25538597
0000b0 05 25 e0 3e c1 95 13 bf ca b5 05 bf 12 09 a3 3e
       0.43778244 -0.5765038 -0.52230513 0.31842858
0000c0 8a c4 09 bf 79 ba 47 3d fd ab 0d bd 5d 01 de 3d
       -0.5381552 0.04876182 -0.03458785 0.10840104
0000d0 cc 07 ba 3e 64 4c b4 bf d9 dd f5 be 2a 42 a5 3d
       0.36334074 -1.4085813 -0.4802082 0.080692604
0000e0 99 58 5a be 83 e2 0a bd df a3 4a bf db e2 46 3e
       -0.2132286 -0.033907425 -0.791563 0.19422476
0000f0 8c 8d 19 bf ae aa fa be c0 e2 53 be f9 78 6f 3e
       -0.5998161 -0.48958343 -0.20691967 0.23385991
000100 58 d6 d4 3e 61 7c 12 3e 18 a2 23 bd 79 db 61 3d
       0.4156978 0.1430526 -0.039949507 0.055140946
000110 da b2 78 be 55 3a af 3e bb c8 8b be c1 22 4a be
       -0.24286976 0.3422419 -0.27301583 -0.1973982
000120 5d f1 36 3d 37 18 af 3d ca e7 f2 3e 8b 6e 70 be
       0.044663776 0.085495405 0.47442466 -0.23479669
000130 7d 35 ef 3d 4d 20 a9 3e 83 70 64 bf 76 6e db 3e
       0.11680124 0.33032456 -0.8923418 0.42857713
000140 7b 3b e6 3e 18 80 25 bf 7f ed fd bf 29 8a 86 bd
       0.44967255 -0.6464858 -1.9838103 -0.06569321
000150 6b ca 25 be 07 1a 1a 3e e1 f9 63 3d a2 4b d1 3e
       -0.16190498 0.15048991 0.055658225 0.40878016
000160 68 ff 95 be 84 99 54 be d0 67 75 be 80 1b 88 bc
       -0.29296422 -0.20761687 -0.23965383 -0.016614676
000170 38 01 db bd 24 9f 94 be 19 f2 88 3d 93 c9 63 bd
       -0.10693592 -0.29027665 0.066868015 -0.055612158
000180 d0 55 de 3e b8 d9 1b be 62 11 88 3c 7b ab 83 bb
       0.43424845 -0.15219772 0.016609851 -0.004018245
000190 48 59 9b 3e 0a ad 95 3e 87 36 30 3d a7 7d 61 be
       0.30341554 0.2923358 0.04302075 -0.22020589
0001a0 43 7e 04 3c d7 e1 00 3f 63 e2 21 be 3d 24 ff bd
       0.008086744 0.50344604 -0.15809016 -0.12458084
0001b0 41 33 52 3e d2 9d c2 3e 81 e4 93 bb b1 e6 a5 bd
       0.20527364 0.38011032 -0.004513324 -0.081006415
0001c0 e0 0b 16 3e b3 54 98 be 9a 59 da 3e dd 3b 0e be
       0.14652967 -0.2975212 0.42646486 -0.13890024
0001d0 09 28 15 3e e9 26 c1 3c aa cd ee bf ab 38 d5 3e
       0.14566053 0.023578124 -1.8656514 0.41644797
0001e0 e8 37 e0 3e 64 99 62 3e 8a 97 e1 bf 6c 4a cc 3e
       0.43792653 0.22128826 -1.7624371 0.3990053
0001f0 c1 18 9d be 6e ca f5 3d 3d 47 60 3f ce ca 5f be
       -0.30682948 0.12001501 0.876087 -0.21854708
000200 5a 3f 80 be 12 9b 22 3f c1 fb 9c 3e f3 49 60 be
       -0.25048333 0.6351787 0.30660823 -0.2190321
000210 86 41 9f 3e 45 87 5f be 31 0b ba be da 60 8a 3e
       0.31104678 -0.21828945 -0.36336663 0.27027017
000220 be 1a bd 3e 0c 3f dc be 32 52 be bf 44 b6 82 3e
       0.36934465 -0.4301685 -1.4868834 0.25529683
000230 51 3a 9d be 9d e1 78 3e cf b5 43 be 0b 9a 80 3d
       -0.30708554 0.24304815 -0.19112323 0.06279381
000240 71 fc 00 3f b8 a0 15 3f 0b 0a 76 be 85 b0 ca bd
       0.50385195 0.5844836 -0.24027269 -0.0989695
000250 ee f9 3b 3e 43 93 fe bb 33 09 00 3e 16 44 92 bc
       0.1835706 -0.00776902 0.12503509 -0.017854732
000260 28 b5 1d be a0 a6 03 3e e0 c9 f0 be d0 9b 17 bd
       -0.15401137 0.12856531 -0.47029018 -0.03701383
000270 50 3e 58 3e 16 a1 0f bb bf 99 ab bf 7f 34 a6 3e
       0.2111752 -0.0021916083 -1.3406295 0.32461926
000280 42 e2 8f be ff e8 96 3e d6 e4 c4 3e 35 ed 93 be
       -0.2810231 0.29474637 0.38455838 -0.28891912
000290 b6 f4 89 3e c4 b5 bf 3e 7d 23 b7 be 2b 2d 86 3e
       0.26944512 0.37443364 -0.35769263 0.26206335
0002a0 a0 a0 a3 3d ae fd a0 be 11 53 cc 3e 16 66 44 be
       0.07989621 -0.31443542 0.39907125 -0.19179568
0002b0 2b d7 9c 3d 7e 4a 10 3e fe d5 5e 3e b0 e2 01 be
       0.076582275 0.14090917 0.21761319 -0.1268413
0002c0 9f 0c 67 3e 67 0d b9 3d 1f c3 83 bc bb 0e 6d be
       0.22563408 0.090357594 -0.016084252 -0.2315015
0002d0 20 2a f8 be fa 83 8b 3e 78 5f 18 be 10 42 82 bd
       -0.4846964 0.27249128 -0.14880168 -0.06360257
0002e0 f8 4f 84 3e 5c 05 9b 3e 9a 73 86 be 73 cd 0b 3e
       0.2584226 0.30277526 -0.26260072 0.13652591
0002f0 d0 63 29 3d 29 90 e3 3e 4b 33 64 bf 9d 0b 9c 3e
       0.041354954 0.44445923 -0.89140767 0.3047761
000300 61 80 d2 3e 64 78 50 be 17 e3 11 be 12 f0 d2 3d
       0.4111357 -0.20358425 -0.14246784 0.10299696
000310 ee 08 57 3e e6 47 5d be e6 25 9a be b9 e3 51 3e
       0.209995 -0.21609458 -0.3010704 0.20497026
000320 28 73 40 be 2d 09 90 bf 97 09 3d 3e 4d 56 b0 3e
       -0.18793929 -1.12528 0.1846069 0.34440842
000330 b0 81 c7 be 00 e3 81 3c e2 a2 df be fc 17 5e be
       -0.3896613 0.015855312 -0.43678957 -0.21688837
000340 fe 77 ed bc b9 30 0d 3f 56 02 83 3d 17 26 a6 be
       -0.02898788 0.5515247 0.0639693 -0.32450935
000350 ab 9a f2 3e 14 00 7d 3e e8 4e 15 bf ad 68 7d bd
       0.47383627 0.24707061 -0.58323526 -0.061867405
000360 3a c5 4a 3e f5 ee 87 3e c0 9b a6 3e bb e0 c2 3c
       0.19801798 0.26549497 0.32540703 0.0237888
000370 3c d9 0b bf 90 cf 06 bf ee e5 91 be c6 3e c6 be
       -0.5462835 -0.52660465 -0.28495735 -0.38719767
000380 52 00 2a 3e c5 d4 b5 bc ad 24 0f 3f 76 dd f3 bd
       0.16601685 -0.022196183 0.5591534 -0.11907475
000390 60 3b 16 3e 32 8c 69 bf 23 e6 24 c0 de 10 43 3e
       0.14671087 -0.91229546 -2.5765464 0.19049403
0003a0 12 fa f5 3d 18 a0 28 3d 8a 00 9f be fc a9 7c 3e
       0.12010588 0.041168302 -0.310551 0.24674219
0003b0 6d a6 3c be 45 1a e2 3e 1c e9 09 3e 72 dd 8f bd
       -0.18422861 0.44160667 0.1346783 -0.07024659
0003c0 a9 f9 85 bf f0 9d 45 be f7 50 1d 3e bb 08 e5 3d
       -1.0466815 -0.1929853 0.15362917 0.11183306
0003d0 6c b1 75 3e 77 27 d6 3e 94 ce 7a 3d 2f dd ee bd
       0.23993462 0.41826984 0.061232165 -0.11663281
0003e0 53 6a 97 be 91 b3 5f bf cc 54 cd be ef 3b 88 3e
       -0.29573306 -0.8738337 -0.40103757 0.26608226
0003f0 fa 56 be be 89 8b 02 3f ba 9d 04 3f 3d 97 17 bf
       -0.37175733 0.50994164 0.5180317 -0.59215146

fc1.bias f4 [64]
000000 7d da a2 bd 6a 77 27 3e fd d1 cf bd 24 7c 5e 3e
       -0.079518296 0.16354147 -0.10147474 0.21727043
000010 0c c2 88 be 36 45 b9 be 43 be 34 be 30 d6 50 3d
       -0.26710546 -0.36185616 -0.17650704 0.050985515
000020 f0 7f 25 bd 2b 4e 2f be 3f 51 c0 be c7 a8 bd be
       -0.040405214 -0.17119662 -0.37561986 -0.3704283
000030 24 18 03 bf 85 b6 44 bc c4 88 8c be 63 b2 98 be
       -0.5120871 -0.012006407 -0.27448094 -0.29823598
000040 ae 9a 4a 3e 6c 42 ea be 17 b3 b6 3e 62 5a c3 3d
       0.19785568 -0.457538 0.3568351 0.095387235
000050 5f 01 87 be c9 9a b4 3d 08 5b bc bd 74 25 ad be
       -0.26368234 0.088185854 -0.0919705 -0.33817637
000060 9b e1 9c be 8f 00 94 bd 33 01 a6 3e bf 61 5e 3e
       -0.30640873 -0.07226669 0.3242279 0.21716975
000070 4d 4f bf 3e 26 05 df 3e a1 e7 4b be 96 ce 12 3f
       0.3736519 0.43558615 -0.19912578 0.57346475
000080 2e 94 3b 3e af 12 17 be b4 22 bd be 21 5d c1 3e
       0.18318245 -0.14753221 -0.3694054 0.37766364
000090 68 30 90 3d 15 64 0f bf 2c e5 fe be 9d 32 cc bd
       0.07040483 -0.5601209 -0.4978422 -0.09970591
0000a0 d7 db 94 be 6e d4 91 be 33 f8 d3 3e 14 6c ab 3e
       -0.29073974 -0.28482383 0.41400298 0.33480895
0000b0 2c 28 f3 3e e0 c7 a8 bc 87 d4 1e be b9 16 bc bd
       0.47491586 -0.02060312 -0.1551076 -0.091840215
0000c0 c2 37 03 bf 1c 8e af 3c 0c 02 1d 3d ac 9b 6e 3e
       -0.51256955 0.021430068 0.03833203 0.23301572
0000d0 64 7c 90 3e 56 ea b7 be db a9 81 be 9b 3e 48 be
       0.28219903 -0.35920972 -0.25324902 -0.19555132
0000e0 8e d5 51 be 65 55 48 3e 94 cd 61 3e 5a 83 9a 3e
       -0.20491621 0.19563825 0.22051078 0.30178338
0000f0 c5 cc 4d bf 47 5d ea be 7e 48 75 3d 93 ba 16 3e
       -0.8039058 -0.4577429 0.059883587 0.1471961

fc2.weight f4 [64, 64]
000000 85 b6 9e 3e 59 f7 32 3e 78 1f 9b be 29 89 80 be
       0.30998626 0.17477168 -0.30297446 -0.25104645
000010 40 b9 27 3e e8 c3 db bd 5e ed d9 bd 00 5f c3 3c
       0.16379261 -0.107307255 -0.10640977 0.02384901
000020 78 32 ad 3e ea 3b 83 bf 59 6d 3a bf 02 ba 8f 3e
       0.33827567 -1.0252659 -0.728231 0.280716
000030 5c f1 0c bd da 6c 81 bd 20 ad 1c 3e 0a c0 cc bd
       -0.034409866 -0.0631959 0.15300417 -0.09997566
000040 de cc 84 3d 80 71 97 3c 91 53 66 bd 96 ec fa be
       0.06484388 0.018486738 -0.05623204 -0.49008626
000050 fb 0c ba bf 48 37 33 be 68 40 cd bc 00 ef 36 3c
       -1.4535211 -0.17501557 -0.025055125 0.0111653805
000060 6e 50 26 3e 7b 81 01 bd 2d 50 54 be 15 8c 09 3e
       0.16241619 -0.031617623 -0.2073371 0.13432343
000070 bb 18 7b 3e c4 2b c5 bd ce 4f 6c be 09 d2 b8 bc
       0.24521153 -0.09627488 -0.23077318 -0.02256109
000080 8c 7b a9 bf 54 40 53 be 43 bd bb bc f1 d0 e0 3d
       -1.3240829 -0.20630008 -0.022917395 0.109773524
000090 d2 a7 69 bd cd b4 80 3d e2 19 ff bd f4 2f 7d 3c
       -0.05704481 0.06284485 -0.12456109 0.015453327
0000a0 e7 67 c0 3e 47 97 86 bd 04 e7 32 3e d9 8f 9b 3d
       0.3757927 -0.065718226 0.17470938 0.07595796
0000b0 27 2a 03 be 1e f5 e8 3d 47 25 39 bd 68 cb 1c bc
       -0.12809049 0.113748774 -0.045201566 -0.00956998
0000c0 82 c8 79 3e 8e 20 1c be 2a 39 23 3e 1c 4d 22 3d
       0.24392894 -0.15246794 0.15939775 0.03962432
0000d0 56 b6 84 bf ea f4 21 3e 93 1c 0c bd 40 0b a2 3d
       -1.0368145 0.15816084 -0.034206938 0.07912302
0000e0 28 57 4c 3e 9a 06 4b 3d 65 f5 39 be 58 32 ec bc
       0.19955122 0.049566843 -0.18160017 -0.0288326
0000f0 bc 5d 5d be c2 ec fe 3d c9 2c 92 bc 32 7f c7 3e
       -0.21617788 0.12447502 -0.01784362 0.3896423
000100 b9 79 14 bf 9b 28 61 3e 4b 1c b1 3d df 44 10 3e
       -0.57998234 0.21988146 0.086479746 0.14088772
000110 23 77 98 bc 14 8c 24 3d 68 8d b9 bd c0 32 b4 3c
       -0.018611496 0.04017265 -0.09060174 0.021996856
000120 29 e5 42 bd b6 ff 82 3e e2 8f 5e 3c 1f 13 4d bf
       -0.047581825 0.25585717 0.013584109 -0.801073
000130 e1 c4 39 bd b7 2a 5f 3e 19 fb 40 3c dd bd 75 bc
       -0.045353774 0.21793638 0.011778616 -0.01499888
000140 a5 f9 8d 3d 27 7b 9a bd e4 80 bb 3d 94 89 46 bd
       0.069323815 -0.07543021 0.09155443 -0.04847105
000150 18 17 49 bf b9 c1 ec bc 60 b4 59 3c a7 36 4e bc
       -0.78550863 -0.028900968 0.013287634 -0.012586272
000160 44 b0 64 bf 7a 42 21 3e 7b 6a 71 3b 04 3c 37 bd
       -0.8933146 0.15748015 0.003683715 -0.04473497
000170 07 a6 0e 3d d7 c0 a0 be 8f f6 81 be d8 eb 06 3c
       0.034826305 -0.31397125 -0.25383422 0.0082349405
000180 66 94 82 bd 1f dd 02 3f d3 e4 0c be e5 75 85 bc
       -0.06375961 0.51118654 -0.13759165 -0.016291568
000190 01 d5 68 3c a1 17 00 3e fc a3 6e bd 2f 4a c5 be
       0.01421094 0.12509014 -0.058261856 -0.3853316
0001a0 7b 77 dc be 6f d3 67 3e 9e 66 04 be 79 f0 1d 3d
       -0.43059906 0.2263925 -0.1292977 0.03855941
0001b0 bd 13 31 3d 80 76 d2 3a d9 d1 a6 3e f2 53 8e 3e
       0.043231715 0.0016057044 0.32581976 0.2779842
0001c0 38 d2 86 bf 1f b6 0e be 62 ed f4 3d 00 dd e1 3d
       -1.0532904 -0.13936661 0.1195934 0.110284805
0001d0 5f 27 aa 3e 09 b7 56 3e b5 54 bb 3d 71 f7 c9 3d
       0.33233163 0.2096826 0.09147016 0.09861649
0001e0 27 e2 a8 3d 42 32 a1 3d a6 69 a6 3e 81 5e 8d bd
       0.0824626 0.07870914 0.32502478 -0.06902791
0001f0 95 c4 a5 be a6 fb 74 bd 69 b5 37 bb 34 de 5b 3d
       -0.32376543 -0.059810303 -0.0028031713 0.053678706
000200 d0 73 78 bf da 75 ff be 5f 35 0e be a4 85 24 3e
       -0.97051716 -0.498946 -0.13887547 0.16066605
000210 38 3d 15 3e 6b 98 2f 3e 90 ea 1a be b0 78 46 bc
       0.14574134 0.17147987 -0.15128541 -0.012113735
000220 83 a9 a8 3d f7 53 36 3e 01 d9 ce bc 19 4c 8e 3d
       0.08235457 0.17805468 -0.02524996 0.06948108
000230 d2 60 3c bd 90 24 cd bd 57 29 99 3c c3 7b 7b 3d
       -0.045990773 -0.10016739 0.01869647 0.061397325
000240 2e dc b0 3d dd 34 ca bd a6 06 0e 3e 33 34 00 be
       0.08635746 -0.09873364 0.13869724 -0.12519912
000250 7f 4e 3c bf 33 e2 e4 bd 84 b8 d6 bd cf 5b dc 3c
       -0.73557276 -0.111759566 -0.10484412 0.026899246
000260 15 55 b8 be 6a 67 c1 3d 80 af 80 3c 5a 48 db 3d
       -0.36002412 0.09443553 0.015708685 0.10707159
000270 86 cb de 3d 09 af 8a 3e 87 8a f4 be 58 bf 7a bd
       0.10878663 0.27086666 -0.47761938 -0.061217636
000280 8b e4 2f bd df 5c 4b 3d 4b 43 6b 3b 6b de 9c bd
       -0.042942565 0.049649116 0.0035898264 -0.0765961
000290 e4 69 4d be 37 b3 cf bd c0 39 f1 3b e4 eb 19 3e
       -0.20059925 -0.101416044 0.0073616207 0.15031391
0002a0 2b 36 bd be 88 bc 03 3a 04 54 1e 3e 34 fe 1b 3e
       -0.3695539 0.0005025347 0.15461737 0.1523369
0002b0 3e 89 04 bf 24 a5 5d bd 9d 20 75 3d 7d 81 9d bd
       -0.51771915 -0.05411257 0.059845556 -0.076907136
0002c0 e2 e3 ba be 57 a7 61 be 56 52 0e be ec 9f 9f bd
       -0.36501986 -0.22036491 -0.13898596 -0.077941746
0002d0 6d 58 16 bd 7c 45 84 bf 32 16 43 bd db 77 87 bc
       -0.036705423 -1.0333705 -0.04762859 -0.016536644
0002e0 4c 5f c1 3d bd 2d 94 3d dc 19 7f be 46 2d 1d be
       0.094420046 0.072352864 -0.24912208 -0.15349302
0002f0 f8 43 1a bf 61 2f e7 3d 88 cb 9a 3c 33 e1 c2 3d
       -0.6025996 0.11288334 0.01889588 0.095156096
000300 31 1b 00 3d 50 e4 2c bd c0 40 57 3b d0 8d 95 3c
       0.03127593 -0.042209923 0.003284499 0.018256098
000310 28 8d 63 bc 10 5e d1 bd fc 75 2e bd 6c 30 fa 3d
       -0.013888635 -0.10223019 -0.042592987 0.12216267
000320 a0 39 cb bc a4 52 14 3d 24 83 57 3d 75 d2 df bb
       -0.024807751 0.036211625 0.0526153 -0.0068305084
000330 e0 90 47 bd 6b 4f d5 bc 74 b4 ec bd 8a b3 ee bd
       -0.048722148 -0.026038846 -0.11557856 -0.11655338
000340 83 ff 6e 3d aa f8 86 3d a6 56 c8 3d 3a 3b 13 bd
       0.058349144 0.06590398 0.09782152 -0.035945155
000350 e0 c0 fb bc ca bf 09 be 00 d6 92 ba 08 91 ac bd
       -0.030731618 -0.13452068 -0.0011202693 -0.084261
000360 e0 2f 08 be 5e 50 b8 3c 78 a3 34 3d 42 a2 16 be
       -0.13299513 0.02249926 0.04410121 -0.14710334
000370 68 dc bd bd c3 38 e8 bb 10 91 fe bd 68 6b 41 bd
       -0.09270555 -0.0070868446 -0.12430012 -0.04722157
000380 10 19 5d 3c f9 91 8d 3d 4d 1f b8 bd 80 4c 4e bb
       0.013494745 0.06912608 -0.08990345 -0.0031478703
000390 f3 9e 9b 3c 8a 07 a7 bd 0e 8d c7 3d bc a3 f6 bc
       0.018996691 -0.08155735 0.09743701 -0.030107372
0003a0 00 e5 93 bd db 01 90 bd 3e 0d bb bd 57 34 f9 bc
       -0.07221413 -0.07031604 -0.09133385 -0.030420465
0003b0 28 c7 db 3c 1a e3 8b 3d 8f cb e7 bd 33 f6 9e 3c
       0.026828364 0.068304256 -0.113181226 0.019404506
0003c0 a5 69 16 bd ff 15 a5 bc 80 28 09 3d 16 33 ff bd
       -0.036721844 -0.02015209 0.03348589 -0.12460916
0003d0 38 2a dc bc 14 ce 93 3d 77 ad ce bd 2c 9e 37 bd
       -0.0268756 0.07217041 -0.100916795 -0.04482858
0003e0 02 b4 e7 bd bc b4 00 bd 34 92 b7 3d 9d d7 1e be
       -0.11313631 -0.03142236 0.08963433 -0.15511937
0003f0 30 89 83 3d e6 6b 79 bd 6c fc c1 bd da 19 ac bd
       0.06422651 -0.060893916 -0.09471974 -0.08403368

fc2.bias f4 [64]
000000 40 72 5a 3e 1c 3f 3a 3d 84 c2 9d bd 9e 2f 86 3d
       0.21332645 0.045470342 -0.077031165 0.06552051
000010 a1 66 db bd 75 fa 8d 3d 36 bb 19 3e 84 e1 fb bd
       -0.10712934 0.069325365 0.15012822 -0.12298873
000020 ff 5f 8a 3d 4f 90 b2 3d d6 72 d8 3d 2f 7b 12 be
       0.06756591 0.08718931 0.10568778 -0.14304803
000030 62 63 14 be f4 28 25 3e 71 52 fb 3d 42 ed a2 bd
       -0.14491037 0.16128904 0.12271584 -0.079554096
000040 3a 34 b7 3c 77 e5 14 bc 5f 60 26 3d 88 43 1c 3e
       0.02236377 -0.009087912 0.04061925 0.15260136
000050 07 26 35 bd 12 a9 a0 bc b0 b5 f4 3c 38 b8 c7 bd
       -0.04422572 -0.019611869 0.029871792 -0.09751934
000060 d8 da 38 be 36 11 f9 bd d8 55 d8 3c 77 fd 1a 3d
       -0.18052232 -0.12161486 0.026408121 0.03783938
000070 f9 b3 6c be 1b 9b 7b 3d b7 56 a2 bb 7d 52 de 3d
       -0.23115529 0.061427217 -0.004954185 0.10855577
000080 e2 10 ef 3b d4 bd 1e bc b2 95 c5 bd 3d c0 fc 3c
       0.0072957138 -0.009688813 -0.09647693 0.030853385
000090 2a f7 c9 bd 22 b0 92 3d cd bc e0 3b ea a4 89 3d
       -0.09861596 0.07162501 0.0068584443 0.06720908
0000a0 38 af ad 3b 8f 88 6f 3e f4 1d 6a 3d c0 61 20 3e
       0.0053004287 0.23391937 0.05715747 0.15662289
0000b0 7b e8 14 be 2c 19 56 3d 95 24 1d 3e dc 1c dc 3d
       -0.1454181 0.0522701 0.15345986 0.10747692
0000c0 c6 11 18 3d e8 49 8b bd 8f 5a 28 3d 25 45 18 be
       0.037126325 -0.06801206 0.04110199 -0.14870127
0000d0 44 61 80 bc 72 68 e3 3d 21 45 cc 3d 87 50 9f bd
       -0.01567138 0.11103906 0.09974123 -0.07779031
0000e0 ca 9f 91 3d 15 ee 8f 3d c5 aa 06 bd 6f d4 e9 bd
       0.071105555 0.070278324 -0.032877702 -0.114174716
0000f0 f9 27 87 bd a2 25 b1 3d ce 28 b2 bd 90 a7 9e 3d
       -0.06599421 0.08649756 -0.08699189 0.07746804

fc3.weight f4 [2, 64]
000000 6c eb ca 3e 89 d0 03 3e 2e 1c 4a 3e 90 83 83 3d
       0.39632738 0.12872519 0.19737312 0.06421578
000010 53 6b 35 be 37 54 6e bc 7b 3d 47 3e 35 a6 4f 3d
       -0.17716722 -0.014546446 0.19457047 0.050695617
000020 b2 c2 b1 be b2 f3 b9 be 9f e6 9c 3c 2f d5 60 bd
       -0.34718853 -0.36318737 0.019152937 -0.054890808
000030 80 ce 8f bd 77 4a 70 3d 90 9b f8 3d 71 f6 d3 bd
       -0.070218086 0.058664765 0.12139046 -0.10349739
000040 da a8 b2 3d 2b ab c8 3d c0 f7 8b bc 25 d6 c0 3d
       0.08723612 0.09798273 -0.01708591 0.09415845
000050 d1 9c dd ba 3b 33 4b bd d5 b4 98 bd f3 5e 2f 3c
       -0.0016907697 -0.049609404 -0.07456366 0.01070379
000060 b0 45 72 3e 00 33 75 3c 0e e9 a1 3d 8f a2 a6 3c
       0.23659396 0.014965773 0.0790578 0.020341186
000070 04 19 20 bc 54 93 10 3c 30 b8 97 3d 93 d0 20 3e
       -0.009771589 0.008824188 0.07408178 0.15704565
000080 d0 41 f4 3d cf 3e 6f 3d ac 10 fd 3d 75 3b 2f 3e
       0.11926615 0.05840951 0.123566955 0.17112525
000090 d9 0b 17 3e 4c f1 5c 3b 60 b7 78 3c 71 c0 f5 3d
       0.14750613 0.003371316 0.015180439 0.11999596
0000a0 e6 b3 a9 3d 08 09 33 3e f8 54 b0 bd 18 f5 05 bd
       0.08286266 0.17483914 -0.086099565 -0.032704443
0000b0 29 8e 69 bd 0c ab 01 3d 0f f7 68 3e 6c 66 80 be
       -0.05702034 0.031657264 0.22750495 -0.25078142
0000c0 44 1c 22 3e 2a 1d ae 3d b6 05 bd 3d d0 ee 4f bd
       0.15831095 0.08501656 0.09229605 -0.05076486
0000d0 95 b8 3b 3e 43 ae a1 be be 82 1c 3b 77 c7 da bc
       0.18332131 -0.31578264 0.002388164 -0.02670644
0000e0 7c 29 4e bd 6b 17 1e be 1a 07 e4 be fe e0 f7 bd
       -0.05033253 -0.15438621 -0.44536668 -0.12103461
0000f0 0c ac 3e 3d 39 24 61 3e 10 ac f9 bd d6 93 83 3d
       0.046550795 0.21986474 -0.121910214 0.06424682
000100 70 9a 05 bf 62 4d de 3d 44 56 6c 3e 6c fa b4 bd
       -0.5218878 0.10854603 0.23079783 -0.08836827
000110 c4 d8 96 be a1 ca 7c bd 4e 99 9c be 60 8f 7c 3d
       -0.29462254 -0.06171668 -0.30585712 0.06166017
000120 99 77 b8 be d6 c9 c6 be 62 f7 c3 3d 3e 5f 22 bd
       -0.36028746 -0.38825864 0.09568669 -0.03964161
000130 71 32 ea bd 10 6e 95 3d 07 ef 58 3d 4c 60 dd 3d
       -0.11435402 0.072963834 0.05296233 0.10809383
000140 a8 17 bf 3e 5f 82 cb 3d 18 f3 ae bd 4f 9b c1 3d
       0.37322736 0.09936976 -0.0854246 0.09453451
000150 2d 9e c2 3d b3 b8 5c bc 38 dc 2b 3d 17 ac 8d bd
       0.09502826 -0.01347177 0.041958064 -0.06917589
000160 45 ff 46 3e e8 29 54 bd 70 a5 69 3d a0 08 97 bd
       0.19433315 -0.051797777 0.05704254 -0.07374692
000170 85 87 99 3e 39 04 9f bc cd 0b a3 3d e8 20 28 3e
       0.29986206 -0.019411193 0.07961235 0.16418803
000180 6c 45 1e 3e f2 d1 bc bd 6c 21 24 3d 05 95 0b 3e
       0.1545617 -0.092197314 0.040070936 0.13631065
000190 22 f6 37 3e a2 d9 46 bd 28 f2 18 3b 1b e9 fa 3d
       0.17964986 -0.048547395 0.0023337696 0.122514926
0001a0 f3 ae 08 3e 85 d5 1e 3e 80 73 03 3d 06 a8 9b 3f
       0.13347988 0.15511139 0.03209257 1.2160652
0001b0 8b 70 9d 3d d5 0a ba bc 1b b5 44 3e 6a b8 ae be
       0.076874815 -0.022710243 0.19209711 -0.34125072
0001c0 90 3f 41 3e e8 aa 44 bd 63 2a b2 bd 69 7e bb bd
       0.18871903 -0.04801455 -0.08699491 -0.0915497
0001d0 62 fc 21 3e 13 dd 9f be 5f 3a 93 bc 91 06 9a 3d
       0.15818933 -0.31223354 -0.01797217 0.07520784
0001e0 4e 64 cc bd 5f 4c 28 be 4a 79 d7 be 4e a1 ab bc
       -0.09980069 -0.16435383 -0.42084724 -0.02095094
0001f0 4f 9a 4c bd f5 db 4c 3e 1b 26 c2 3b 1e df 14 bd
       -0.049951848 0.20005782 0.0059249527 -0.036345594

fc3.bias f4 [2]
000000 ad 57 23 3d 41 34 da 3d
       0.039878536 0.10654498
