checkpoint_model_episode_900.pth (torch, 21402 bytes, 6 tensors)

fc1.weight f4 [64, 4]
000000 62 81 e5 3e 10 c8 d0 3d 26 c4 31 bf 14 0a c6 3e
       0.44825274 0.10194409 -0.69439924 0.38679564
000010 1b a6 03 3f 91 83 62 bc 24 11 01 bd 28 0d 37 bd
       0.5142533 -0.013825313 -0.031510487 -0.04469028
000020 dd d8 f2 be cf bd bc 3e 13 19 1c be 0b a9 e0 3d
       -0.4743108 0.36863562 -0.1524394 0.109697424
000030 2b 2e 8d 3d 67 1c 95 3b fb 24 5b 3e 41 ae a7 be
       0.068935715 0.004550505 0.21400826 -0.32750133
000040 c7 b3 a0 3e 6a 0f ea be 44 4c 78 3e 2b 16 ba bd
       0.3138716 -0.45714885 0.24247843 -0.090862595
000050 aa d8 ff be f9 c7 4a bf 61 8b e3 bd 80 61 7c 3e
       -0.4996999 -0.79211384 -0.11110569 0.24646568
000060 85 05 ee be a0 f5 61 be 47 f7 f3 be 46 d1 c6 be
       -0.46488586 -0.22066355 -0.47649595 -0.38831538
000070 00 b5 e2 bd 70 8c f4 3d c0 29 87 be 00 3d 3d 3b
       -0.11069679 0.11940849 -0.2639904 0.002887547
000080 fa d5 52 3e 05 01 26 be df fa a7 3e 98 90 20 be
       0.20589438 -0.16211326 0.32808587 -0.15680158
000090 7e c3 ce be 02 22 07 c0 fd ed c9 3e 09 2a 00 be
       -0.40383524 -2.1114507 0.39439383 -0.12516035
0000a0 6d 1e 46 be 9a 41 08 3f 50 d5 2e bd 6a 46 bb 3e
       -0.19347544 0.532251 -0.0426839 0.3657716
0000b0 6a 20 dc 3e 14 a5 47 bf 33 dd 00 bf 39 f5 2d 3e
       0.4299348 -0.77986264 -0.50337523 0.16988076
0000c0 8a c4 09 bf 79 ba 47 3d fd ab 0d bd 5d 01 de 3d
       -0.5381552 0.04876182 -0.03458785 0.10840104
0000d0 35 dc cf 3e 06 0b b3 bf f7 35 db be 71 dc fe 3a
       0.40597692 -1.3987739 -0.4281461 0.0019444359
0000e0 99 58 5a be 83 e2 0a bd df a3 4a bf db e2 46 3e
       -0.2132286 -0.033907425 -0.791563 0.19422476
0000f0 8c 8d 19 bf ae aa fa be c0 e2 53 be f9 78 6f 3e
       -0.5998161 -0.48958343 -0.20691967 0.23385991
000100 fa 58 d0 3e bd 70 fb 3d e8 21 67 bd 4a e5 73 3d
       0.40692884 0.122773625 -0.05642882 0.05954484
000110 da b2 78 be 55 3a af 3e bb c8 8b be c1 22 4a be
       -0.24286976 0.3422419 -0.27301583 -0.1973982
000120 a1 46 7b 3d d0 ff fd 3d 3d 31 f1 3e 29 af 32 be
       0.061346654 0.12402308 0.47107878 -0.17449631
000130 91 49 10 3e 2b 85 84 3d 6e fd 8c bf db 1a df 3e
       0.14090563 0.06470712 -1.1014841 0.43575177
000140 88 6b 04 3f 3a 49 7a be aa 3a 07 c0 56 1c 3c be
       0.5172658 -0.24441996 -2.1129556 -0.18370184
000150 34 96 67 be 5f e7 46 bc f3 84 5b be 91 2c c6 3e
       -0.22615892 -0.012140124 -0.21437435 0.38705876
000160 68 ff 95 be 84 99 54 be d0 67 75 be 80 1b 88 bc
       -0.29296422 -0.20761687 -0.23965383 -0.016614676
000170 38 01 db bd 24 9f 94 be 19 f2 88 3d 93 c9 63 bd
       -0.10693592 -0.29027665 0.066868015 -0.055612158
000180 12 b6 ec 3e 70 9b dd bc 1d 0a 1a 3b 31 bd 6a 3c
       0.4623266 -0.027051657 0.0023504563 0.014327333
000190 d9 ba 94 3e f1 7f 7c 3e 14 03 ee 3c dc 5e 42 be
       0.29048803 0.24658181 0.029054202 -0.18981498
0001a0 dd ce ca bb 8b 19 02 3f aa 32 43 be 20 d6 ee bd
       -0.006189211 0.50820225 -0.19062296 -0.11661935
0001b0 95 21 e5 3d 22 47 9e 3e b6 5e d3 bc 30 a7 ed bc
       0.11188046 0.30913645 -0.025801998 -0.029010385
0001c0 35 bb f7 3d 50 2d aa be 34 97 b0 3e cf 8a d4 bd
       0.12096254 -0.33237696 0.3449036 -0.10378038
0001d0 28 37 13 3e 4f f5 26 3b f6 ae 00 c0 96 73 d6 3e
       0.14376509 0.0025475805 -2.0106788 0.4188506
0001e0 73 72 0e 3f 69 b8 40 3e e4 65 d7 bf 55 ea 86 3e
       0.55643386 0.18820347 -1.682797 0.26350656
0001f0 80 58 94 be d0 7f 12 3d f0 5f 5a 3f d3 a5 8d be
       -0.2897377 0.035766423 0.8530264 -0.27665576
000200 9b 3a 8c be cd b0 19 3f dc c5 b6 3e 62 40 62 be
       -0.27388462 0.600354 0.3569783 -0.22094873
000210 9e 1a 9c 3e 81 f2 61 be 7c 77 b1 be be ad 8a 3e
       0.30489057 -0.22065164 -0.34661472 0.2708568
000220 70 5c cd 3e b6 34 3e be a7 6a bf bf 6e 8a 98 3e
       0.40109587 -0.18574795 -1.4954423 0.29793113
000230 51 3a 9d be 9d e1 78 3e cf b5 43 be 0b 9a 80 3d
       -0.30708554 0.24304815 -0.19112323 0.06279381
000240 22 24 f2 3e 2b 8f 15 3f 9f 24 8d be 04 2a 05 bd
       0.47293192 0.5842158 -0.27567002 -0.032510772
000250 95 a0 3c 3e ce 7b 65 be b5 ab cd 3c cc b0 f5 bd
       0.18420632 -0.22410509 0.02510629 -0.11996612
000260 28 b5 1d be a0 a6 03 3e e0 c9 f0 be d0 9b 17 bd
       -0.15401137 0.12856531 -0.47029018 -0.03701383
000270 50 fb 64 3e 80 d6 46 bc bb 68 ae bf 3a d5 ae 3e
       0.22361493 -0.012136102 -1.3625711 0.34147054
000280 d4 fb c4 be 65 90 55 3e 17 bf dd 3e 8f 39 9d be
       -0.3847338 0.20855863 0.43309852 -0.30707976
000290 70 79 93 3e 5e f8 4a 3e 03 b4 e5 be 7c 3d 8c 3e
       0.28803587 0.19821307 -0.448639 0.2739066
0002a0 e1 b0 c5 3d 33 4b 83 be 07 16 a3 3e 5b ee 1a be
       0.096528776 -0.2564331 0.31852743 -0.15129988
0002b0 1e 5c 1f 3d f9 8c 24 3e 45 2a ea 3d de 99 e7 bd
       0.03890621 0.16069402 0.114338435 -0.11308645
0002c0 2d 76 27 3e ac aa d5 3d 06 f3 b9 bb 54 6a 4e be
       0.16353674 0.10432944 -0.0056747226 -0.20157748
0002d0 20 2a f8 be fa 83 8b 3e 78 5f 18 be 10 42 82 bd
       -0.4846964 0.27249128 -0.14880168 -0.06360257
0002e0 ed 1e 9b 3e ef 3c 53 3e b9 9f 9f be 74 d5 03 3e
       0.30297032 0.20628713 -0.31176546 0.12874395
0002f0 a6 cc 93 3d 32 9c c2 3e 1a 0a 6f bf f1 91 9f 3e
       0.07216768 0.38009793 -0.9337479 0.31166032
000300 58 ad f2 3e 40 78 1d be 6f 41 a3 be 8b bd 12 3e
       0.47397876 -0.15377903 -0.3188586 0.14330117
000310 36 03 64 3e a0 b3 89 be c0 36 a3 be eb c6 2d 3e
       0.2226685 -0.26894855 -0.31877708 0.16970412
000320 f1 26 29 be 9f 8e 88 bf 6f 49 09 3e 73 c4 a3 3e
       -0.16518761 -1.0668525 0.13406919 0.31985816
000330 b0 81 c7 be 00 e3 81 3c e2 a2 df be fc 17 5e be
       -0.3896613 0.015855312 -0.43678957 -0.21688837
000340 3b fc 6b bd d7 a2 1f 3f 21 16 67 3d dc b3 5b be
       -0.057613593 0.6235785 0.05641759 -0.2145533
000350 19 16 01 3f 07 4b c3 3e cf 24 20 bf 00 d4 20 bc
       0.50424343 0.3814318 -0.62556165 -0.00981617
000360 9c f4 28 3e 95 11 65 3e e8 5e 98 3e 32 da 1a 3d
       0.16499561 0.22369988 0.29759908 0.037805744
000370 3c d9 0b bf 90 cf 06 bf ee e5 91 be c6 3e c6 be
       -0.5462835 -0.52660465 -0.28495735 -0.38719767
000380 71 b4 2d 3e 9e 77 48 3c 03 9b 02 3f 48 73 fe bd
       0.16963364 0.01223555 0.5101778 -0.12424332
000390 bf e5 2f 3e a2 5b 7b bf 73 bc 33 c0 65 f3 58 3e
       0.17177485 -0.98186696 -2.808377 0.21186598
0003a0 42 42 db 3d 17 3d 18 3e b4 0a 80 be 9c 7a 9f 3e
       0.10705997 0.14867054 -0.25008166 0.3114823
0003b0 ce fc 56 be ed 2b f4 3e 92 ad ec 3d 38 86 2f bc
       -0.20994875 0.47689763 0.115565434 -0.010713153
0003c0 47 b8 87 bf 8c c7 9e be 76 b3 dd 3d 66 59 a2 3d
       -1.0603112 -0.31011617 0.10825245 0.07927208
0003d0 ce 40 66 3e 20 41 d3 3e 65 12 8c 3d 0b 85 bb bd
       0.22485659 0.41260624 0.06839446 -0.09156235
0003e0 89 aa a7 be c2 bc 67 bf d4 48 dd be a4 f5 6f 3e
       -0.32747295 -0.90522397 -0.43219626 0.23433548
0003f0 1c 50 b4 be 73 75 33 3f bc 30 fd 3e b2 69 f1 be
       -0.3521737 0.7010109 0.49451244 -0.47150952

fc1.bias f4 [64]
000000 32 ed b4 bd 26 31 30 3e fd d1 cf bd 43 53 4e 3e
       -0.08834304 0.17206249 -0.10147474 0.2014895
000010 12 cc 87 be 34 16 ce be 43 be 34 be 30 d6 50 3d
       -0.2652288 -0.40251315 -0.17650704 0.050985515
000020 6b 1b 61 bd 21 02 39 be d2 a9 e2 be d4 aa be be
       -0.05495779 -0.18067218 -0.44270188 -0.37239707
000030 24 18 03 bf d3 aa eb 3c c4 88 8c be 63 b2 98 be
       -0.5120871 0.028767979 -0.27448094 -0.29823598
000040 9a 5c 3c 3e 6c 42 ea be a1 45 bb 3e ee 61 c0 3d
       0.183947 -0.457538 0.3657656 0.093936786
000050 96 d9 57 be 20 e2 66 bc 08 5b bc bd 74 25 ad be
       -0.21079096 -0.014091998 -0.0919705 -0.33817637
000060 0a d5 98 be f5 af b6 bd 5e e0 9c 3e 69 03 1b 3e
       -0.29850036 -0.0892028 0.3063993 0.1513802
000070 67 5c a7 3e eb fd d8 3e 9f b2 a8 bd f6 f1 12 3f
       0.32687685 0.42381224 -0.08237194 0.57400453
000080 ad 6c 44 3e c9 13 19 be 21 39 b0 be 21 5d c1 3e
       0.19182082 -0.14948954 -0.34418586 0.37766364
000090 42 e9 0e 3d 0f bd 17 bf 2c e5 fe be 8b 45 ba bd
       0.03489042 -0.59272856 -0.4978422 -0.090952955
0000a0 0a d8 ab be d4 7d 95 be 40 10 c9 3e 9b 9c 88 3e
       -0.33563262 -0.29197562 0.3927021 0.2668198
0000b0 cf 17 e5 3e e0 c7 a8 bc 51 c3 0f be 0c e0 8b bd
       0.44744727 -0.02060312 -0.14039351 -0.06829843
0000c0 5d b1 fd be 9e 2f f3 3c 64 f2 1d 3d ac 9b 6e 3e
       -0.4954938 0.029685792 0.03856124 0.23301572
0000d0 d6 65 86 3e 1a a0 b0 be ef e2 92 be 9b 3e 48 be
       0.2624957 -0.34497148 -0.28688762 -0.19555132
0000e0 61 d6 69 be 90 e8 54 3e 17 3b 68 3e 3a 22 8d 3e
       -0.22835685 0.2079184 0.22678791 0.27565175
0000f0 22 16 59 bf 62 b3 ef be c1 59 e7 3c 79 33 18 3e
       -0.84799397 -0.46816546 0.02824104 0.14863385

fc2.weight f4 [64, 64]
000000 87 88 86 3e 2c f1 4b 3e 78 1f 9b be 91 68 75 be
       0.26276037 0.19916219 -0.30297446 -0.2396567
000010 8b e3 34 3e 36 bb 22 be 5e ed d9 bd 00 5f c3 3c
       0.17664926 -0.15891728 -0.10640977 0.02384901
000020 88 aa ae 3e 52 c7 84 bf f6 6c 17 bf 2c 59 73 3e
       0.3411448 -1.0373328 -0.59150636 0.23764485
000030 5c f1 0c bd 7e fc 2b bd 20 ad 1c 3e 0a c0 cc bd
       -0.034409866 -0.041988842 0.15300417 -0.09997566
000040 65 d6 b4 3d 80 71 97 3c fc 08 59 bd 38 91 0e bf
       0.08829955 0.018486738 -0.052987084 -0.55690336
000050 67 39 de bf aa 07 c3 be 68 40 cd bc 00 ef 36 3c
       -1.7361268 -0.38091785 -0.025055125 0.0111653805
000060 77 af 45 3e bb af 25 bc 3b f3 6d be 89 59 16 3e
       0.19305216 -0.010112698 -0.23237316 0.14682592
000070 82 c5 7c 3e 06 3e c8 be d9 bc 9c be f8 bb 2c bd
       0.24684718 -0.3910982 -0.3061283 -0.04217145
000080 af a8 b2 bf 61 6b 4a be 7d 74 a9 bd f1 d0 e0 3d
       -1.3957728 -0.19767524 -0.082741715 0.109773524
000090 4a 2b 1e 3d 97 64 ca 3c e2 19 ff bd dc de ae bd
       0.038615502 0.024706168 -0.12456109 -0.08538601
0000a0 5d 92 8f 3e e6 48 cf bd 25 ab 32 3e 15 7a a3 3d
       0.28041354 -0.10121326 0.17448099 0.0798227
0000b0 5c fd d7 bd 1e f5 e8 3d 37 d8 fa bc 30 41 b0 bd
       -0.10546371 0.113748774 -0.030620677 -0.086061835
0000c0 61 6f 92 3e 9f 03 14 be 8e 6b e3 3d 1c 4d 22 3d
       0.286006 -0.14454506 0.11104499 0.03962432
0000d0 9f 79 82 bf b8 1e 2c 3e 72 57 01 bd 40 0b a2 3d
       -1.0193366 0.16808593 -0.031577535 0.07912302
0000e0 18 d1 47 3e 90 4c 4e bd a6 8d 5f be 7c 7e dd bd
       0.19513357 -0.050365984 -0.21831378 -0.108151406
0000f0 bc 5d 5d be 06 b4 0b 3e c9 2c 92 bc 1f 43 97 3e
       -0.21617788 0.13642892 -0.01784362 0.29543397
000100 bb 41 0e be 5b d4 39 3e 4b 1c b1 3d 15 37 0d 3e
       -0.13892262 0.18147413 0.086479746 0.13790543
000110 4a 06 aa bc b2 e4 41 3c 68 8d b9 bd c0 32 b4 3c
       -0.020754952 0.01183431 -0.09060174 0.021996856
000120 f4 b1 74 bd 14 f0 7d 3e 81 fd 57 3d 87 2c 81 bf
       -0.05974002 0.24798614 0.052731995 -1.0091714
000130 e1 c4 39 bd 42 13 4e 3f 19 fb 40 3c dd bd 75 bc
       -0.045353774 0.80498135 0.011778616 -0.01499888
000140 d5 be 07 3d 27 7b 9a bd 4f a3 b0 3d 6d 86 92 be
       0.033140976 -0.07543021 0.08624899 -0.28618184
000150 ad 9f 34 bf 73 c2 3c bd 60 b4 59 3c a7 36 4e bc
       -0.70556146 -0.04608388 0.013287634 -0.012586272
000160 0b ed 64 bf 5c 54 19 3e 6e 9e 2a bb 78 81 8d bd
       -0.894242 0.14973587 -0.0026034373 -0.0690946
000170 5c 63 ea 3c 5e 28 d2 be f4 3f 43 bf 3b 4d ac 39
       0.028611831 -0.41046423 -0.7626946 0.00032863938
000180 98 54 84 bd a9 2b 01 3f d3 e4 0c be e5 75 85 bc
       -0.064614475 0.50457245 -0.13759165 -0.016291568
000190 ac 72 0a bc 0a c0 76 3e fc a3 6e bd bb e6 02 bf
       -0.0084501915 0.24096695 -0.058261856 -0.51133317
0001a0 ab ac d3 be 80 ee 0b 3f 09 14 0e be 07 1a 01 3d
       -0.41342673 0.546608 -0.1387483 0.031518962
0001b0 c6 fe 54 3d 80 76 d2 3a 3b 08 9f 3d b2 5c 70 3e
       0.052000783 0.0016057044 0.07765242 0.2347286
0001c0 93 b7 c0 bf a0 c7 44 bf ef 04 04 3e 00 dd e1 3d
       -1.5056022 -0.76867104 0.12892507 0.110284805
0001d0 12 e5 b2 3e e0 03 86 3e ab 84 87 3d 71 f7 c9 3d
       0.34940392 0.2617483 0.06617101 0.09861649
0001e0 57 1e 8f 3d 42 32 a1 3d 4b 10 00 3f c8 51 71 bd
       0.06988209 0.07870914 0.5002486 -0.058915883
0001f0 e5 31 46 be 74 41 95 bd 69 b5 37 bb 3b 3a 6a 3d
       -0.19354971 -0.07287875 -0.0028031713 0.05718444
000200 d0 73 78 bf 06 df f8 be 5f 35 0e be 55 27 58 3e
       -0.97051716 -0.48607653 -0.13887547 0.21108754
000210 86 a2 46 3e 6b 98 2f 3e 90 ea 1a be b0 78 46 bc
       0.19397935 0.17147987 -0.15128541 -0.012113735
000220 88 74 e4 3d ec 55 19 3e 61 ef 31 3c 19 4c 8e 3d
       0.11155039 0.14974183 0.010860295 0.06948108
000230 d2 60 3c bd 82 19 de be 57 29 99 3c c3 7b 7b 3d
       -0.045990773 -0.43378836 0.01869647 0.061397325
000240 31 2b ba 3d dd 34 ca bd cc 02 25 3e 33 34 00 be
       0.09090269 -0.09873364 0.16114348 -0.12519912
000250 7f 4e 3c bf 36 de 9d bd 84 b8 d6 bd cf 5b dc 3c
       -0.73557276 -0.07708399 -0.10484412 0.026899246
000260 3c fc 96 be 88 c7 10 3e 10 5e 66 bd cb 3e b2 3d
       -0.29489315 0.14138615 -0.05624205 0.08703383
000270 60 c5 0d 3e 09 af 8a 3e 87 8a f4 be 9f ce 23 bd
       0.13844824 0.27086666 -0.47761938 -0.03999197
000280 67 97 00 bd df 5c 4b 3d 4b 43 6b 3b 6b de 9c bd
       -0.03139439 0.049649116 0.0035898264 -0.0765961
000290 c5 2e 90 be 7f 6e 3a 3e c0 39 f1 3b e4 eb 19 3e
       -0.28160682 0.18206213 0.0073616207 0.15031391
0002a0 58 d2 b5 be b3 56 3b bd ae c9 39 3e e3 df 29 3e
       -0.35512042 -0.04573698 0.18143341 0.16589312
0002b0 e7 e8 e3 be 24 a5 5d bd eb 6a 1c bd 7d 81 9d bd
       -0.44513628 -0.05411257 -0.038187902 -0.076907136
0002c0 fc 96 0e c0 57 a7 61 be bb 54 2d be ec 9f 9f bd
       -2.2279654 -0.22036491 -0.16926853 -0.077941746
0002d0 f4 b2 96 bc ee f1 e9 bf 52 0b 41 bd db 77 87 bc
       -0.018395878 -1.8276956 -0.047129937 -0.016536644
0002e0 e7 40 e4 3d bd 2d 94 3d 9c 12 79 be e5 36 1b be
       0.11145192 0.072352864 -0.24323505 -0.1515766
0002f0 f8 43 1a bf 56 6f 9d 3d 88 cb 9a 3c 12 d4 ea 3d
       -0.6025996 0.07687251 0.01889588 0.114662305
000300 31 1b 00 3d 50 e4 2c bd c0 40 57 3b d0 8d 95 3c
       0.03127593 -0.042209923 0.003284499 0.018256098
000310 28 8d 63 bc 10 5e d1 bd fc 75 2e bd 6c 30 fa 3d
       -0.013888635 -0.10223019 -0.042592987 0.12216267
000320 a0 39 cb bc a4 52 14 3d 24 83 57 3d 75 d2 df bb
       -0.024807751 0.036211625 0.0526153 -0.0068305084
000330 e0 90 47 bd 6b 4f d5 bc 74 b4 ec bd 8a b3 ee bd
       -0.048722148 -0.026038846 -0.11557856 -0.11655338
000340 83 ff 6e 3d aa f8 86 3d a6 56 c8 3d 3a 3b 13 bd
       0.058349144 0.06590398 0.09782152 -0.035945155
000350 e0 c0 fb bc ca bf 09 be 00 d6 92 ba 08 91 ac bd
       -0.030731618 -0.13452068 -0.0011202693 -0.084261
000360 e0 2f 08 be 5e 50 b8 3c 78 a3 34 3d 42 a2 16 be
       -0.13299513 0.02249926 0.04410121 -0.14710334
000370 68 dc bd bd c3 38 e8 bb 10 91 fe bd 68 6b 41 bd
       -0.09270555 -0.0070868446 -0.12430012 -0.04722157
000380 10 19 5d 3c f9 91 8d 3d 4d 1f b8 bd 80 4c 4e bb
       0.013494745 0.06912608 -0.08990345 -0.0031478703
000390 f3 9e 9b 3c 8a 07 a7 bd 0e 8d c7 3d bc a3 f6 bc
       0.018996691 -0.08155735 0.09743701 -0.030107372
0003a0 00 e5 93 bd db 01 90 bd 3e 0d bb bd 57 34 f9 bc
       -0.07221413 -0.07031604 -0.09133385 -0.030420465
0003b0 28 c7 db 3c 1a e3 8b 3d 8f cb e7 bd 33 f6 9e 3c
       0.026828364 0.068304256 -0.113181226 0.019404506
0003c0 a5 69 16 bd ff 15 a5 bc 80 28 09 3d 16 33 ff bd
       -0.036721844 -0.02015209 0.03348589 -0.12460916
0003d0 38 2a dc bc 14 ce 93 3d 77 ad ce bd 2c 9e 37 bd
       -0.0268756 0.07217041 -0.100916795 -0.04482858
0003e0 02 b4 e7 bd bc b4 00 bd 34 92 b7 3d 9d d7 1e be
       -0.11313631 -0.03142236 0.08963433 -0.15511937
0003f0 30 89 83 3d e6 6b 79 bd 6c fc c1 bd da 19 ac bd
       0.06422651 -0.060893916 -0.09471974 -0.08403368

fc2.bias f4 [64]
000000 88 8a 66 3e d9 a0 e3 3c 87 7d 6c bd 9e 2f 86 3d
       0.22513783 0.02778666 -0.0577369 0.06552051
000010 a1 66 db bd e5 98 1f 3d 8f 9e 14 3e 84 e1 fb bd
       -0.10712934 0.03896417 0.1451361 -0.12298873
000020 b2 80 48 3d bf 52 b7 3d d6 72 d8 3d 2f 7b 12 be
       0.04895086 0.089513294 0.10568778 -0.14304803
000030 95 5a 0c be 53 52 08 3e 21 be 0d 3e 42 ed a2 bd
       -0.1370643 0.13312654 0.1384206 -0.079554096
000040 3a 34 b7 3c 22 36 69 bc 5f 60 26 3d 3b a0 31 3e
       0.02236377 -0.014234098 0.04061925 0.1734628
000050 07 26 35 bd 26 13 21 bd b0 b5 f4 3c 1e 64 02 be
       -0.04422572 -0.039324902 0.029871792 -0.12733504
000060 d8 da 38 be 36 11 f9 bd 6e 39 9a bb 77 fd 1a 3d
       -0.18052232 -0.12161486 -0.004706553 0.03783938
000070 90 7a 86 be 1b 9b 7b 3d b7 56 a2 bb 74 f2 10 3e
       -0.26265383 0.061427217 -0.004954185 0.14154989
000080 c6 2b 9d bc 97 5f 0d bd b2 95 c5 bd ad b2 1d 3d
       -0.019185912 -0.03451499 -0.09647693 0.038500477
000090 fa e8 c1 bd 97 e9 69 3d 68 a6 82 bc a5 ee 5c 3d
       -0.09468265 0.057107534 -0.01594849 0.053938527
0000a0 13 f3 eb 3c 82 51 7d 3e f4 1d 6a 3d f3 a4 2c 3e
       0.02880243 0.24738124 0.05715747 0.16859798
0000b0 7b e8 14 be 2c 19 56 3d 22 72 3b 3e 49 fd ba 3d
       -0.1454181 0.0522701 0.18305257 0.091303416
0000c0 5a 5d bb 3c e8 49 8b bd 8f 5a 28 3d 59 17 32 be
       0.022871662 -0.06801206 0.04110199 -0.17391719
0000d0 81 fd 31 bd 0d fb 04 3e 21 45 cc 3d 87 50 9f bd
       -0.04345465 0.12986393 0.09974123 -0.07779031
0000e0 ca 9f 91 3d 96 65 71 3d b6 ba 0e bd 6f d4 e9 bd
       0.071105555 0.05893477 -0.03484603 -0.114174716
0000f0 f9 27 87 bd b6 de d4 3d ce 28 b2 bd 90 a7 9e 3d
       -0.06599421 0.10394041 -0.08699189 0.07746804

fc3.weight f4 [2, 64]
000000 3a b4 d5 3e e7 95 15 3e 2c 5f 08 3e 90 83 83 3d
       0.41739064 0.14607964 0.13317555 0.06421578
000010 53 6b 35 be 37 54 6e bc 10 d3 4a 3e 35 a6 4f 3d
       -0.17716722 -0.014546446 0.19807076 0.050695617
000020 eb de 96 be 14 51 ef be 9f e6 9c 3c 2f d5 60 bd
       -0.29466948 -0.46741545 0.019152937 -0.054890808
000030 ac f2 8e bd 55 b2 a8 3d 68 e1 f4 3d 71 f6 d3 bd
       -0.0697988 0.08237139 0.11957055 -0.10349739
000040 da a8 b2 3d 7a 8d ef 3c c0 f7 8b bc 96 4a bc 3d
       0.08723612 0.029242266 -0.01708591 0.09193914
000050 d1 9c dd ba f2 45 eb bd d5 b4 98 bd 1a 46 25 3d
       -0.0016907697 -0.114879504 -0.07456366 0.040350057
000060 b0 45 72 3e 00 33 75 3c 0a 51 97 3d 8f a2 a6 3c
       0.23659396 0.014965773 0.07388504 0.020341186
000070 72 57 f1 bb 54 93 10 3c 30 b8 97 3d 83 a8 dc 3d
       -0.0073651606 0.008824188 0.07408178 0.107743286
000080 fd cd c0 3d e5 3b dd 3c ac 10 fd 3d 62 d7 36 3e
       0.09414289 0.027006099 0.123566955 0.178556
000090 6a 43 57 3e ee 90 e1 bb 7b 63 6a bd e7 ed 0c 3e
       0.2102181 -0.006883732 -0.05722378 0.13762628
0000a0 85 00 e1 3d 1a 99 43 3e f8 54 b0 bd f8 07 a7 3d
       0.10986427 0.19101372 -0.086099565 0.08155817
0000b0 29 8e 69 bd 0c ab 01 3d d3 74 34 3e 9c e5 20 be
       -0.05702034 0.031657264 0.1762269 -0.15712589
0000c0 ea 75 2e 3e 2a 1d ae 3d b6 05 bd 3d 1e dc 8d be
       0.17037168 0.08501656 0.09229605 -0.27707
0000d0 36 5c 92 3d d3 72 09 bf be 82 1c 3b 77 c7 da bc
       0.07146494 -0.5369083 0.002388164 -0.02670644
0000e0 7c 29 4e bd 6a d2 2d be ac 1a cf be fe e0 f7 bd
       -0.05033253 -0.16974798 -0.40450037 -0.12103461
0000f0 0c ac 3e 3d bf 9c 37 3e 10 ac f9 bd d6 93 83 3d
       0.046550795 0.17930888 -0.121910214 0.06424682
000100 0f 8f 00 bf 68 2a 2a 3e 2f 9e 33 3e 6c fa b4 bd
       -0.5021829 0.16617739 0.17540811 -0.08836827
000110 c4 d8 96 be 0c 99 77 bd b0 79 6f be 60 8f 7c 3d
       -0.29462254 -0.06044869 -0.23386264 0.06166017
000120 90 06 a4 be 75 b5 fa be 62 f7 c3 3d 3e 5f 22 bd
       -0.32036257 -0.48966566 0.09568669 -0.03964161
000130 36 8c c7 bd 2b 81 87 3d 72 eb 8c 3d 4c 60 dd 3d
       -0.0974354 0.06616434 0.06880845 0.10809383
000140 a8 17 bf 3e 01 c1 7c 3d 18 f3 ae bd d8 b3 f0 3d
       0.37322736 0.0617075 -0.0854246 0.117530525
000150 2d 9e c2 3d 86 78 dd bd 38 dc 2b 3d c1 5b 1b bd
       0.09502826 -0.10814004 0.041958064 -0.0379293
000160 45 ff 46 3e e8 29 54 bd 70 a5 69 3d a0 08 97 bd
       0.19433315 -0.051797777 0.05704254 -0.07374692
000170 5e 6e 8f 3e 39 04 9f bc cd 0b a3 3d 77 82 7e 3d
       0.2801389 -0.019411193 0.07961235 0.06213614
000180 48 d3 fb 3d f2 49 80 bd 6c 21 24 3d 0a 85 e7 3d
       0.12296158 -0.06264104 0.040070936 0.11304672
000190 93 ad 57 3e 22 e5 1e 3c 29 df b7 bc e6 01 f3 3d
       0.21062307 0.009698184 -0.022445278 0.118655965
0001a0 99 28 14 3e 47 66 13 3e 80 73 03 3d fb bc 9c 3f
       0.14468612 0.14394484 0.03209257 1.2245172
0001b0 8b 70 9d 3d d5 0a ba bc c9 6a 2d 3e 13 63 32 be
       0.076874815 -0.022710243 0.16935267 -0.17420606
0001c0 0a 9d 39 3e e8 aa 44 bd 63 2a b2 bd 03 20 a9 be
       0.18126312 -0.04801455 -0.08699491 -0.33032236
0001d0 10 a1 04 3e e2 63 05 bf 5f 3a 93 bc 91 06 9a 3d
       0.12952065 -0.52105534 -0.01797217 0.07520784
0001e0 4e 64 cc bd b6 ae 29 be 96 b4 bc be 4e a1 ab bc
       -0.09980069 -0.16570553 -0.36856526 -0.02095094
0001f0 4f 9a 4c bd 0e ad 38 3e 1b 26 c2 3b 1e df 14 bd
       -0.049951848 0.18034765 0.0059249527 -0.036345594

fc3.bias f4 [2]
000000 e3 05 46 3d 8e da d9 3d
       0.048345458 0.10637389
