checkpoint_model_episode_200.pth (torch, 21402 bytes, 6 tensors)

fc1.weight f4 [64, 4]
0.44597372 0.075512365 -0.8619981 0.08709583 0.32665795 -0.4460276 -0.3768116 0.25314495
-0.43285263 0.42117104 -0.09370331 0.11682866 -0.06496416 -0.43157414 -0.10938944 -0.5814667
0.28692186 -0.18625447 0.23190896 0.006923763 -0.5032445 -0.39431894 -0.108603776 0.25247392
-0.46488586 -0.22066355 -0.47649595 -0.38831538 -0.11069679 0.11940849 -0.2639904 0.002887547
0.20935191 -0.11805047 0.39016947 -0.20380422 -0.10721404 -0.726508 0.1484131 0.16207924
-0.1287056 0.6638786 0.25675175 -0.061390188 0.4191071 -0.20816638 -0.6457361 0.47241932
-0.5366543 0.050727315 -0.030137496 0.11313417 0.22979939 -1.0368749 -0.3637817 0.25355858
-0.20051433 0.045835704 -0.25405985 0.28666905 -0.5998161 -0.48958343 -0.20691967 0.23385991
0.33896422 0.066044904 -0.040544495 -0.11017575 -0.21111277 0.37370306 -0.24138717 -0.22915737
-0.083893456 -0.074384645 0.41755572 -0.462795 0.1248555 0.37596545 -0.6234212 0.4697495
0.37945133 -0.9127068 -1.299209 0.027811488 -0.0152726015 0.3874294 0.29677275 0.2597257
-0.29296422 -0.20761687 -0.23965383 -0.016614676 -0.10693592 -0.29027665 0.066868015 -0.055612158
0.27735245 -0.29670483 0.111787565 0.10605462 0.34719315 0.15831271 0.017643696 -0.37706217
-0.08010704 0.3768072 -0.22476755 -0.30391976 0.31962553 0.36524656 -0.0662021 -0.19506295
0.08773288 -0.47197348 0.33615163 -0.13160518 0.092466 0.08348488 -1.7667683 0.36631918
0.3150274 0.025374662 -2.2663016 0.23583715 -0.33436736 0.07735453 0.88128346 -0.35575658
-0.35323328 0.14752312 0.20839752 -0.44359827 0.2802486 -0.15835747 -0.28676564 0.40265977
0.43504167 -0.43055624 -1.3233242 0.38916647 -0.30708554 0.24304815 -0.19112323 0.06279381
0.4882243 0.46400324 -0.33203852 -0.24670416 0.28367817 0.16998719 0.34535298 -0.021090237
-0.15401137 0.12856531 -0.47029018 -0.03701383 0.18734942 -0.039691895 -1.1879958 0.26554635
-0.3292243 -0.22262217 0.18779878 -0.32876766 0.25586382 0.42864224 -0.37304035 -0.24613006
0.014080543 -0.36754832 0.4101018 -0.11889382 0.050015077 0.16971469 0.3509529 -0.19094208
0.096934736 -0.681227 -0.49662986 -0.11508539 -0.4846964 0.27249128 -0.14880168 -0.06360257
0.2668378 0.15029195 -0.21228623 -0.018356074 0.04191547 0.52575207 -0.9821551 0.17189848
0.30302435 -0.07361117 0.11186534 0.112153076 0.21299562 0.0023749692 -0.3601683 0.4083093
-0.1048157 -0.8575846 0.39072573 0.24554214 -0.3896613 0.015855312 -0.43678957 -0.21688837
-0.099873625 -0.5211678 -0.04670103 -0.4852973 0.40027723 -0.06319016 -0.76322734 -0.009928632
0.25209093 0.37975597 0.39269474 -0.023283998 -0.5462835 -0.52660465 -0.28495735 -0.38719767
0.10300258 0.039248776 0.5604744 -0.26545274 0.11490194 -1.0112005 -1.368638 0.21123435
0.03127499 0.38768032 -0.2425359 0.18151963 -0.10603005 0.4243156 0.06715653 -0.11031577
-0.3047761 -0.008600644 0.20076552 0.33548105 0.28376243 0.41944885 0.09609288 -0.2804808
-0.16365993 -0.75896394 -0.19747758 0.41580057 -0.32763907 -0.068698876 0.50517523 -0.54876876
00000000: ab56 e43e 3aa6 9a3d e8ab 5cbf 4c5f b23d
00000010: b63f a73e bb5d e4be 73ed c0be 379c 813e
00000020: dc9e ddbe bba3 d73e 85e7 bfbd dd43 ef3d
00000030: ee0b 85bd 49f7 dcbe 9207 e0bd 00db 14bf
00000040: 6ce7 923e 7eb9 3ebe 8b79 6d3e bce0 e23b
00000050: a2d4 00bf 2ce4 c9be a86b debd 4344 813e
00000060: 8505 eebe a0f5 61be 47f7 f3be 46d1 c6be
00000070: 00b5 e2bd 708c f43d c029 87be 003d 3d3b
00000080: 5960 563e 72c4 f1bd 4bc4 c73e 0eb2 50be
00000090: 0993 dbbd 6efc 39bf 9bf9 173e 1af8 253e
000000a0: 67cb 03be f3f3 293f f774 833e 4774 7bbd
000000b0: 3595 d63e 9129 55be f64e 25bf f2e0 f13e
000000c0: 2d62 09bf 72c7 4f3d e9e2 f6bc e3b2 e73d
000000d0: 8850 6b3e 51b8 84bf 9841 babe 6ed2 813e
000000e0: a153 4dbe 38be 3b3d 2214 82be 49c6 923e
000000f0: 8c8d 19bf aeaa fabe c0e2 53be f978 6f3e
00000100: b88c ad3e 8d42 873d fc11 26bd d3a3 e1bd
00000110: f22d 58be 0256 bf3e 332e 77be 3ba8 6abe
00000120: 55d0 abbd fa56 98bd ddc9 d53e 77f3 ecbe
00000130: 3eb4 ff3d 8b7e c03e 8898 1fbf 0283 f03e
00000140: 7247 c23e 27a7 69bf 7b4c a6bf ebd4 e33c
00000150: ef39 7abc 255d c63e 99f2 973e c4fa 843e
00000160: 68ff 95be 8499 54be d067 75be 801b 88bc
00000170: 3801 dbbd 249f 94be 19f2 883d 93c9 63bd
00000180: 2401 8e3e b2e9 97be e1f0 e43d 2a33 d93d
00000190: 4dc3 b13e ba1c 223e 8389 903c 4b0e c1be
000001a0: 290f a4bd e0ec c03e 7729 66be 5f9b 9bbe
000001b0: f5a5 a33e 9901 bb3e f794 87bd 95be 47be
000001c0: 4cad b33d 82a6 f1be 111c ac3e 82c3 06be
000001d0: d05e bd3d 1ffa aa3d 7725 e2bf 308e bb3e
000001e0: 454b a13e 86de cf3c 160b 11c0 4b7f 713e
000001f0: 3332 abbe 0d6c 9e3d cb9b 613f ba25 b6be
00000200: feda b4be 4d10 173e 2966 553e 501f e3be
00000210: bf7c 8f3e 7628 22be f2d2 92be 6c29 ce3e
00000220: c8bd de3e de71 dcbe b062 a9bf d440 c73e
00000230: 513a 9dbe 9de1 783e cfb5 43be 0b9a 803d
00000240: 89f8 f93e d591 ed3e f400 aabe 04a0 7cbe
00000250: 443e 913e 1f11 2e3e 1bd2 b03e 6fc5 acbc
00000260: 28b5 1dbe a0a6 033e e0c9 f0be d09b 17bd
00000270: 87d8 3f3e f893 22bd 3f10 98bf b1f5 873e
00000280: 1690 a8be 11f7 63be 534e 403e 3c54 a8be
00000290: 9500 833e ff76 db3e 25ff bebe 8509 7cbe
000002a0: 14b2 663c 4b2f bcbe ddf8 d13e 9a7e f3bd
000002b0: 9cdc 4c3d b0c9 2d3e 19b0 b33e 5286 43be
000002c0: b885 c63d e564 2ebf 4546 febe e4b1 ebbd
000002d0: 202a f8be fa83 8b3e 785f 18be 1042 82bd
000002e0: f79e 883e 22e6 193e 9061 59be 7a5f 96bc
000002f0: 8eaf 2b3d b097 063f 846e 7bbf 2806 303e
00000300: 0226 9b3e 74c1 96bd a819 e53d 83b0 e53d
00000310: 861b 5a3e 5fa5 1b3b fb67 b8be eb0d d13e
00000320: 9da9 d6bd aa8a 5bbf 340d c83e 666f 7b3e
00000330: b081 c7be 00e3 813c e2a2 dfbe fc17 5ebe
00000340: 8b8a ccbd 416b 05bf 9449 3fbd e378 f8be
00000350: 23f1 cc3e d869 81bd de62 43bf b3ab 22bc
00000360: 1012 813e 606f c23e 490f c93e 15be bebc
00000370: 3cd9 0bbf 90cf 06bf eee5 91be c63e c6be
00000380: 04f3 d23d 53c3 203d 407b 0f3f 6ce9 87be
00000390: b551 eb3d 056f 81bf 882f afbf d14d 583e
000003a0: 341a 003d 097e c63e 555b 78be 48e0 393e
000003b0: 4826 d9bd e53f d93e 5d89 893d 3ced e1bd
000003c0: 9d0b 9cbe b7e9 0cbc 7a95 4d3e 2cc4 ab3e
000003d0: 4f49 913e 00c2 d63e 58cc c43d 2e9b 8fbe
000003e0: 7896 27be 764b 42bf 9037 4abe d0e3 d43e
000003f0: 4fc0 a7be ffb1 8cbd 2a53 013f 1c7c 0cbf

fc1.bias f4 [64]
-0.12705253 -0.10160564 -0.045118 -0.018029423 -0.29853687 -0.34096247 -0.17650704 0.050985515
-0.028472794 -0.21940099 -0.31950635 -0.4102953 -0.50779176 -0.058816243 -0.17306091 -0.29823598
0.13392438 -0.42580852 0.2500523 0.14324263 -0.29364026 0.2809744 -0.0919705 -0.33817637
-0.42132625 -0.05249139 0.2496524 0.24750578 0.29772583 0.40256268 -0.36690742 0.5773723
0.090210184 -0.15579562 -0.28357702 0.37766364 0.028867524 -0.42197624 -0.4978422 -0.09807384
-0.42823607 -0.2946718 0.38015652 0.35543296 0.22161166 -0.02060312 -0.13436961 -0.104297824
-0.53339726 0.0172849 0.17375618 0.23301572 0.21775153 -0.4539123 -0.19135566 -0.19555132
-0.25900212 0.2344122 0.16658972 0.32525572 -0.589917 -0.41325843 0.20797744 0.19012661
00000000: 0f1a 02be 9e16 d0bd a7cd 38bd 71b2 93bc
00000010: d3d9 98be a292 aebe 43be 34be 30d6 503d
00000020: c73f e9bc a7aa 60be 5696 a3be 3a12 d2be
00000030: a4fe 01bf 4de9 70bd e136 31be 63b2 98be
00000040: 7923 093e 9303 dabe db06 803e 32ae 123e
00000050: 0458 96be e0db 8f3e 085b bcbd 7425 adbe
00000060: 13b8 d7be 3601 57bd e1a4 7f3e 2872 7d3e
00000070: 856f 983e b21c ce3e 4adb bbbe acce 133f
00000080: 1ec0 b83d e388 1fbe 0231 91be 215d c13e
00000090: 967b ec3c 450d d8be 2ce5 febe f0da c8bd
000000a0: c241 dbbe 39df 96be e0a3 c23e 4ffb b53e
000000b0: 2bee 623e e0c7 a8bc 3098 09be 199a d5bd
000000c0: b98c 08bf 1099 8d3c 24ed 313e ac9b 6e3e
000000d0: 42fa 5e3e 3167 e8be bdf2 43be 9b3e 48be
000000e0: ed9b 84be c009 703e 7f96 2a3e eb87 a63e
000000f0: cd04 17bf 9c96 d3be 0af8 543e 8db0 423e

fc2.weight f4 [64, 64]
0.03533214 0.10884739 0.054974128 -0.05051151 0.07375329 0.113003194 -0.10640977 0.02384901
0.22742593 -0.038214743 -0.21147881 0.17657647 -0.034409866 -0.03568558 0.18054678 -0.09997566
0.009968928 0.018486738 -0.14784017 -0.20883058 -0.69840175 -0.030009022 -0.025055125 0.0111653805
-0.020299317 -0.124759994 -0.026938308 0.09277247 0.053545494 0.091383465 -0.21226965 -0.07793399
-0.03269262 -0.058417536 -0.04279637 0.109773524 -0.118206814 0.045709305 -0.12456109 0.1884947
-0.009013427 -0.04271997 0.0158783 0.0066361665 -0.50828636 0.113748774 0.05869021 0.37687355
0.09585528 -0.06554412 0.042313453 0.03962432 -0.6028187 -0.16489379 -0.058215383 0.07912302
0.10934421 -0.027690554 -0.078021556 0.04901044 -0.27183154 0.11772719 -0.0068427967 -0.26118806
-0.36789152 0.047325052 0.12949948 0.046403576 -0.043579184 -0.0007814112 -0.09060174 0.021996856
-0.05862598 0.14291193 0.01992779 -0.06002715 -0.045353774 -0.05819935 0.011778616 -0.01499888
-0.07145743 -0.07543021 0.083475545 -0.063677594 -0.0925524 -0.1018756 0.013287634 -0.012586272
-0.21429934 0.08270495 -0.06196436 -0.099628806 0.011315586 -0.056884937 -0.018935766 0.04573998
-0.022185158 0.029957121 -0.13759165 -0.016291568 -0.072848156 0.108107075 -0.058261856 -0.13115251
-0.36339405 0.09510108 -0.11826543 0.018005695 0.10411124 0.0016057044 -0.003071109 0.19979727
-0.13896246 -0.13123605 -0.0052601583 0.110284805 0.18551743 -0.121701695 0.08244088 0.09861649
0.09153136 0.07870914 0.014933694 -0.07083548 -0.013426045 -0.111523755 -0.0028031713 0.078275956
0.012740868 0.14566211 -0.048128597 0.12379562 0.018411452 0.10721294 -0.15128541 -0.012113735
0.031127712 0.1434062 0.053208623 0.09282248 -0.043660585 0.085507445 0.03243589 0.061397325
0.030950682 -0.09873364 0.101539634 -0.098407626 -0.59314495 0.02314721 -0.10484412 0.026899246
-0.0984185 0.029463816 0.02507662 0.054834522 0.047340315 0.29767948 -0.47739452 -0.060836073
-0.022503572 -0.030370716 0.027308974 -0.0765961 -0.1376755 -0.13483916 0.0073616207 0.17610984
-0.2958999 -0.12402669 0.117121525 0.11099544 -0.24535199 -0.05411257 0.04316097 -0.020800326
0.03331494 -0.014367909 0.025218785 -0.077941746 -0.097741306 -0.29229677 -0.060694553 -0.016536644
0.067857526 0.019807242 -0.087006494 -0.1511152 0.006084767 0.06467634 0.016068071 0.09745202
0.03127593 -0.042209923 0.003284499 0.018256098 -0.013888635 -0.10223019 -0.042592987 0.12216267
-0.024807751 0.036211625 0.0526153 -0.0068305084 -0.048722148 -0.026038846 -0.11557856 -0.11655338
0.058349144 0.06590398 0.09782152 -0.035945155 -0.030731618 -0.13452068 -0.0011202693 -0.084261
-0.13299513 0.02249926 0.04410121 -0.14710334 -0.09270555 -0.0070868446 -0.12430012 -0.04722157
0.013494745 0.06912608 -0.08990345 -0.0031478703 0.018996691 -0.08155735 0.09743701 -0.030107372
-0.07221413 -0.07031604 -0.09133385 -0.030420465 0.026828364 0.068304256 -0.113181226 0.019404506
-0.036721844 -0.02015209 0.03348589 -0.12460916 -0.0268756 0.07217041 -0.100916795 -0.04482858
-0.11313631 -0.03142236 0.08963433 -0.15511937 0.06422651 -0.060893916 -0.09471974 -0.08403368
00000000: 6fb8 103d 61eb de3d 8d2c 613d 28e5 4ebd
00000010: f70b 973d 386e e73d 5eed d9bd 005f c33c
00000020: 58e2 683e 1087 1cbd e78d 58be 76d0 343e
00000030: 5cf1 0cbd 0b2b 12bd 41e1 383e 0ac0 ccbd
00000040: b754 233c 8071 973c 6a63 17be afd7 55be
00000050: 75ca 32bf 7bd5 f5bc 6840 cdbc 00ef 363c
00000060: c14a a6bc 2b82 ffbd baad dcbc 7eff bd3d
00000070: 8552 5b3d 4127 bb3d 375d 59be db9b 9fbd
00000080: b2e8 05bd 3a47 6fbd 3f4b 2fbd f1d0 e03d
00000090: 6a16 f2bd ae39 3b3d e219 ffbd c104 413e
000000a0: 0ead 13bc 23fb 2ebd 3513 823c 3374 d93b
000000b0: 0e1f 02bf 1ef5 e83d 2565 703d 92f5 c03e
000000c0: c64f c43d ff3b 86bd df50 2d3d 1c4d 223d
000000d0: 5452 1abf ebd9 28be 4173 6ebd 400b a23d
000000e0: dbef df3d 4dd7 e2bc c4c9 9fbd 2cbf 483d
000000f0: 812d 8bbe f41a f13d 8a39 e0bb 71ba 85be
00000100: 475c bcbe ead7 413d 839b 043e ad11 3e3d
00000110: 1680 32bd 9ed7 4cba 688d b9bd c032 b43c
00000120: cc21 70bd 8157 123e 9b3f a33c 07df 75bd
00000130: e1c4 39bd 7162 6ebd 19fb 403c ddbd 75bc
00000140: 4658 92bd 277b 9abd 3af5 aa3d 6669 82bd
00000150: 1d8c bdbd 28a4 d0bd 60b4 593c a736 4ebc
00000160: 4971 5bbe 3661 a93d 57ce 7dbd 300a ccbd
00000170: 0265 393c 2e00 69bd 2e1f 9bbc d859 3b3d
00000180: a6bd b5bc a368 f53c d3e4 0cbe e575 85bc
00000190: 6a31 95bd 3e67 dd3d fca3 6ebd d84c 06be
000001a0: c90e babe 5bc4 c23d 2535 f2bd ae80 933c
000001b0: 4638 d53d 8076 d23a a944 49bb a897 4c3e
000001c0: 2d4c 0ebe be62 06be 685d acbb 00dd e13d
000001d0: 48f8 3d3e bd3e f9bd c4d6 a83d 71f7 c93d
000001e0: cb74 bb3d 4232 a13d 74ac 743c 3112 91bd
000001f0: eaf8 5bbc 9166 e4bd 69b5 37bb 254f a03d
00000200: 13bf 503c 7328 153e 7e22 45bd 8f88 fd3d
00000210: 9dd3 963c 7592 db3d 90ea 1abe b078 46bc
00000220: 8bff fe3c 13d9 123e 49f1 593d b619 be3d
00000230: 71d5 32bd 871e af3d 7fdb 043d c37b 7b3d
00000240: 498c fd3c dd34 cabd 03f4 cf3d f089 c9bd
00000250: 59d8 17bf 389f bd3c 84b8 d6bd cf5b dc3c
00000260: a38f c9bd 1a5e f13c 7c6d cd3c 2a9a 603d
00000270: ebe7 413d 7269 983e 0e6d f4be 3f2f 79bd
00000280: 6959 b8bc 02cc f8bc 12b7 df3c 6bde 9cbd
00000290: cefa 0cbe 4713 0abe c039 f13b 2356 343e
000002a0: 3180 97be b501 febd 69dd ef3d 9451 e33d
000002b0: 8d3d 7bbe 24a5 5dbd 8fc9 303d 7265 aabc
000002c0: 3f75 083d 6167 6bbc a097 ce3c ec9f 9fbd
000002d0: 982c c8bd eca7 95be da9a 78bd db77 87bc
000002e0: e3f8 8a3d cc42 a23c 7630 b2bd f1bd 1abe
000002f0: ba62 c73b 0775 843d 30a1 833c ed94 c73d
00000300: 311b 003d 50e4 2cbd c040 573b d08d 953c
00000310: 288d 63bc 105e d1bd fc75 2ebd 6c30 fa3d
00000320: a039 cbbc a452 143d 2483 573d 75d2 dfbb
00000330: e090 47bd 6b4f d5bc 74b4 ecbd 8ab3 eebd
00000340: 83ff 6e3d aaf8 863d a656 c83d 3a3b 13bd
00000350: e0c0 fbbc cabf 09be 00d6 92ba 0891 acbd
00000360: e02f 08be 5e50 b83c 78a3 343d 42a2 16be
00000370: 68dc bdbd c338 e8bb 1091 febd 686b 41bd
00000380: 1019 5d3c f991 8d3d 4d1f b8bd 804c 4ebb
00000390: f39e 9b3c 8a07 a7bd 0e8d c73d bca3 f6bc
000003a0: 00e5 93bd db01 90bd 3e0d bbbd 5734 f9bc
000003b0: 28c7 db3c 1ae3 8b3d 8fcb e7bd 33f6 9e3c
000003c0: a569 16bd ff15 a5bc 8028 093d 1633 ffbd
000003d0: 382a dcbc 14ce 933d 77ad cebd 2c9e 37bd
000003e0: 02b4 e7bd bcb4 00bd 3492 b73d 9dd7 1ebe
000003f0: 3089 833d e66b 79bd 6cfc c1bd da19 acbd

fc2.bias f4 [64]
0.14431554 0.003480866 -0.13027501 0.06552051 -0.12404202 0.07541508 0.15891252 -0.12298873
0.050772797 -0.03681307 0.10568778 -0.14304803 -0.09917714 0.121024154 0.031772178 -0.079554096
0.05616144 -0.032527614 0.04061925 0.08412145 -0.04422572 -0.06700196 0.029871792 -0.06218401
-0.11935102 -0.12161486 0.026408121 0.03783938 -0.20403546 0.061427217 0.033890683 0.09304506
0.049930662 0.0011508135 -0.09647693 0.009011739 -0.1222719 0.07162501 0.012314192 -0.0012728501
-0.049190972 0.13925576 0.08370017 0.12512735 -0.1454181 0.08390632 0.087643415 0.10948949
0.06716001 -0.06801206 0.072628915 -0.09209341 0.011361566 0.10203241 0.106702104 -0.07779031
0.071105555 0.020640247 -0.03943885 -0.114174716 -0.06599421 0.06629697 -0.05704797 0.10725585
00000000: 74c7 133e 3e1f 643b d066 05be 9e2f 863d
00000010: be09 febd 3973 9a3d f7b9 223e 84e1 fbbd
00000020: 23f7 4f3d 4dc9 16bd d672 d83d 2f7b 12be
00000030: 621d cbbd 83db f73d 8b23 023d 42ed a2bd
00000040: 8a09 663d ad3b 05bd 5f60 263d de47 ac3d
00000050: 0726 35bd 5338 89bd b0b5 f43c a9b4 7ebd
00000060: 4f6e f4bd 3611 f9bd d855 d83c 77fd 1a3d
00000070: acee 50be 1b9b 7b3d f5d0 0a3d 698e be3d
00000080: 1884 4c3d e5d6 963a b295 c5bd f9a5 133c
00000090: b169 fabd 22b0 923d 77c1 493c c3d5 a6ba
000000a0: 797c 49bd 1099 0e3e ff6a ab3d 6221 003e
000000b0: 7be8 14be 14d7 ab3d 647e b33d 073c e03d
000000c0: 308b 893d e849 8bbd 78be 943d 789b bcbd
000000d0: dd25 3a3c 5ef6 d03d a286 da3d 8750 9fbd
000000e0: ca9f 913d bc15 a93c a28a 21bd 6fd4 e9bd
000000f0: f927 87bd b5c6 873d 22ab 69bd f5a8 db3d

fc3.weight f4 [2, 64]
0.23934785 0.06099149 0.13157947 0.06421578 -0.288149 -0.21895692 0.11743816 0.050695617
-0.8254736 -0.2891085 0.019152937 -0.054890808 -0.067240715 0.050030265 0.19022588 -0.10349739
0.09541554 0.23337671 -0.01708591 0.1085473 -0.0016907697 -0.12890576 -0.07456366 -0.025851423
0.08726907 0.014965773 0.0790578 0.020341186 -0.009771589 0.008824188 0.11443547 0.0266041
0.19407324 0.05864187 0.123566955 0.22225364 0.31355023 0.003371316 -0.07527552 0.14354262
0.02416505 0.16246293 -0.08609251 0.20397396 -0.05702034 0.031657264 0.18171765 -0.3151541
0.21774037 0.08501656 0.09229605 -0.12202061 0.3754528 -0.2182222 0.026411137 -0.02670644
-0.05033253 -0.18698645 -0.40335208 -0.12103461 0.046550795 0.02321171 -0.12219679 0.0965593
0.023558386 0.016881479 0.051038407 -0.08836827 -0.26816535 -0.38263375 -0.047941983 0.06166017
-0.739974 -0.39376613 0.09568669 -0.03964161 -0.21742415 0.13380426 -0.0027990553 0.10809383
0.4077011 0.36998826 -0.0854246 0.13859668 0.09502826 -0.06032809 0.041958064 -0.06431046
0.2657243 -0.051797777 0.05704254 -0.07374692 0.30495122 -0.019411193 0.09442862 0.053337645
0.17397831 -0.091900274 0.040070936 0.27403814 0.37305057 -0.048547395 -0.07749903 0.13309702
0.12833694 0.1149187 0.03215767 0.50131965 0.076874815 -0.035680905 0.05767649 -0.44294918
0.2281442 -0.04801455 -0.11465151 -0.12049712 0.28451502 -0.28468165 0.04541488 0.07520784
-0.09980069 -0.055917542 -0.29823872 -0.02095094 -0.049951848 0.36216095 0.0059249527 -0.019126292
00000000: 9a17 753e 36d2 793d c5bc 063e 9083 833d
00000010: 4488 93be 3e36 60be 6b83 f03d 35a6 4f3d
00000020: 3d52 53bf 0806 94be 9fe6 9c3c 2fd5 60bd
00000030: 80b5 89bd 89ec 4c3d 93ca 423e 71f6 d3bd
00000040: 3969 c33d 4efa 6e3e c0f7 8bbc 0c4e de3d
00000050: d19c ddba dfff 03be d5b4 98bd 5dc6 d3bc
00000060: 20ba b23d 0033 753c 0ee9 a13d 8fa2 a63c
00000070: 0419 20bc 5493 103c 255d ea3d d7f0 d93c
00000080: 23bb 463e 7532 703d ac10 fd3d 7596 633e
00000090: a889 a03e 4cf1 5c3b 0d2a 9abd d6fc 123e
000000a0: c8f5 c53c af5c 263e 4551 b0bd 8dde 503e
000000b0: 298e 69bd 0cab 013d 3114 3a3e e15b a1be
000000c0: 55f7 5e3e 2a1d ae3d b605 bd3d f1e5 f9bd
000000d0: 593b c03e a475 5fbe 2b5c d83c 77c7 dabc
000000e0: 7c29 4ebd 6079 3fbe 2a84 cebe fee0 f7bd
000000f0: 0cac 3e3d 7c26 be3c 5042 fabd e2c0 c53d
00000100: 84fd c03c 074b 8a3c a60d 513d 6cfa b4bd
00000110: f84c 89be 92e8 c3be d05e 44bd 608f 7c3d
00000120: f06e 3dbf b79b c9be 62f7 c33d 3e5f 22bd
00000130: 70a4 5ebe fc03 093e 5b70 37bb 4c60 dd3d
00000140: 33be d03e 1a6f bd3e 18f3 aebd 4aec 0d3e
00000150: 2d9e c23d 961a 77bd 38dc 2b3d 34b5 83bd
00000160: 040d 883e e829 54bd 70a5 693d a008 97bd
00000170: 9122 9c3e 3904 9fbc cb63 c13d 9378 5a3d
00000180: 5f27 323e 3636 bcbd 6c21 243d ba4e 8c3e
00000190: 7c00 bf3e a2d9 46bd d0b7 9ebd 964a 083e
000001a0: c26a 033e 7f5a eb3d c3b7 033d 7c56 003f
000001b0: 8b70 9d3d 2426 12bd 2f3e 6c3d 3cca e2be
000001c0: a29e 693e e8aa 44bd 69ce eabd 32c7 f6bd
000001d0: f4ab 913e cbc1 91be f404 3a3d 9106 9a3d
000001e0: 4e64 ccbd cb09 65bd bfb2 98be 4ea1 abbc
000001f0: 4f9a 4cbd 296d b93e 1b26 c23b beae 9cbc

fc3.bias f4 [2]
-0.07803882 0.028988186
00000000: d1d2 9fbd a278 ed3c
