final_jump_model.pth (torch, 21154 bytes, 6 tensors)

fc1.weight f4 [64, 4]
000000 75 d2 e6 3e cf 8e 5a 3d 40 37 36 bf f6 d8 cc 3e
       0.4508244 0.05335885 -0.71178055 0.40009278
000010 a3 bf ff 3e fb 7e b8 bb a7 2a eb bc 57 9e 68 bc
       0.49950895 -0.0056303716 -0.028706862 -0.014197907
000020 dd d8 f2 be cf bd bc 3e 13 19 1c be 0b a9 e0 3d
       -0.4743108 0.36863562 -0.1524394 0.109697424
000030 91 84 74 3d ad bf 8e 3c 25 53 77 3e e4 dc a7 be
       0.059696738 0.017425383 0.24152811 -0.32785714
000040 a3 fa a6 3e d1 9d d7 be 69 7b 70 3e 02 12 db bd
       0.32613096 -0.42112592 0.23484577 -0.10696794
000050 9d ab d4 be 23 13 4e bf 6d a5 0a be 9b 99 6d 3e
       -0.4153718 -0.8049795 -0.13539667 0.23203127
000060 85 05 ee be a0 f5 61 be 47 f7 f3 be 46 d1 c6 be
       -0.46488586 -0.22066355 -0.47649595 -0.38831538
000070 00 b5 e2 bd 70 8c f4 3d c0 29 87 be 00 3d 3d 3b
       -0.11069679 0.11940849 -0.2639904 0.002887547
000080 a7 3d 58 3e 27 90 0e be 9f ca a2 3e 43 f3 06 be
       0.21117269 -0.13922177 0.31795213 -0.13178734
000090 32 5e cb be 54 e9 0c c0 99 a9 c3 3e 62 72 11 be
       -0.39720303 -2.2017412 0.3821533 -0.1420379
0000a0 29 59 58 be af f2 e6 3e f4 15 49 be 14 d5 c5 3e
       -0.21127762 0.45107028 -0.1963728 0.38639128
0000b0 ad 11 de 3e 29 37 53 bf 73 ea 03 bf 77 6d 1b 3e
       0.4337286 -0.8250604 -0.51529616 0.15178476
0000c0 8a c4 09 bf 79 ba 47 3d fd ab 0d bd 5d 01 de 3d
       -0.5381552 0.04876182 -0.03458785 0.10840104
0000d0 1e a6 d5 3e 01 aa b8 bf 7c fc d1 be 4f 5e 27 bd
       0.417283 -1.4426881 -0.41012943 -0.040861424
0000e0 99 58 5a be 83 e2 0a bd df a3 4a bf db e2 46 3e
       -0.2132286 -0.033907425 -0.791563 0.19422476
0000f0 8c 8d 19 bf ae aa fa be c0 e2 53 be f9 78 6f 3e
       -0.5998161 -0.48958343 -0.20691967 0.23385991
000100 59 22 cb 3e 4f a4 da 3d 9d 51 9f bd ce 4e 8d 3d
       0.39674643 0.106758706 -0.077792384 0.068997964
000110 da b2 78 be 55 3a af 3e bb c8 8b be c1 22 4a be
       -0.24286976 0.3422419 -0.27301583 -0.1973982
000120 e4 56 91 3d b8 a9 09 3e 8d 9e e6 3e 49 2c 20 be
       0.07096651 0.13443649 0.4504284 -0.15641893
000130 83 1a d5 3d 63 27 54 bd f6 88 9a bf 3b d1 b7 3e
       0.10405447 -0.051795375 -1.2073047 0.35901818
000140 dc c9 06 3f e1 e1 9c 3d a0 27 01 c0 aa a2 6f be
       0.5265176 0.076602705 -2.0180435 -0.23401895
000150 40 c2 6d be b9 c4 78 bc a9 83 47 be ef 88 c5 3e
       -0.23218632 -0.015183621 -0.19483818 0.38581035
000160 68 ff 95 be 84 99 54 be d0 67 75 be 80 1b 88 bc
       -0.29296422 -0.20761687 -0.23965383 -0.016614676
000170 38 01 db bd 24 9f 94 be 19 f2 88 3d 93 c9 63 bd
       -0.10693592 -0.29027665 0.066868015 -0.055612158
000180 18 a8 f2 3e 2f 25 fd bc ec 60 49 ba dc 7a c8 3c
       0.4739387 -0.03090152 -0.0007681984 0.024472646
000190 ab 36 88 3e b3 10 6d 3e 73 73 17 3d b7 7b 39 be
       0.26604208 0.23150901 0.036975335 -0.181136
0001a0 03 58 63 3b 92 59 01 3f 18 21 f4 bd 52 7d 9c bd
       0.003468991 0.505273 -0.11920375 -0.076410905
0001b0 44 1b e8 3c 62 cc 8a 3e 42 21 ae bc 24 e2 e9 bc
       0.028333314 0.27109057 -0.021256093 -0.028550215
0001c0 bb eb d2 3d c1 72 8a be 7a e6 94 3e d1 57 bc bd
       0.10298868 -0.27040675 0.2908209 -0.09196437
0001d0 60 d6 20 3e 38 bb 9f 3c 17 36 05 c0 dc 53 e5 3e
       0.15706778 0.019498453 -2.0814264 0.44790542
0001e0 3b 53 15 3f 6a 66 76 3e 1a 7f c4 bf b4 9d 97 3e
       0.58330125 0.24062505 -1.5351288 0.29612505
0001f0 8c 15 91 be 0b 7a 15 3c b2 70 5b 3f 5a bd 95 be
       -0.2833675 0.009123336 0.85718834 -0.29246026
000200 25 49 91 be 1e f1 0f 3f a9 f8 b5 3e 3b cf 58 be
       -0.28376117 0.5622729 0.35541275 -0.21172802
000210 da 31 97 3e e2 a7 a2 be 0c 7b b7 be 1a d5 83 3e
       0.2953022 -0.3176871 -0.35836065 0.2574852
000220 e0 52 df 3e fe 8c 03 be a5 fe b7 bf cc 38 81 3e
       0.43617916 -0.12846753 -1.4374586 0.25238645
000230 51 3a 9d be 9d e1 78 3e cf b5 43 be 0b 9a 80 3d
       -0.30708554 0.24304815 -0.19112323 0.06279381
000240 12 68 e2 3e 13 88 17 3f 20 15 8f be ef dd 30 3d
       0.44220024 0.5919201 -0.27945805 0.043180402
000250 a0 2b 01 3e 63 bf 26 be ec 2b 44 3e 35 13 68 be
       0.12614298 -0.16283946 0.1915738 -0.22663577
000260 28 b5 1d be a0 a6 03 3e e0 c9 f0 be d0 9b 17 bd
       -0.15401137 0.12856531 -0.47029018 -0.03701383
000270 c8 58 5e 3e 13 93 03 bd c9 d9 b2 bf e9 e6 aa 3e
       0.21713555 -0.032122683 -1.3972713 0.33379295
000280 d9 aa c1 be f1 33 64 3e 92 1e d6 3e 04 03 93 be
       -0.3782566 0.22285439 0.41820198 -0.28713238
000290 bd b8 98 3e 68 9a 40 3e 05 78 cf be 5a 7d 89 3e
       0.29828444 0.18808901 -0.40521255 0.26853448
0002a0 9e c2 bb 3d b7 9e 4e be 82 ea 99 3e b8 ed 31 be
       0.0916798 -0.20177732 0.30061728 -0.17375839
0002b0 0b 89 da 3c eb 7b 13 3e 1a 9a 90 3d 90 4b db bd
       0.026676675 0.1440274 0.070606425 -0.10707772
0002c0 97 fd 16 3e 9f 9b 99 3d fd ba 7c 3a d7 b1 1f be
       0.14745174 0.075003855 0.00096409005 -0.15595184
0002d0 20 2a f8 be fa 83 8b 3e 78 5f 18 be 10 42 82 bd
       -0.4846964 0.27249128 -0.14880168 -0.06360257
0002e0 c9 7f 95 3e 55 75 48 3e bf 9c b0 be 27 80 1a 3e
       0.29199055 0.19576009 -0.34494588 0.15087949
0002f0 d5 92 98 3d 99 f6 9c 3e 2b 7d 7b bf b7 32 93 3e
       0.07449881 0.3065689 -0.98237866 0.2874963
000300 92 a1 f2 3e 5f a3 1a be 37 78 bd be 16 83 17 3e
       0.47388893 -0.15101384 -0.3700578 0.14796099
000310 19 ea 6d 3e 46 94 84 be ef 4c b9 be f5 20 42 3e
       0.23233832 -0.25894374 -0.36191508 0.18957885
000320 c5 5b 4b be b5 25 8b bf 22 b7 ca 3d 72 31 90 3e
       -0.19859226 -1.0870882 0.09898211 0.28162724
000330 b0 81 c7 be 00 e3 81 3c e2 a2 df be fc 17 5e be
       -0.3896613 0.015855312 -0.43678957 -0.21688837
000340 9c 67 67 bd d1 89 25 3f 74 0c 83 3d 35 e8 56 be
       -0.056495294 0.64663416 0.063988596 -0.20987017
000350 f4 5b 01 3f b6 23 dc 3e 5f 73 23 bf 86 90 95 3b
       0.50530934 0.42995995 -0.6384792 0.0045643477
000360 5e 3c 27 3e 10 9c 70 3e 20 cf 95 3e 9f a2 8f 3d
       0.16331622 0.23497033 0.29259586 0.070134394
000370 3c d9 0b bf 90 cf 06 bf ee e5 91 be c6 3e c6 be
       -0.5462835 -0.52660465 -0.28495735 -0.38719767
000380 25 53 25 3e de be 6e 3c 3d 90 ff 3e cc b7 cc bd
       0.16144998 0.0145718735 0.49914733 -0.09995994
000390 53 b0 4e 3e 67 4b 87 bf 14 1f 34 c0 d2 3a 34 3e
       0.2018445 -1.0569886 -2.8143969 0.17600563
0003a0 98 3d d7 3d 54 14 e8 3d 32 84 9b be 6d 55 95 3e
       0.10509795 0.11332002 -0.30374295 0.29166737
0003b0 57 16 43 be 0e 05 f9 3e 66 ce cf 3d 55 f7 c5 3c
       -0.1905149 0.4863667 0.10146789 0.024165789
0003c0 47 b8 87 bf 8c c7 9e be 76 b3 dd 3d 66 59 a2 3d
       -1.0603112 -0.31011617 0.10825245 0.07927208
0003d0 be c2 62 3e a2 11 cc 3e b5 31 8c 3d cd d9 aa bd
       0.22144601 0.39857203 0.06845418 -0.083423235
0003e0 89 aa a7 be c2 bc 67 bf d4 48 dd be a4 f5 6f 3e
       -0.32747295 -0.90522397 -0.43219626 0.23433548
0003f0 ee 05 c1 be 97 5b 30 3f ed 2a 08 3f c2 cc cb be
       -0.37699836 0.68889755 0.531905 -0.39804655

fc1.bias f4 [64]
000000 ae 55 b8 bd 73 56 27 3e fd d1 cf bd d3 a0 53 3e
       -0.09000717 0.16341572 -0.10147474 0.20666818
000010 9d ab 83 be 59 8c d5 be 43 be 34 be 30 d6 50 3d
       -0.25716868 -0.4170864 -0.17650704 0.050985515
000020 04 d0 64 bd f6 4a 3e be b2 07 fe be d5 c3 be be
       -0.05586244 -0.18583283 -0.49615246 -0.37258783
000030 24 18 03 bf 65 00 2c 3d c4 88 8c be 63 b2 98 be
       -0.5120871 0.041992564 -0.27448094 -0.29823598
000040 5f 53 2c 3e 6c 42 ea be 8f f6 bb 3e 90 9a 27 3d
       0.16828679 -0.457538 0.36711547 0.040918887
000050 42 14 45 be d6 3e 79 bc 08 5b bc bd 74 25 ad be
       -0.19246009 -0.015212735 -0.0919705 -0.33817637
000060 32 2d 96 be e8 c0 ca bd d7 f3 a9 3e 9d fc de 3d
       -0.29331356 -0.09900075 0.33193848 0.10888026
000070 54 b5 96 3e 45 96 de 3e f8 41 02 bd b6 7f 14 3f
       0.29435217 0.43474022 -0.031801194 0.5800737
000080 b7 48 3c 3e d5 a3 23 be 32 34 9c be 21 5d c1 3e
       0.18387114 -0.15980466 -0.30508572 0.37766364
000090 d1 b7 49 3c 5a b2 11 bf 2c e5 fe be 73 9f d5 bd
       0.012311892 -0.5691277 -0.4978422 -0.10430803
0000a0 6f b7 ae be 96 a1 8c be 92 e4 c3 3e c2 de 73 3e
       -0.34124324 -0.2746703 0.38260323 0.23815444
0000b0 d7 8c e1 3e e0 c7 a8 bc 30 ee 21 be 7b 6b 97 bd
       0.44052765 -0.02060312 -0.15813518 -0.07393547
0000c0 34 d4 01 bf e2 8c dd 3c 61 44 2d bb ac 9b 6e 3e
       -0.5071442 0.027044717 -0.0026438462 0.23301572
0000d0 e8 6c 88 3e 63 d8 b1 be 06 ca 94 be 9b 3e 48 be
       0.2664559 -0.34735402 -0.29060382 -0.19555132
0000e0 7a 2c 74 be 5a 59 71 3e 28 99 53 3e 8b 4d 90 3e
       -0.23845091 0.23569241 0.20663893 0.2818416
0000f0 22 16 59 bf 34 ec f0 be c1 59 e7 3c df 09 18 3e
       -0.84799397 -0.4705521 0.02824104 0.14847516

fc2.weight f4 [64, 64]
000000 e8 34 97 3e 18 d7 3f 3e 78 1f 9b be 70 f4 7b be
       0.29532552 0.18734396 -0.30297446 -0.24604964
000010 f7 7a 30 3e 36 bb 22 be 5e ed d9 bd 00 5f c3 3c
       0.17234407 -0.15891728 -0.10640977 0.02384901
000020 89 78 ab 3e 96 cb 57 bf 0f b0 5d bf 6e 8d 98 3e
       0.334904 -0.8429502 -0.8659677 0.29795402
000030 5c f1 0c bd e4 be 1d bd 20 ad 1c 3e 0a c0 cc bd
       -0.034409866 -0.038512126 0.15300417 -0.09997566
000040 1a 9d 98 3d 80 71 97 3c 5a 38 69 bd b3 13 25 bf
       0.0745184 0.018486738 -0.056938507 -0.64483184
000050 f8 c2 e8 bf fa d1 17 bf 68 40 cd bc 00 ef 36 3c
       -1.81845 -0.59304774 -0.025055125 0.0111653805
000060 0a d0 37 3e c8 10 d3 bc 9e fc 97 be 7f ab f7 3d
       0.17950454 -0.025764838 -0.2968492 0.12093257
000070 8e 2f 79 3e 06 3e c8 be 3b f8 6a be c9 18 0f bd
       0.24334547 -0.3910982 -0.22946255 -0.034935746
000080 04 ae 9b bf 18 a2 3e be af 2c 5c be f1 d0 e0 3d
       -1.216248 -0.18616521 -0.2150142 0.109773524
000090 83 c5 8b 3c f6 d0 cf bc e2 19 ff bd 02 b1 b8 bd
       0.017061954 -0.025368195 -0.12456109 -0.090181366
0000a0 82 5b 95 3e 5f fd 6e bd e9 a2 2d 3e 99 bf 8c 3d
       0.29171377 -0.058347102 0.16956677 0.06872482
0000b0 12 ad eb bd 1e f5 e8 3d 60 70 f8 bc 32 3c ad be
       -0.1150762 0.113748774 -0.030327022 -0.33834988
0000c0 86 d6 97 3e 65 84 05 be 29 30 55 3e 1c 4d 22 3d
       0.29655856 -0.13038786 0.20819153 0.03962432
0000d0 12 14 86 bf 56 cb 57 3e ae 2d 25 bd 40 0b a2 3d
       -1.0474875 0.2107366 -0.040326767 0.07912302
0000e0 4a 8f 42 3e 90 4c 4e bd df ba 78 be 5f 67 a7 bc
       0.18999973 -0.050365984 -0.24290036 -0.020435033
0000f0 bc 5d 5d be c3 d4 d5 3d c9 2c 92 bc 60 da e0 3e
       -0.21617788 0.10440972 -0.01784362 0.43916607
000100 22 6a f1 bc a5 99 2c 3e 4b 1c b1 3d 77 36 f2 3d
       -0.029469553 0.16855486 0.086479746 0.118267946
000110 77 30 85 bd b9 be 1f 3c 68 8d b9 bd c0 32 b4 3c
       -0.065033846 0.009750062 -0.09060174 0.021996856
000120 e0 ef 95 bd 5e 0b 58 3e d3 17 01 bb 04 a7 7e bf
       -0.07321143 0.21098086 -0.0019698038 -0.99473596
000130 e1 c4 39 bd 5f 92 5b 3f 19 fb 40 3c dd bd 75 bc
       -0.045353774 0.8577022 0.011778616 -0.01499888
000140 29 e0 d3 3c 27 7b 9a bd 20 16 b0 3d 83 2e 83 be
       0.025863724 -0.07543021 0.0859797 -0.25621423
000150 d2 09 33 bf 11 d7 7e bd 60 b4 59 3c a7 36 4e bc
       -0.6993686 -0.062216822 0.013287634 -0.012586272
000160 8d 25 68 bf 15 7b 0e 3e 1d 58 07 3c 4b ac 89 bd
       -0.906823 0.1391414 0.008260754 -0.067223154
000170 55 f3 86 3c 5e 28 d2 be 38 b4 06 bf 0e 6c 9f ba
       0.016473452 -0.41046423 -0.5261874 -0.001216294
000180 3e 1a 6a bd 2d 35 ba 3e d3 e4 0c be e5 75 85 bc
       -0.057153933 0.36368695 -0.13759165 -0.016291568
000190 d2 cd 9f bc 3e 02 cb 3d fc a3 6e bd bb e6 02 bf
       -0.019507322 0.09912537 -0.058261856 -0.51133317
0001a0 86 2a ce be df 3e 2c 3f 2d 8c 1b be e3 a3 d0 3c
       -0.40266818 0.67283434 -0.15190192 0.025468772
0001b0 c3 4d 3b 3d 80 76 d2 3a cf a2 44 3e b3 8a 99 3e
       0.045728456 0.0016057044 0.19202732 0.29988632
0001c0 e2 b1 bb bf 5c 39 7c bf 4c 8a 07 3e 00 dd e1 3d
       -1.466366 -0.98525023 0.1323635 0.110284805
0001d0 2d d5 b6 3e 9a 8f ba 3e 85 c9 95 3d 71 f7 c9 3d
       0.35709515 0.36437684 0.073138274 0.09861649
0001e0 21 05 87 3d 42 32 a1 3d c1 99 0c 3f a5 a3 0a bd
       0.06592775 0.07870914 0.5492211 -0.03384747
0001f0 e5 31 46 be 45 67 91 bd 69 b5 37 bb 89 16 68 3d
       -0.19354971 -0.07099775 -0.0028031713 0.056662116
000200 d0 73 78 bf 1e 90 e8 be 5f 35 0e be ec 19 7a 3e
       -0.97051716 -0.45422453 -0.13887547 0.24423951
000210 10 b1 62 3e 6b 98 2f 3e 90 ea 1a be b0 78 46 bc
       0.22137856 0.17147987 -0.15128541 -0.012113735
000220 69 27 fb 3d 94 f6 d0 3d 70 9f 73 bc 19 4c 8e 3d
       0.12263376 0.10203281 -0.014869556 0.06948108
000230 d2 60 3c bd 8e d5 cd be 57 29 99 3c c3 7b 7b 3d
       -0.045990773 -0.40201992 0.01869647 0.061397325
000240 23 d5 a8 3d dd 34 ca bd 80 58 1f 3e 33 34 00 be
       0.082437776 -0.09873364 0.15561104 -0.12519912
000250 7f 4e 3c bf 60 ef 49 be 84 b8 d6 bd cf 5b dc 3c
       -0.73557276 -0.1972022 -0.10484412 0.026899246
000260 67 d5 80 be 1c 65 37 3e 61 30 2e bd 59 60 b1 3d
       -0.25162813 0.17909664 -0.042526606 0.08660955
000270 73 3f 0b 3e 09 af 8a 3e 87 8a f4 be 3f b4 58 bd
       0.13598423 0.27086666 -0.47761938 -0.05290627
000280 36 f8 1a bd df 5c 4b 3d 4b 43 6b 3b 6b de 9c bd
       -0.03783437 0.049649116 0.0035898264 -0.0765961
000290 05 64 89 be 6a ce 5c 3e c0 39 f1 3b e4 eb 19 3e
       -0.2683412 0.21563116 0.0073616207 0.15031391
0002a0 69 08 ab be b3 56 3b bd 89 62 40 3e 82 57 32 3e
       -0.33404854 -0.04573698 0.18787588 0.17416194
0002b0 d0 cc ce be 24 a5 5d bd eb 6a 1c bd 7d 81 9d bd
       -0.40390635 -0.05411257 -0.038187902 -0.076907136
0002c0 78 ac 0d c0 57 a7 61 be 34 fc 7d be ec 9f 9f bd
       -2.2136517 -0.22036491 -0.24803239 -0.077941746
0002d0 87 a4 15 3b 32 a0 d4 bf 77 25 ab bd db 77 87 bc
       0.0022833662 -1.6611388 -0.08356755 -0.016536644
0002e0 7a 46 cf 3d bd 2d 94 3d 93 7c 3f be 23 7e 43 be
       0.10120864 0.072352864 -0.18699865 -0.19091086
0002f0 f8 43 1a bf 53 8c cc 3d 88 cb 9a 3c de b2 fe 3d
       -0.6025996 0.09987702 0.01889588 0.1243646
000300 31 1b 00 3d 50 e4 2c bd c0 40 57 3b d0 8d 95 3c
       0.03127593 -0.042209923 0.003284499 0.018256098
000310 28 8d 63 bc 10 5e d1 bd fc 75 2e bd 6c 30 fa 3d
       -0.013888635 -0.10223019 -0.042592987 0.12216267
000320 a0 39 cb bc a4 52 14 3d 24 83 57 3d 75 d2 df bb
       -0.024807751 0.036211625 0.0526153 -0.0068305084
000330 e0 90 47 bd 6b 4f d5 bc 74 b4 ec bd 8a b3 ee bd
       -0.048722148 -0.026038846 -0.11557856 -0.11655338
000340 83 ff 6e 3d aa f8 86 3d a6 56 c8 3d 3a 3b 13 bd
       0.058349144 0.06590398 0.09782152 -0.035945155
000350 e0 c0 fb bc ca bf 09 be 00 d6 92 ba 08 91 ac bd
       -0.030731618 -0.13452068 -0.0011202693 -0.084261
000360 e0 2f 08 be 5e 50 b8 3c 78 a3 34 3d 42 a2 16 be
       -0.13299513 0.02249926 0.04410121 -0.14710334
000370 68 dc bd bd c3 38 e8 bb 10 91 fe bd 68 6b 41 bd
       -0.09270555 -0.0070868446 -0.12430012 -0.04722157
000380 10 19 5d 3c f9 91 8d 3d 4d 1f b8 bd 80 4c 4e bb
       0.013494745 0.06912608 -0.08990345 -0.0031478703
000390 f3 9e 9b 3c 8a 07 a7 bd 0e 8d c7 3d bc a3 f6 bc
       0.018996691 -0.08155735 0.09743701 -0.030107372
0003a0 00 e5 93 bd db 01 90 bd 3e 0d bb bd 57 34 f9 bc
       -0.07221413 -0.07031604 -0.09133385 -0.030420465
0003b0 28 c7 db 3c 1a e3 8b 3d 8f cb e7 bd 33 f6 9e 3c
       0.026828364 0.068304256 -0.113181226 0.019404506
0003c0 a5 69 16 bd ff 15 a5 bc 80 28 09 3d 16 33 ff bd
       -0.036721844 -0.02015209 0.03348589 -0.12460916
0003d0 38 2a dc bc 14 ce 93 3d 77 ad ce bd 2c 9e 37 bd
       -0.0268756 0.07217041 -0.100916795 -0.04482858
0003e0 02 b4 e7 bd bc b4 00 bd 34 92 b7 3d 9d d7 1e be
       -0.11313631 -0.03142236 0.08963433 -0.15511937
0003f0 30 89 83 3d e6 6b 79 bd 6c fc c1 bd da 19 ac bd
       0.06422651 -0.060893916 -0.09471974 -0.08403368

fc2.bias f4 [64]
000000 5c 72 5f 3e eb c2 e9 3c c8 86 8f bd 9e 2f 86 3d
       0.21820968 0.028535327 -0.07008129 0.06552051
000010 a1 66 db bd e5 98 1f 3d 53 25 0e 3e 84 e1 fb bd
       -0.10712934 0.03896417 0.13881426 -0.12298873
000020 82 b4 1d 3d ba 94 b4 3d d6 72 d8 3d 2f 7b 12 be
       0.038502224 0.0881743 0.10568778 -0.14304803
000030 48 53 1a be 45 86 05 3e e2 22 18 3e 42 ed a2 bd
       -0.15070832 0.13039501 0.14857057 -0.079554096
000040 a1 d4 0f ba 3f 82 f2 bb 5f 60 26 3d 7c f3 27 3e
       -0.0005486701 -0.0074007805 0.04061925 0.16401476
000050 07 26 35 bd 74 fa 81 bd b0 b5 f4 3c 1e 64 02 be
       -0.04422572 -0.06346598 0.029871792 -0.12733504
000060 d8 da 38 be 36 11 f9 bd 6e 39 9a bb 77 fd 1a 3d
       -0.18052232 -0.12161486 -0.004706553 0.03783938
000070 90 7a 86 be 1b 9b 7b 3d b7 56 a2 bb 30 27 0f 3e
       -0.26265383 0.061427217 -0.004954185 0.13979793
000080 c6 2b 9d bc 97 5f 0d bd b2 95 c5 bd 54 73 6d 3d
       -0.019185912 -0.03451499 -0.09647693 0.057971314
000090 42 da 9f bd 97 e9 69 3d b0 6d 0e bc c2 2d 7d 3d
       -0.07805301 0.057107534 -0.008693144 0.061811216
0000a0 85 a6 29 3d ba d7 87 3e f4 1d 6a 3d e5 41 20 3e
       0.04141857 0.26531774 0.05715747 0.15650137
0000b0 7b e8 14 be 2c 19 56 3d c8 4e 51 3e 9e 69 b0 3d
       -0.1454181 0.0522701 0.20440209 0.08613895
0000c0 97 d6 22 3d e8 49 8b bd 8f 5a 28 3d ce 3f 49 be
       0.03975543 -0.06801206 0.04110199 -0.19653246
0000d0 11 01 3d bd b9 63 06 3e 21 45 cc 3d 87 50 9f bd
       -0.046143595 0.13123979 0.09974123 -0.07779031
0000e0 ca 9f 91 3d 9b 0b 2b 3d eb 1c 31 bd 6f d4 e9 bd
       0.071105555 0.041759115 -0.04324047 -0.114174716
0000f0 f9 27 87 bd ce 8f df 3d ce 28 b2 bd 90 a7 9e 3d
       -0.06599421 0.109161004 -0.08699189 0.07746804

fc3.weight f4 [2, 64]
000000 39 b3 dc 3e 11 4c 10 3e 9f 49 af 3d 90 83 83 3d
       0.43105486 0.14091517 0.08558964 0.06421578
000010 53 6b 35 be 37 54 6e bc 9d bf 64 3e 35 a6 4f 3d
       -0.17716722 -0.014546446 0.2233872 0.050695617
000020 98 d0 90 be 7c 9c 02 bf 9f e6 9c 3c 2f d5 60 bd
       -0.28284144 -0.51020026 0.019152937 -0.054890808
000030 c9 e2 8a bd ac 2d 3b 3c 25 e4 d8 3d 71 f6 d3 bd
       -0.06781537 0.011424463 0.1059039 -0.10349739
000040 d7 97 80 3d e6 d6 04 bc c0 f7 8b bc a1 42 b7 3d
       0.06278961 -0.008107876 -0.01708591 0.08948255
000050 d1 9c dd ba 02 1f da bd d5 b4 98 bd 1a 46 25 3d
       -0.0016907697 -0.106504455 -0.07456366 0.040350057
000060 b0 45 72 3e 00 33 75 3c 0a 51 97 3d 8f a2 a6 3c
       0.23659396 0.014965773 0.07388504 0.020341186
000070 72 57 f1 bb 54 93 10 3c 30 b8 97 3d 4e 69 0b 3e
       -0.0073651606 0.008824188 0.07408178 0.1361439
000080 fd cd c0 3d e5 3b dd 3c ac 10 fd 3d 85 91 25 3e
       0.09414289 0.027006099 0.123566955 0.16168793
000090 7d 67 51 3d ee 90 e1 bb ff e3 07 bd c9 a8 ec 3d
       0.051124085 -0.006883732 -0.03317642 0.11555631
0000a0 23 0c c7 3d fe 64 37 3e f8 54 b0 bd 85 5d 89 3d
       0.09719112 0.17909619 -0.086099565 0.067072906
0000b0 29 8e 69 bd 0c ab 01 3d b6 6f 14 3e e2 75 1d be
       -0.05702034 0.031657264 0.1449574 -0.15377
0000c0 99 3b cb 3d 2a 1d ae 3d b6 05 bd 3d ad 60 9c be
       0.09923477 0.08501656 0.09229605 -0.30542508
0000d0 ee 09 a8 3d f6 29 0e bf be 82 1c 3b 77 c7 da bc
       0.08205019 -0.5553278 0.002388164 -0.02670644
0000e0 7c 29 4e bd 90 e7 16 be 58 bb b0 be fe e0 f7 bd
       -0.05033253 -0.14736772 -0.34517932 -0.12103461
0000f0 0c ac 3e 3d b6 bc 0e 3e 10 ac f9 bd d6 93 83 3d
       0.046550795 0.13939175 -0.121910214 0.06424682
000100 eb 32 e8 be e1 2e 26 3e c3 07 d9 3d 6c fa b4 bd
       -0.45351347 0.1622882 0.105971836 -0.08836827
000110 c4 d8 96 be 0c 99 77 bd b1 95 4a be 60 8f 7c 3d
       -0.29462254 -0.06044869 -0.19783665 0.06166017
000120 b2 f5 98 be 5b e0 05 bf 62 f7 c3 3d 3e 5f 22 bd
       -0.2987495 -0.52295464 0.09568669 -0.03964161
000130 7e 00 da bd a8 a0 a4 3a 1c 22 a2 3d 4c 60 dd 3d
       -0.10644625 0.0012560086 0.07916662 0.10809383
000140 17 15 af 3e 5b 9e 23 3c 18 f3 ae bd f0 f8 bc 3d
       0.34195778 0.009986485 -0.0854246 0.092271686
000150 2d 9e c2 3d fb e2 d1 bd 38 dc 2b 3d c1 5b 1b bd
       0.09502826 -0.10248371 0.041958064 -0.0379293
000160 45 ff 46 3e e8 29 54 bd 70 a5 69 3d a0 08 97 bd
       0.19433315 -0.051797777 0.05704254 -0.07374692
000170 5e 6e 8f 3e 39 04 9f bc cd 0b a3 3d c5 0f f2 3d
       0.2801389 -0.019411193 0.07961235 0.11819414
000180 48 d3 fb 3d f2 49 80 bd 6c 21 24 3d df 98 09 3e
       0.12296158 -0.06264104 0.040070936 0.13437222
000190 34 94 38 3d 22 e5 1e 3c e4 9a fc bc 22 c1 f7 3d
       0.045063213 0.009698184 -0.030835576 0.12097384
0001a0 5b 00 19 3e 4d ae 11 3e 80 73 03 3d 2e ed 9e 3f
       0.14941542 0.14226647 0.03209257 1.2416131
0001b0 8b 70 9d 3d d5 0a ba bc 55 de 17 3e c9 93 2d be
       0.076874815 -0.022710243 0.14830907 -0.16950907
0001c0 27 39 f5 3d e8 aa 44 bd 63 2a b2 bd 98 8d 99 be
       0.119737916 -0.04801455 -0.08699491 -0.2999084
0001d0 44 af c9 3d 4d 9e 0c bf 5f 3a 93 bc 91 06 9a 3d
       0.098478824 -0.5492905 -0.01797217 0.07520784
0001e0 4e 64 cc bd 2d 16 2d be 96 ee a8 be 4e a1 ab bc
       -0.09980069 -0.1690299 -0.32994527 -0.02095094
0001f0 4f 9a 4c bd 7c a7 10 3e 1b 26 c2 3b 1e df 14 bd
       -0.049951848 0.1412639 0.0059249527 -0.036345594

fc3.bias f4 [2]
000000 19 b0 96 3d 9e 40 ce 3d
       0.07357807 0.100709185
